trained_models/sigma_75.model (torch_old, 766796 bytes, 12 tensors)

apply_A1.weight f4 [175, 1, 11, 11]
0	0x3d0cede8	0.034406573
1	0x3d3bf34f	0.045886334
2	0xbd08f088	-0.033432513
3	0x3bf4f438	0.007475402
4	0xbc71d3c9	-0.014759966
5	0x3d7d713e	0.061875574
6	0xbd74105d	-0.059585918
7	0xbd8a7aba	-0.067616895
8	0x3e014c1e	0.12626693
9	0xbdbb6c85	-0.09151558
10	0xbba47354	-0.005018631
11	0xbccf86d1	-0.02533284
12	0x3d0aa368	0.033847243
13	0x3d82b00b	0.06381234
14	0x3e8146fd	0.25249472
15	0x3dd54496	0.10413472
16	0xbd900fbf	-0.07034253
17	0x3e2bef4e	0.16790506
18	0xbdbb9090	-0.091584325
19	0xbcb05766	-0.02152605
20	0xbe3adb1c	-0.18247646
21	0xbe905c80	-0.28195572
22	0xbd2b43bc	-0.041812643
23	0x3d5bb89b	0.05364285
24	0xbd63d87e	-0.055626385
25	0xbcedd444	-0.02903188
26	0xba64df47	-0.00087307807
27	0x3df24f40	0.11831522
28	0xbdab3f26	-0.08361654
29	0xbd5cee07	-0.053937938
30	0x3c645ceb	0.013938169
31	0xbd1754e5	-0.036946196
32	0x3da448d2	0.08021702
33	0xbde6d485	-0.11271004
34	0xbde49b33	-0.111624144
35	0xbcf7189a	-0.030163098
36	0x3d2570dd	0.040390838
37	0x3b51939b	0.003197885
38	0x3d487773	0.04894204
39	0xbda758e5	-0.08171252
40	0x3dc69a59	0.09697408
41	0x3e8d3851	0.27582029
42	0xbdcfe0e7	-0.101503186
43	0xbde97ee8	-0.114011586
44	0xbdc6eaae	-0.0971273
45	0xbe070583	-0.13185696
46	0xbc79e7b5	-0.015252997
47	0x3d97c281	0.074101456
48	0xbd8a0328	-0.06738883
49	0x3b4ac479	0.003093986
50	0x3d1dbe96	0.038511835
51	0xbc47f55a	-0.012204492
52	0xbca2a9ac	-0.019856296
53	0x3cfcea7f	0.030873535
54	0xbd644b9d	-0.055736173
55	0x3dec393b	0.11534353
56	0x3df771f7	0.12082284
57	0xbe5fcf91	-0.21856524
58	0xbc1263aa	-0.008934895
59	0xbd1abeb8	-0.03777954
60	0xbcbe02c4	-0.023194678
61	0x3c9d2f99	0.019187735
62	0xbd8c69b0	-0.06856096
63	0x3dd44b51	0.10365928
64	0xbd2c355c	-0.042043075
65	0x3cd72414	0.02626232
66	0xbc581cc0	-0.013190448
67	0x3d2aaef1	0.041670743
68	0x3e2938fe	0.16525647
69	0x3d32d86b	0.043663424
70	0xbcb92291	-0.02259949
71	0xbc29442f	-0.010331198
72	0xbcc79c27	-0.024366451
73	0xbcdd67ea	-0.02702709
74	0xbc588cbc	-0.013217147
75	0xbd06efd3	-0.032943558
76	0xbd66a960	-0.056313872
77	0xbd5242c8	-0.05133322
78	0xbdda5ec4	-0.10662606
79	0x3ca93eb5	0.020659784
80	0xbbf89ed7	-0.0075872946
81	0x3da72d98	0.08162993
82	0x3d83e1b9	0.064395376
83	0x3d321aa9	0.043482456
84	0x3d97f1b7	0.0741915
85	0x3ca3a311	0.019975217
86	0xbdd90ad7	-0.10597771
87	0x3e13f526	0.14448985
88	0xbd53c1b4	-0.0516984
89	0x3dfbf2f5	0.123022
90	0x3cec4af4	0.028844334
91	0xbd7bee1d	-0.06150638
92	0xbca4d31e	-0.0201202
93	0x3c29a54a	0.010354349
94	0x3b7e43d1	0.0038797746
95	0x3da227e7	0.07917767
96	0x3d347a64	0.044062033
97	0xbc92212c	-0.017838083
98	0x3c4acbd8	0.012377702
99	0xbddea6c4	-0.10871652
100	0x3e055078	0.13018978
101	0xbcf35810	-0.029705077
102	0xbd8402a3	-0.064458154
103	0xbe029457	-0.127519
104	0xbe441571	-0.19148804
105	0xbceebdfb	-0.029143324
106	0x3c9866e3	0.018603748
107	0xbbd427b5	-0.00647446
108	0x3d1a6cf6	0.03770157
109	0x3e1c5517	0.15266834
110	0xbe05a65f	-0.13051747
111	0x3c1a3506	0.009412056
112	0x3d45695a	0.048196174
113	0x3c7c903b	0.015415247
114	0xbd0c1ff5	-0.034210164
115	0x3dbdd376	0.092688486
116	0xbcb9e42e	-0.022691812
117	0x3ca8eda8	0.020621136
118	0x3d4d22b7	0.050081935
119	0xbdd87aa7	-0.10570269
120	0xbd3aa4c7	-0.0455673
121	0xbe218f82	-0.157774
122	0xbe50cc19	-0.20390357
123	0x3e2b1794	0.16708213
124	0xbdc4718f	-0.09591972
125	0x3db34f5c	0.08755371
126	0x3bfc539c	0.0077003967
127	0x3dfb08a1	0.12257505
128	0xbe490e9e	-0.19634482
129	0xbe509946	-0.20370969
130	0xbde08b70	-0.109640956
131	0xbe01e5fd	-0.1268539
132	0xbd304169	-0.04303113
133	0x3dee17c5	0.116256274
134	0x3e01933b	0.1265382
135	0x3e555fd7	0.20837341
136	0x3e2fee2e	0.17180702
137	0x3c8e44af	0.017366735
138	0xbbb0c5db	-0.00539468
139	0x3e7221d4	0.23645717
140	0x3d8070fa	0.062715486
141	0x3cbcf429	0.023065643
142	0x3e0e9a40	0.13926029
143	0x3d8c0568	0.06836969
144	0xbdae1399	-0.08499832
145	0x3e034c7f	0.1282215
146	0xbd8d2e8b	-0.06893643
147	0xbe5355f8	-0.20638263
148	0x3d47dec1	0.04879642
149	0xbc9bd972	-0.019024584
150	0x3d909f41	0.07061625
151	0x3cec1af8	0.028821453
152	0x3d09cb35	0.03364106
153	0x3d6cbbc2	0.057796247
154	0xbd035ef9	-0.032072995
155	0x3c558c53	0.013033944
156	0x3e31d2d6	0.17365584
157	0x3d9ec1b7	0.07751792
158	0x3cf21223	0.029549664
159	0xbe025229	-0.12726654
160	0x3ca54c96	0.02017812
161	0x3da33718	0.07969493
162	0xbd37f7ff	-0.044914242
163	0x3e7b1a9f	0.24521874
164	0xbd4cf9fb	-0.050043087
165	0xbd28abcf	-0.041179474
166	0x3d8b2759	0.06794614
167	0x3d5635ba	0.05229733
168	0x3df7ddb7	0.121028356
169	0x3c225308	0.0099074915
170	0xbc5a65ad	-0.013329905
171	0x3ca47144	0.02007354
172	0xbd882a75	-0.06648723
173	0x3dc213bd	0.09476421
174	0x3c782f47	0.015147991
175	0xbd1e22cd	-0.038607407
176	0x3bad7d1b	0.0052944547
177	0x3d6e2fcf	0.058151063
178	0x3cf3b3d7	0.02974884
179	0x3b7f2a8a	0.0038935267
180	0xbca7e6d0	-0.020495802
181	0xbd8f27ba	-0.06989999
182	0x3dae361a	0.08506413
183	0x3cda87fa	0.026676167
184	0x3cc2a4f8	0.023760304
185	0xbe824bc3	-0.25448427
186	0x3cbcebfb	0.023061743
187	0x3d77b574	0.06047578
188	0xbca301ca	-0.019898314
189	0x3d902035	0.07037393
190	0x3d46ca0f	0.04853254
191	0x3e021bdf	0.12705944
192	0x3d53bfc5	0.051696558
193	0xbc7fde28	-0.015616931
194	0x3d3d4184	0.04620506
195	0x3c91ac86	0.01778246
196	0xbdcd64a8	-0.10028964
197	0xbe0257fe	-0.12728879
198	0xbce62772	-0.02809498
199	0xbdad589e	-0.08464168
200	0x3e17b891	0.148165
201	0xbdfe8ac8	-0.12428814
202	0x3e361200	0.17780304
203	0x3ca90809	0.020633714
204	0x3c2ffc25	0.010741268
205	0x3b21046c	0.0024569286
206	0x3e1972f8	0.14985263
207	0xbe0fe635	-0.14052661
208	0xbd426200	-0.04745674
209	0x3e206d42	0.15666679
210	0x3df17007	0.11788946
211	0xbe0bcb37	-0.13651739
212	0xbe155188	-0.14581883
213	0x3da99840	0.082809925
214	0x3e6d1c05	0.2315522
215	0x3c37b856	0.011213383
216	0x3dfed33a	0.12442632
217	0xbca0eaae	-0.019643154
218	0x3d96d9f5	0.07365791
219	0xbcc51f1e	-0.02406269
220	0x3e1e6b02	0.15470508
221	0x3aa321e3	0.0012446012
222	0x3e2f83b4	0.17140085
223	0xbe998725	-0.2998592
224	0x3d47f1e0	0.048814654
225	0x3d3d00da	0.04614339
226	0xbd206a71	-0.03916401
227	0xbcd876ea	-0.02642389
228	0x3dfaef5f	0.12252688
229	0xbe049935	-0.12949069
230	0xbddae16a	-0.106875256
231	0xbdc5f097	-0.096650295
232	0x3de5399d	0.111926295
233	0xbc8e42af	-0.017365782
234	0xbd80de99	-0.06292457
235	0x3d3103a9	0.04321638
236	0xbdd92def	-0.10604464
237	0x3b3465f5	0.0027526591
238	0xbe7be705	-0.24599846
239	0xbe5d3651	-0.21602751
240	0x3e0068ad	0.1253993
241	0xbd2de730	-0.042456806
242	0x3dc1d4f5	0.094644465
243	0xbd214d83	-0.03938056
244	0xbd1ed2c5	-0.038775224
245	0xbe06ad17	-0.13151966
246	0xbd93ba79	-0.07213301
247	0xbda247f5	-0.07923881
248	0x3a75771b	0.00093637564
249	0xbd3a14a6	-0.045429848
250	0xbde741b7	-0.11291831
251	0x3bdb78e9	0.006697763
252	0x3d8135c4	0.06309083
253	0xbda81916	-0.0820791
254	0xbe034eb9	-0.12822999
255	0x3d00832e	0.031375103

apply_B1.weight f4 [175, 1, 11, 11]
0	0x3b36ad8c	0.0027874438
1	0x3d757276	0.05992361
2	0xbd3390f1	-0.0438394
3	0x3d200659	0.039068554
4	0xbc56636f	-0.01308523
5	0x3cdb0b75	0.026738862
6	0x3c02a582	0.00797403
7	0xbd59f684	-0.05321361
8	0x3d07fa26	0.033197545
9	0xbde1fe11	-0.110347874
10	0xbd2f7cf4	-0.042843774
11	0xbb8dec53	-0.0043311506
12	0x3a3244cd	0.0006800413
13	0x3ccf944c	0.025339268
14	0x3df5dc5a	0.12004919
15	0x3d8a1e49	0.06744058
16	0x3a7f1bee	0.000973164
17	0x3daf80ac	0.08569464
18	0xbd2963e6	-0.041355036
19	0xbd96d703	-0.07365229
20	0xbdad325a	-0.084568694
21	0xbe149591	-0.1451018
22	0xbbac0a0b	-0.0052502207
23	0x3c7fe34e	0.0156181585
24	0xbcedf5f1	-0.029047938
25	0xbbc8e09d	-0.0061302916
26	0x3d01e7fb	0.031715374
27	0x3d0f53a5	0.03499188
28	0x3c899638	0.016795263
29	0xbc7b3d4c	-0.0153344385
30	0xbbbf5754	-0.0058392677
31	0x3d5fabb7	0.05460712
32	0x3d1234f6	0.03569504
33	0xbdc0c07d	-0.09411714
34	0xbdc042a1	-0.093877085
35	0xbd92a0d9	-0.071595855
36	0x3d223f04	0.039610878
37	0x3d1647e6	0.03668966
38	0x3d412f9d	0.04716455
39	0x3d448624	0.04797949
40	0x3db27ca3	0.08715179
41	0x3e5857e1	0.21127273
42	0xbd77358b	-0.060353797
43	0xbd1c35fa	-0.038137414
44	0xbd940497	-0.07227438
45	0xbd44a134	-0.048005298
46	0xbc4edceb	-0.012625913
47	0x3d861327	0.06546622
48	0x3c4c763b	0.01247936
49	0x3ca40fc6	0.020027053
50	0x3d69e8fb	0.057106953
51	0x3d3e8fd2	0.046523876
52	0x3ddbd7a6	0.10734491
53	0xbd98f32a	-0.07468255
54	0x3ceaa280	0.02864194
55	0x3d1e2228	0.038606793
56	0x3d3b4ffb	0.045730572
57	0xbddbe070	-0.107361674
58	0x3cbb8e9f	0.022895155
59	0xbc46503d	-0.012104091
60	0xbc5e5226	-0.01356939
61	0x3d7a0286	0.061037563
62	0x3d1cf61a	0.03832064
63	0x3da972ed	0.082738735
64	0xbd0eb619	-0.03484163
65	0x3d27aef4	0.040938333
66	0x3d9ddb75	0.07707874
67	0x3e020088	0.12695515
68	0x3dc202a6	0.094731614
69	0xbcae1315	-0.021249333
70	0xbcfb00a7	-0.03063996
71	0x3b38dd61	0.0028208124
72	0x3caba32f	0.020951835
73	0x3d0f9698	0.035055727
74	0xbd9476ca	-0.0724922
75	0xbd0bbd9b	-0.03411637
76	0x3cb5ccb2	0.022192333
77	0xbce9ee41	-0.028555991
78	0xbd507c89	-0.050900016
79	0x3c551593	0.013005632
80	0xbafa16a1	-0.001908023
81	0x3b4a606f	0.0030880233
82	0xbbf63c2b	-0.007514497
83	0x3d163d99	0.036679838
84	0x3d8e9ba0	0.06963277
85	0xbaeae08a	-0.0017919701
86	0xbdf09137	-0.117464475
87	0x3cf68691	0.030093463
88	0xbd4c406e	-0.049866132
89	0x3b96b945	0.0045997226
90	0x3d3c7cd6	0.04601749
91	0xbd8d413d	-0.06897209
92	0xbbb122da	-0.005405766
93	0x3c9ef6f0	0.019404858
94	0x3c8082d2	0.01568738
95	0x3dc54c3f	0.096336834
96	0xbdda3389	-0.10654361
97	0xba382bee	-0.0007025589
98	0xbd1248a0	-0.03571379
99	0x3c2f45bc	0.010697778
100	0x3d2224e8	0.039585978
101	0x3d9d13d3	0.07669797
102	0xbd5f3fd6	-0.054504238
103	0xbdb5752f	-0.088602416
104	0xbd19e947	-0.037575986
105	0xbc744a03	-0.014910224
106	0xbc306fa4	-0.010768805
107	0xbc93fba9	-0.018064337
108	0x3dd46233	0.103702925
109	0x3cee4bfb	0.029088965
110	0xbd5f7b8a	-0.054561175
111	0xbd893dcc	-0.0670124
112	0x3cae8ec4	0.02130831
113	0x3ce0a687	0.027423156
114	0xbcc7b6d3	-0.02437917
115	0x3cbebc89	0.02328326
116	0xbc063d2d	-0.008193296
117	0x3ccfbd11	0.025358709
118	0xbdac8fbf	-0.08425855
119	0xbe1b0d44	-0.15141779
120	0xbc173be7	-0.00923059
121	0xbca47750	-0.020076424
122	0xbd828432	-0.063728705
123	0xbb9b42f4	-0.004738206
124	0xbbb19858	-0.005419772
125	0xbd2a9b4d	-0.041652013
126	0xbb7d5010	-0.0038652457
127	0x3cb0713d	0.021538371
128	0xbb03efc1	-0.0020131918
129	0x3bd8678e	0.0066041416
130	0xbc4861d7	-0.012230358
131	0xbc3c6c4f	-0.011500432
132	0xbb5e643a	-0.0033934251
133	0xbd7cd763	-0.061728846
134	0xbdd6d51a	-0.10489865
135	0x3c7716d2	0.015081124
136	0x3d18ddec	0.037321016
137	0x3b221319	0.0024730621
138	0x3d1bf5cc	0.038076207
139	0x3dc66703	0.09687617
140	0xbd28cca4	-0.041210786
141	0xbd817c0b	-0.063224874
142	0xbdcdd207	-0.10049825
143	0xbd6ebacd	-0.058283616
144	0xbdadc8e8	-0.084855855
145	0xbd2e0daa	-0.0424935
146	0x3d46cacc	0.048533246
147	0xbbac8500	-0.0052648783
148	0x3d0157a1	0.03157771
149	0x3d95ca2a	0.0731395
150	0x3d81c5e7	0.06336575
151	0x3d3d31e7	0.04619017
152	0xbccabd49	-0.024748461
153	0xbe094435	-0.13404925
154	0x3ccfad6d	0.02535125
155	0x3d1d6d61	0.03843439
156	0xbb8c7664	-0.004286574
157	0x3d8c612a	0.0685447
158	0x3d88c99b	0.06679078
159	0x3d470079	0.048584435
160	0x3cdc0a71	0.026860448
161	0x3d459c33	0.048244666
162	0xbbe42353	-0.006962219
163	0x3c7c0ea4	0.01538435
164	0x3cda8892	0.02667645
165	0xba5fc388	-0.00085359113
166	0x3d3c5edc	0.045988902
167	0x3d57f255	0.05272134
168	0x3d38d6a3	0.04512657
169	0x3dc137e3	0.09434488
170	0x3dd74c04	0.10512546
171	0x3d76dd01	0.06026936
172	0xbdaf5ff1	-0.08563221
173	0xbdad5c81	-0.08464909
174	0xbd078bb0	-0.0330922
175	0x3d4213f0	0.047382295
176	0x3d8b8d25	0.068140306
177	0x3d3d80b5	0.046265323
178	0xbce8f56c	-0.028437339
179	0x3c40db26	0.011770999
180	0x3d543820	0.051811337
181	0x3d86d43c	0.06583449
182	0xbc3d547d	-0.011555788
183	0xbd535ee2	-0.05160416
184	0xbdace50f	-0.08442127
185	0xbd07dc08	-0.033168823
186	0x3d34ef32	0.044173427
187	0x3aaa114d	0.0012975127
188	0xbd326846	-0.043556474
189	0xbcf32e5c	-0.029685192
190	0xbd42908a	-0.047501124
191	0xbe09effd	-0.13470455
192	0xbe136014	-0.1439212
193	0xbba244d9	-0.004952055
194	0x3cd4a5ac	0.025957905
195	0xbdae247c	-0.085030526
196	0x3cb6f396	0.022332948
197	0xbd8f65b0	-0.07001817
198	0x3b05e2c3	0.002042935
199	0xbcd137fa	-0.025539387
200	0xbc0878bc	-0.008329567
201	0xbd87d98f	-0.06633293
202	0x3c3cea41	0.01153046
203	0xbc1ef96b	-0.009703021
204	0x3c9e5d0d	0.01933148
205	0x3ce915a2	0.028452698
206	0x3d3e982c	0.04653184
207	0x3d9c2118	0.076235
208	0xbafabbb5	-0.0019129427
209	0x3dcf2b0b	0.10115632
210	0xbd8dfc70	-0.06932914
211	0xbd9628a6	-0.07331972
212	0x3d255443	0.04036356
213	0x3ca99200	0.020699501
214	0x3d2538c9	0.040337358
215	0x3d106ee8	0.03526202
216	0x3ca2bdd6	0.019865911
217	0x3db14e7e	0.08657549
218	0x3d532c5e	0.051555984
219	0x3df253ec	0.11832413
220	0xbae3dd9f	-0.0017384774
221	0xbd95d599	-0.07316131
222	0xbd6491b0	-0.055803
223	0xbd5e7027	-0.054306176
224	0xbcd49ec4	-0.025954612
225	0xbc18b940	-0.009321511
226	0x3cd00449	0.025392668
227	0xbbe805cf	-0.0070807706
228	0x3b1c4507	0.0023844854
229	0xbd3d4dfd	-0.046216954
230	0xbbbdcd33	-0.005792284
231	0x3da97d5a	0.08275862
232	0x3cecdef8	0.028914914
233	0xbd55ecfd	-0.052227963
234	0x3c8be53f	0.017077086
235	0x3b1af8cb	0.0023646827
236	0x3cb3e942	0.021961812
237	0xbcac39c7	-0.021023644
238	0x3d0253d7	0.031818237
239	0xbd4eecaa	-0.05051867
240	0xbda6de54	-0.081478745
241	0x3d069544	0.032857195
242	0xbba7540b	-0.0051064542
243	0xbb831f78	-0.004001554
244	0xba807d02	-0.000980288
245	0xbcb67817	-0.02227406
246	0x3aea8656	0.0017892818
247	0xbc3f5953	-0.011679011
248	0x3c8c13d4	0.017099299
249	0xbbde9dfa	-0.0067937346
250	0xbc46f799	-0.012143993
251	0x3c3c0568	0.011475898
252	0xbd0b5c40	-0.034023523
253	0xbd211ed7	-0.03933605
254	0x3c7049ce	0.014666034
255	0xbaaceb46	-0.0013192676

apply_C1.weight f4 [175, 1, 11, 11]
0	0xbb31c50c	-0.0027125506
1	0x3c05cad6	0.008166036
2	0x3ca75332	0.020425413
3	0x3c06428d	0.008194578
4	0x3c7ddbb0	0.015494272
5	0x3c8f90a7	0.01752503
6	0x3c98a643	0.018633967
7	0x3bf19303	0.0073722615
8	0xba14d62e	-0.0005677667
9	0xbc8589e4	-0.016301103
10	0xbcc8c7be	-0.024509307
11	0xbbe721b4	-0.0070535783
12	0xbb28d2f6	-0.0025760508
13	0x3ba7f647	0.005125794
14	0x3b8d7bf7	0.0043177563
15	0x3cab1c4e	0.02088752
16	0x3c77ee65	0.015132521
17	0xbb246faf	-0.0025090983
18	0x3c033791	0.0080088535
19	0xbaae989f	-0.0013320631
20	0xbc6a83f1	-0.014313684
21	0xbc339c6c	-0.010962587
22	0xbc1fb614	-0.009748001
23	0xbbf1c88b	-0.007378643
24	0x3ae33d50	0.0017336998
25	0x3bd445dc	0.0064780544
26	0x3c8c57b9	0.017131673
27	0x3bdcda06	0.0067398576
28	0xbbd78c25	-0.006577986
29	0x3bc53686	0.0060184626
30	0xbbed233b	-0.007236866
31	0x3a9db0b6	0.0012030813
32	0xbb4f9b10	-0.0031678118
33	0xbbca71ab	-0.006178101
34	0xbc525680	-0.012838006
35	0xbc4fedb9	-0.012690955
36	0xbc141ec4	-0.009040538
37	0x3cba92f2	0.022775147
38	0x3ca10317	0.019654794
39	0x3c37b337	0.011212162
40	0x3c3bd00a	0.011463175
41	0xbc72d1df	-0.014820545
42	0x3c2bf0de	0.010494439
43	0x3c864346	0.0163895
44	0x3c3b6d14	0.0114395805
45	0xbb3ff0f0	-0.0029287897
46	0xbc30129f	-0.010746627
47	0x3c11ba80	0.008894563
48	0x3ce471a3	0.027886217
49	0x3cda704f	0.026664881
50	0x3c8916b5	0.01673446
51	0x3ca70815	0.020389596
52	0x3c46a3b5	0.012123992
53	0x3c8eb52f	0.01742038
54	0x3c03c2f4	0.008042086
55	0xbbad1391	-0.0052818735
56	0xbc3e93ad	-0.011631888
57	0xbc2610e7	-0.010135866
58	0x3c0f89ec	0.0087609105
59	0x3d306d02	0.043072708
60	0x3c96b0bf	0.018394826
61	0x3c6b5b7b	0.014365072
62	0x3ceb68a5	0.028736422
63	0x3a1c0fb3	0.0005953267
64	0x3c6df683	0.014524105
65	0x3bdf2692	0.006810018
66	0xbbc29175	-0.00593775
67	0xbc88b127	-0.016686035
68	0xbc9e3595	-0.01931266
69	0xbb99aa10	-0.0046894625
70	0x3be0f8c4	0.0068655927
71	0x3ca6b8e7	0.02035184
72	0xbadd3887	-0.0016877808
73	0x3c33f283	0.010983112
74	0x3a91a2e0	0.0011111163
75	0xbbf693ff	-0.0075249667
76	0xbbf9b978	-0.0076209866
77	0xbbf809b2	-0.007569515
78	0xbc86bdfd	-0.016448015
79	0xbcb137d1	-0.02163306
80	0xbb16843b	-0.0022967
81	0x3cbdf8f1	0.023189994
82	0x3d3eaabf	0.046549555
83	0x3c8fae6e	0.01753923
84	0x3cda2a12	0.026631389
85	0x3c12dea9	0.008964219
86	0x3ca384c4	0.019960769
87	0x3aef1d49	0.0018242981
88	0xbc6be509	-0.014397868
89	0xbca46632	-0.020068262
90	0xbcad3f26	-0.021148276
91	0xbb21b362	-0.002467357
92	0x3c927f8a	0.017883081
93	0x3c7b7ac4	0.015349094
94	0x3c0b912c	0.008518498
95	0x3c100f98	0.00879278
96	0x3c6cf9df	0.014463871
97	0x3bb94250	0.005653657
98	0x3c03c8b1	0.008043454
99	0xbc75bd9f	-0.0149988225
100	0xbb978d85	-0.0046250247
101	0xbc4c64ed	-0.012475234
102	0xbaeb2855	-0.0017941097
103	0x3b16cdbb	0.0023010809
104	0x3a40495b	0.00073351496
105	0xbc2c5f89	-0.010520824
106	0x3bd2ffcb	0.0064391843
107	0x3c43b2d8	0.011944495
108	0x3b8d94a8	0.0043206997
109	0x3b5f0885	0.0034032178
110	0xbacc8c1a	-0.0015605718
111	0xba9148a1	-0.0011084267
112	0xbc1cd74e	-0.009572817
113	0x3beb811f	0.0071870233
114	0x3c964451	0.018343123
115	0x3a7a4591	0.00095471094
116	0xbc92324c	-0.017846249
117	0xbc15033b	-0.0090950085
118	0x3c587a4f	0.013212754
119	0x3c5c3c3b	0.013442094
120	0x3c27b8e5	0.010236953
121	0xba3f69e9	-0.00073018536
122	0x39db154f	0.0004178681
123	0x3cf56562	0.02995557
124	0xbaa1a699	-0.0012332975
125	0x3baac2c7	0.0052112076
126	0x3d127650	0.035757363
127	0x3cc2c143	0.023773795
128	0xbbb5b30f	-0.005545027
129	0xbbddaa4d	-0.006764686
130	0xbcc64efa	-0.02420758
131	0xbccf317c	-0.02529215
132	0xbbc362b4	-0.005962694
133	0x3bdd6963	0.006756948
134	0x3c5d4e17	0.013507388
135	0x3ca717b4	0.020397045
136	0x3cb8481f	0.022495328
137	0x3c9d5959	0.019207643
138	0x3d0a50d2	0.033768483
139	0x3c879713	0.01655153
140	0x3cafe856	0.021473091
141	0xbc19c366	-0.0093849655
142	0x3bc99239	0.0061514643
143	0xbc1abd7b	-0.00944459
144	0xbc409509	-0.011754283
145	0x3c9158fd	0.017742628
146	0x3bdb0d64	0.006684946
147	0xbd4ed38e	-0.050494723
148	0xba082814	-0.00051939604
149	0x3d375b98	0.044765085
150	0x3d0f15c7	0.034932878
151	0x3cf8e1ee	0.03038117
152	0x3d081ea7	0.033232357
153	0x3cb49ae9	0.022046523
154	0xbb24da26	-0.002515444
155	0x3b99e144	0.004696043
156	0x3d3d4ecb	0.04621772
157	0x3dc8e5e8	0.09809476
158	0xbc2cc347	-0.010544605
159	0x3baa9cbd	0.005206673
160	0x3db0baca	0.08629377
161	0x3dc12350	0.094305634
162	0x3d28199a	0.04104004
163	0x3d087f7c	0.033324704
164	0x3cdeea0e	0.027211215
165	0x3c42c604	0.011888031
166	0x3d43f493	0.047840666
167	0x3d675843	0.056480657
168	0x3e41553c	0.1888017
169	0x3e65a73f	0.2242708
170	0x3e9f251e	0.31083006
171	0x3e5070bd	0.20355506
172	0xbe0efc7c	-0.13963503
173	0xbd706a29	-0.058694992
174	0xbd43cb07	-0.047801044
175	0xbc7b508a	-0.015339026
176	0x3cd6cb7d	0.026220078
177	0x3d08172c	0.033225223
178	0x3d603a27	0.05474296
179	0x3d1fbcce	0.038998418
180	0x3e113d6f	0.14183591
181	0x3e63c56e	0.22243282
182	0xbd19860e	-0.03748136
183	0xbe363319	-0.1779293
184	0xbd3a2166	-0.045442007
185	0xbc820e76	-0.015876036
186	0xbc3d78b6	-0.011564424
187	0x3a81f959	0.000991623
188	0xbad1deda	-0.001601185
189	0xbc2b8da6	-0.010470783
190	0xbe38fea8	-0.18065894
191	0xbed58b5e	-0.4170789
192	0xbefcf922	-0.49408823
193	0xbdf0253e	-0.117258534
194	0x3c1a43d1	0.009415583
195	0x3c0ebecc	0.008712482
196	0xbd0d3133	-0.03447075
197	0xbd1c90a7	-0.03822389
198	0x3b96bcb9	0.004600134
199	0xbc96ee3a	-0.018424142
200	0xbc705f7e	-0.014671205
201	0xbdc9cbdf	-0.098533385
202	0xbd0cf786	-0.034415744
203	0xbc323430	-0.0108767
204	0x3d4b2570	0.04959625
205	0x3d8f6fe5	0.07003764
206	0x3d1e4041	0.038635496
207	0xbc69fa93	-0.014280933
208	0xbcecf7b4	-0.028926708
209	0xb9c0f0ba	-0.0003680045
210	0x3bd3d0c9	0.006464098
211	0x3c73873e	0.014863787
212	0x3c9354df	0.017984806
213	0x3d372e70	0.04472202
214	0x3dbd325a	0.092381194
215	0x3d5fdf3c	0.054656252
216	0x3d02ddf3	0.03194995
217	0x3d08454c	0.03326921
218	0xbbcb6525	-0.0062071257
219	0x3aa86bac	0.0012849472
220	0xbc768bca	-0.015047977
221	0x3c1e2b93	0.009653944
222	0x3c39688c	0.01131643
223	0x3b9e4586	0.004830065
224	0x3c6ffb32	0.014647292
225	0x3c80f480	0.015741587
226	0x3b02303f	0.0019865183
227	0x3caa0833	0.020755863
228	0x3c2c14e7	0.01050303
229	0xbc76c074	-0.015060533
230	0xbc0ddda0	-0.008658797
231	0x3b893eb8	0.004188385
232	0x3c86c0dc	0.016449384
233	0xba00d871	-0.0004915065
234	0xbc916ccc	-0.017752074
235	0x3aa377e3	0.0012471642
236	0xbc56e346	-0.01311571
237	0xbcb5e415	-0.022203485
238	0xba3d8baf	-0.00072305923
239	0x3b783cd3	0.003787805
240	0xbc33a303	-0.010964158
241	0xbc7e6571	-0.015527115
242	0xbc4c8601	-0.012483121
243	0xbd0f6ff5	-0.03501888
244	0xbcc687eb	-0.024234733
245	0xbcbb362c	-0.02285298
246	0xbcccda3f	-0.025006412
247	0xbcc2b69c	-0.023768716
248	0xbc775549	-0.015096017
249	0xbccbd71d	-0.024882847
250	0xbce246ee	-0.027621713
251	0xbbc6ff2b	-0.006072899
252	0xbbae2f9b	-0.0053157336
253	0xbcb65948	-0.02225937
254	0xbce8f20d	-0.028435731
255	0xbc9423a9	-0.01808341

soft_threshold1.threshold f4 [1, 175, 1, 1]
0	0x3c8835b3	0.016627168
1	0x3ea87334	0.32900393
2	0x3d5d3c97	0.05401286
3	0x3eccc781	0.3999596
4	0x3ea34bf2	0.3189388
5	0x3e8688db	0.26276287
6	0x3d388cd9	0.045056198
7	0x3db60cc7	0.08889156
8	0x3c1388f5	0.009004821
9	0x3e6bbcf9	0.23021306
10	0x3e9dcc56	0.30819958
11	0x3ee40764	0.4453689
12	0x3c74837c	0.014923926
13	0x3ed570e4	0.4168769
14	0x3df5c3e2	0.12000252
15	0x3e809e73	0.25120887
16	0x3bb65704	0.0055645723
17	0x3c88d712	0.016704116
18	0x3ea550f5	0.32288328
19	0x3eca3a7b	0.39497742
20	0x3c0c8d15	0.008578558
21	0x3c2b8efd	0.010471103
22	0x3e85f288	0.261616
23	0x3eafe0f8	0.34351325
24	0x3c21ff5c	0.009887543
25	0x3c117650	0.008878306
26	0x3ec2352f	0.379312
27	0x3c307075	0.010768999
28	0x3c58686c	0.01320849
29	0x3ea0f7ab	0.31438956
30	0x3c848304	0.016175754
31	0x3e8beabc	0.27327526
32	0x3e99d862	0.300479
33	0x3e8826db	0.26592144
34	0x3e9c05fd	0.3047332
35	0x3e7aba4e	0.24485132
36	0x3ec0b1c8	0.37635636
37	0x3c86d3e3	0.016458457
38	0x3e903fde	0.28173727
39	0x3e8ed1e4	0.2789451
40	0x3c910872	0.017704222
41	0x3e9f2ef3	0.31090507
42	0x3bea366e	0.007147602
43	0x3e819c9e	0.25314802
44	0x3bf2bc12	0.0074076736
45	0x3e7a4dac	0.24443692
46	0x3e8196a8	0.25310254
47	0x3cb21f27	0.02174337
48	0x3e938c33	0.288179
49	0x3ea9e5b9	0.33183077
50	0x3e84fdff	0.25975034
51	0x3cb0a2b3	0.021561956
52	0x3e9607b3	0.2930275
53	0x3ea102f0	0.31447554
54	0x3e8f020f	0.27931258
55	0x3c9a75d9	0.018855022
56	0x3e85e1e5	0.26148906
57	0x3b81f5d8	0.0039660744
58	0x3e88fc4f	0.26754996
59	0x3c0e0e03	0.008670333
60	0x3ea1ba90	0.31587648
61	0x3e9f3eaf	0.3110251
62	0x3e8d0443	0.27542314
63	0x3e9bc30f	0.30422255
64	0x3ea84b51	0.32869962
65	0x3eb399c6	0.35078257
66	0x3bc67583	0.006056489
67	0x3be66591	0.0070311506
68	0x3e6ef8a3	0.23337035
69	0x3ecc60fc	0.39917743
70	0x3bfae657	0.007656853
71	0x3c235065	0.009967898
72	0x3e8af1b6	0.27137536
73	0x3ec05d5d	0.3757123
74	0x3be9057c	0.0071112495
75	0x3dac940a	0.08426674
76	0x3e787352	0.24262741
77	0x3c426abf	0.011866271
78	0x3d27e5dd	0.0409907
79	0x3e71e643	0.23622994
80	0x3eb6f63e	0.35734743
81	0x3eb1cb8c	0.34725606
82	0x3eb08078	0.34473014
83	0x3e8486f3	0.25884208
84	0x3c53da6f	0.012930497
85	0x3eae3a85	0.34029022
86	0x3eb756c0	0.35808372
87	0x3b25e32e	0.0025312412
88	0x3b841199	0.004030418
89	0x3c11d2ca	0.008900354
90	0x3e6feca3	0.23430113
91	0x3e9175b9	0.28410128
92	0x3c5472e5	0.012966846
93	0x3bd32532	0.006443643
94	0x3e90996a	0.28242046
95	0x3eb24f11	0.34825948
96	0x3e9024c7	0.2815306
97	0x3c07bac2	0.008284273
98	0x3e94976a	0.2902177
99	0x3e7ba823	0.24575858
100	0x3e8476f3	0.25872
101	0x3e5ff730	0.21871638
102	0x3bb4e3c8	0.0055203177
103	0x3e7d33b5	0.24726756
104	0x3e80db4d	0.25167313
105	0x3ea2cffc	0.31799304
106	0x3e039ee5	0.12853582
107	0x3c8a1b86	0.016858827
108	0x3b1dcaac	0.00240771
109	0x3c0ecc93	0.0087157665
110	0x3c12e76d	0.008966309
111	0x3c8b25f9	0.01698588
112	0x3eb8b654	0.36076605
113	0x3c64a9af	0.013956471
114	0x3c7dfceb	0.015502195
115	0x3b3ef089	0.002913507
116	0x3eb1b05d	0.34704867
117	0x3e812f1b	0.2523125
118	0x3e86fda2	0.2636538
119	0x3ec23572	0.379314
120	0x3eb39b3a	0.35079366
121	0x3c5bd413	0.013417262
122	0x3e9a9457	0.301913
123	0x3c8ea0b7	0.01741062
124	0x3bfb08ed	0.007660976
125	0x3e82d697	0.25554344
126	0x3e990ddf	0.29893395
127	0x3c91d9ce	0.017804053
128	0x3e7dd33f	0.24787615
129	0x3e9cfff3	0.30664024
130	0x3eb02a97	0.34407493
131	0x3e94ce18	0.29063487
132	0x3e8bc83f	0.27301213
133	0x3ea31582	0.31852347
134	0x3e89637d	0.26833716
135	0x3ea3abb1	0.31966928
136	0x3cb3e96f	0.021961896
137	0x3e9f138a	0.31069595
138	0x3ea4afb7	0.3216531
139	0x3cddcff1	0.027076693
140	0x3e877e94	0.2646376
141	0x3ea97801	0.33099368
142	0x3e9db6e3	0.30803594
143	0x3eafe128	0.34351468
144	0x3ca7fbc1	0.020505788
145	0x3ea13a64	0.3148986
146	0x3e8d98f2	0.2765575
147	0xbbc100a5	-0.0058899694
148	0x3eaa11e1	0.33216766
149	0x3c0acef5	0.008472194
150	0x3e92b8d3	0.28656635
151	0x3e96e661	0.2947264
152	0x3e7b2299	0.24524917
153	0x3e5d6aa9	0.21622719
154	0x3e81b8ad	0.2533621
155	0x3b3edc1c	0.0029122895
156	0x3b5a885b	0.0033345434
157	0x3e6d94e0	0.23201323
158	0xb974a7a9	-0.00023332112
159	0x3ecd6df0	0.40122938
160	0x3eb0f980	0.34565353
161	0x3bf93d37	0.0076061743
162	0x3eb0cedf	0.3453283
163	0x3ca547c2	0.020175818
164	0x3e8a7efe	0.27050012
165	0x3eac870e	0.3369679
166	0x3e7fe50f	0.24989723
167	0x3e948016	0.29003972
168	0x3e95ec2b	0.29281744
169	0x3ec75752	0.38933808
170	0x3c35236b	0.011055808
171	0x3e96bcf7	0.29441044
172	0x3e9d1448	0.30679536
173	0x3e8ab26c	0.2708925
174	0x3b5efe0e	0.003402594

apply_A2.weight f4 [175, 1, 11, 11]
0	0xbe0b103a	-0.13580409
1	0xbdc8125d	-0.097691275
2	0x3e2ed9a5	0.17075212
3	0x3d8f4695	0.06995884
4	0x3b5bd88d	0.0033545822
5	0x3e1647ca	0.14675823
6	0xbd522c9e	-0.05131208
7	0x3e1d880d	0.1538393
8	0x3e8f87ff	0.28033444
9	0xbedea539	-0.4348543
10	0x3d43bc15	0.04778679
11	0xbc2dc68e	-0.010606421
12	0xbe130bde	-0.14359996
13	0x3e273f18	0.16332662
14	0xbc14eaed	-0.009089214
15	0xbdb29707	-0.087202124
16	0x3bdd53b8	0.006754365
17	0xbca0d9e2	-0.019635145
18	0x3e43d391	0.19123675
19	0x3db201de	0.086917624
20	0xbd932f54	-0.071867615
21	0xbe01e61f	-0.1268544
22	0x3d8bd50c	0.06827745
23	0x3dc06a74	0.09395304
24	0x3df53ec9	0.11974866
25	0xbd9cf7e5	-0.0766447
26	0x3d9aa88f	0.07551681
27	0x3ca25f79	0.019820916
28	0xbe67bd38	-0.22630775
29	0x3a8e8458	0.0010873182
30	0x3cc70d8f	0.024298457
31	0xbe238538	-0.15968788
32	0xbdb6f603	-0.08933642
33	0xbd4dd006	-0.050247215
34	0xbd8faf4f	-0.07015859
35	0xbe2996d0	-0.16561437
36	0xbe79f78e	-0.24410841
37	0x3d42ca35	0.04755612
38	0xbdb1e27b	-0.08685776
39	0x3d88e7b7	0.06684821
40	0xbe23ccd6	-0.15996107
41	0x3e5e4157	0.21704613
42	0xbd33e858	-0.043922752
43	0x3e944b9a	0.2896393
44	0x3cab6a44	0.020924695
45	0x3e042fe1	0.1290889
46	0x3e6857cd	0.22689743
47	0x3e423b48	0.18967927
48	0xbda9cb73	-0.08290758
49	0x3e033e54	0.12816745
50	0x3dbad15d	0.09121964
51	0xbdc0b184	-0.094088584
52	0xbbd455fe	-0.0064799776
53	0xbd4e80f3	-0.050415944
54	0xbe1bb864	-0.15207058
55	0x3caef906	0.021358978
56	0x3db479a3	0.08812263
57	0xbe840961	-0.25788406
58	0x3ea24260	0.31691265
59	0xbd73bd19	-0.05950651
60	0x3d6357f8	0.055503815
61	0x3cfc5aca	0.03080501
62	0x3e45dc90	0.19322419
63	0xbd64cf1b	-0.055861574
64	0x3e549bcb	0.20762555
65	0xbdd1f4a5	-0.1025174
66	0x3db50e72	0.08840646
67	0xbe43b69c	-0.19112629
68	0xbdafa2c9	-0.08575971
69	0xbc30e7dd	-0.010797468
70	0x3d039df9	0.032133076
71	0x3d9e12fa	0.07718463
72	0xbd8b1ce9	-0.067926235
73	0xbdde5b82	-0.108572975
74	0x3cae566d	0.021281445
75	0xbe42842c	-0.18995732
76	0x391e6be5	0.00015108248
77	0x3e0a81e7	0.13526116
78	0xbc9fdfe9	-0.019515948
79	0xbcf51416	-0.029916804
80	0xbd8c7123	-0.068575166
81	0x3be7c3fc	0.0070729237
82	0x3e4cfed8	0.2001909
83	0xbde9317f	-0.11386394
84	0x3e065d95	0.13121636
85	0x3df3400c	0.1187745
86	0x3d84639e	0.06464313
87	0x3e548905	0.20755394
88	0xbd7443d1	-0.059634987
89	0xbd3fabc6	-0.046794675
90	0x3da01116	0.07815759
91	0xbdc27619	-0.094951816
92	0xbbcae6fd	-0.0061920867
93	0xbdfa536d	-0.122229435
94	0xbd48d056	-0.04902681
95	0x3a34cae1	0.00068966864
96	0xbcd177f8	-0.0255699
97	0xbe1424cf	-0.14467166
98	0xbe366796	-0.17812952
99	0xbd84b495	-0.06479756
100	0x3dac599e	0.084155306
101	0xbd5e2f8e	-0.05424457
102	0x3d48f4db	0.049061637
103	0xbda49757	-0.08036678
104	0x3e0af7c1	0.13571073
105	0x3de1a83b	0.110184155
106	0xbcc8b1cf	-0.024498848
107	0xbd338e74	-0.043837026
108	0x3db1b214	0.08676544
109	0x3c0383e4	0.008027051
110	0x3e31701b	0.17327921
111	0xbe60ca67	-0.2195221
112	0xbd6b59e9	-0.057458792
113	0x3dd3096a	0.1030453
114	0x3d6df9c5	0.058099527
115	0xbe51576d	-0.20443507
116	0x3d230aec	0.039805338
117	0x3d6d078a	0.057868518
118	0xbe21d38b	-0.15803353
119	0x3e0fbe36	0.14037403
120	0xbd034a4d	-0.03205328
121	0xbd9898b0	-0.07450998
122	0xbdd53e39	-0.10412259
123	0x3c84df66	0.016219806
124	0x3e25459a	0.16139832
125	0x3acdca93	0.0015700631
126	0xbe4420ce	-0.19153139
127	0x3e12fbe3	0.143539
128	0xbe2bda29	-0.1678244
129	0xbe84cc47	-0.259371
130	0x3ef59ac3	0.47969636
131	0xbe227815	-0.1586612
132	0xbdc1856f	-0.094492786
133	0x3cb71eb6	0.022353511
134	0xbd2f4a84	-0.042795673
135	0xb9fb44d0	-0.0004792572
136	0xbd878941	-0.06617976
137	0x3ca6256e	0.02028152
138	0xbdf11a4f	-0.11772596
139	0x3dbc63d8	0.09198731
140	0x3d99e893	0.07515063
141	0x3d4538b3	0.048149776
142	0x3d337286	0.04381039
143	0xbdb54490	-0.08850968
144	0xbc9db6bc	-0.019252174
145	0x3cebeb86	0.02879883
146	0x3929163b	0.00016125377
147	0x3e49a6e1	0.19692566
148	0xbc9f07ee	-0.01941296
149	0xbda50848	-0.0805822
150	0xbc3475e5	-0.011014436
151	0x3d912400	0.070869446
152	0x3e5e6841	0.21719457
153	0x3d376a00	0.044778824
154	0x3dabdc38	0.08391613
155	0x3de05197	0.10953062
156	0x3d194060	0.03741491
157	0xbf139d82	-0.5766221
158	0xbe46ffd3	-0.19433527
159	0xbd829e6d	-0.063778736
160	0x3d97d44f	0.074135415
161	0x3e9550db	0.2916325
162	0xbe4e0098	-0.20117414
163	0x3e4ea2b7	0.20179258
164	0xbdd8733d	-0.10568855
165	0xba977efd	-0.0011558231
166	0x3cdbe220	0.026841223
167	0x3dba7ac8	0.0910545
168	0x3dc0fa23	0.0942271
169	0xbd824eda	-0.06362696
170	0x3d2007c5	0.03906991
171	0xbc7e62bf	-0.015526473
172	0xbe0fad3e	-0.1403093
173	0xbe41015b	-0.18848173
174	0xbd7c0fdc	-0.061538562
175	0x3ca5068e	0.020144727
176	0x3d80af7a	0.062834695
177	0xbc8a9e30	-0.016921133
178	0xbdea6668	-0.11445314
179	0x3d975c9e	0.07390712
180	0x3d58c3d3	0.052921128
181	0xbce4855e	-0.027895626
182	0x3c897e39	0.01678382
183	0xbc0139ab	-0.007887284
184	0x3e6c9792	0.23104694
185	0xbca0b9bc	-0.019619815
186	0xbc4f4c53	-0.012652474
187	0x3d6f145f	0.058369037
188	0x3b9d166c	0.0047939327
189	0x3d9b7856	0.07591312
190	0x3d1abc3c	0.03777717
191	0x3d8e0b32	0.06935729
192	0xbe29dfc9	-0.16589274
193	0x3dfede87	0.124447875
194	0x3d4eba90	0.05047089
195	0xbdaa733a	-0.08322759
196	0xbdbc136e	-0.091833934
197	0x3d34a557	0.044102993
198	0x3dfe6197	0.124209575
199	0xbddfda72	-0.10930337
200	0x3d152883	0.036415588
201	0xbd806877	-0.06269925
202	0xbe754a43	-0.2395411
203	0xbd474124	-0.048646107
204	0x3b8650a6	0.0040989695
205	0xbe0b53f0	-0.13606238
206	0x3d0bab49	0.034098897
207	0xbd84f7e1	-0.06492592
208	0xbc9cbfe5	-0.019134471
209	0x3e83bf7c	0.25732028
210	0x3d306b1d	0.0430709
211	0x3d995a08	0.07487875
212	0x3d7661b5	0.060151774
213	0xbe019f46	-0.12658414
214	0x3e239722	0.15975621
215	0x3e2fa2d4	0.17151958
216	0xbd8b8104	-0.06811717
217	0xbd689b14	-0.05678852
218	0x3d6aa280	0.05728388
219	0x3d0c426e	0.03424304
220	0xbd1e2fbe	-0.03861975
221	0x3e0bdf8e	0.13659498
222	0x3d80dba0	0.0629189
223	0x3dfd8269	0.123783894
224	0x3e1b9335	0.15192874
225	0xbe477dc6	-0.19481573
226	0xbdc3f02b	-0.09567293
227	0x3d86cea7	0.065823846
228	0x3d5684b1	0.052372638
229	0xbe0e955f	-0.13924168
230	0xbc45f488	-0.012082227
231	0xbebccf1b	-0.3687676
232	0x3d430e4d	0.04762106
233	0xbe3e2c01	-0.18571474
234	0x3e6be25f	0.23035572
235	0xbe0a5d71	-0.13512208
236	0x3e331269	0.17487492
237	0xbd337de7	-0.04382124
238	0x3de90ec8	0.113797724
239	0xbcb2cd0a	-0.021826286
240	0xbd8e0790	-0.06935036
241	0x3dd87aff	0.10570335
242	0xbe83f292	-0.25771004
243	0x3e333a8d	0.17502804
244	0x3cc76ae6	0.024342965
245	0xbdf1af02	-0.11800958
246	0x3dbf1674	0.093304545
247	0xbdbcb360	-0.092139006
248	0x3c1e91d4	0.009678323
249	0xbcdda08f	-0.0270541
250	0xbdd960b3	-0.10614147
251	0x3e056872	0.13028124
252	0xbd0ff76b	-0.035148066
253	0x3befc9d2	0.00731776
254	0x3e27d14a	0.16388431
255	0xbe0c16cd	-0.13680573

apply_B2.weight f4 [175, 1, 11, 11]
0	0xbc5765ac	-0.013146799
1	0xbdc22192	-0.09479059
2	0x3d918d23	0.07106998
3	0xbda1f4f3	-0.079080485
4	0xbd592b2f	-0.0530197
5	0x3d435bf5	0.04769512
6	0xbc623523	-0.013806614
7	0x3bfe4708	0.0077599324
8	0xbd02b368	-0.031909376
9	0xbc2a9d69	-0.010413506
10	0xbc4d1e86	-0.012519484
11	0xbce7d2b4	-0.028298713
12	0x3d691c48	0.056911737
13	0x3d11b86e	0.035576276
14	0x3d1dfac4	0.038569227
15	0xbd859e66	-0.06524353
16	0x3c868a22	0.016423289
17	0x3e15e513	0.14638166
18	0xbc710a72	-0.014711963
19	0x3cb4b920	0.02206093
20	0xbd7a8774	-0.061164334
21	0x3b591ade	0.0033127586
22	0x3bbb2b97	0.0057119834
23	0xbcc88f0a	-0.024482269
24	0x3cf86ee0	0.030326307
25	0x3e3330d7	0.174991
26	0x3e69e1b6	0.22840008
27	0x3e07c46b	0.13258521
28	0x3c8dbeb7	0.017302854
29	0x3c8e04a5	0.017336199
30	0xbce88a57	-0.028386278
31	0x3a8d5956	0.001078407
32	0x3e00b867	0.12570344
33	0xbca37ca7	-0.0199569
34	0x3c6bd976	0.014395108
35	0xbd4dc91d	-0.050240625
36	0x3d539b49	0.051661763
37	0x3e009335	0.12556155
38	0x3e3b8884	0.18313795
39	0x3e4bad54	0.19890338
40	0x3db2777a	0.087141946
41	0x3dc9baec	0.09850106
42	0x3df2704b	0.118378244
43	0x3d0efea0	0.034910798
44	0xbd24579b	-0.04012261
45	0xbd356856	-0.044288956
46	0xbd20cdb8	-0.03925869
47	0xbd993f13	-0.074827336
48	0xbdac3983	-0.08409407
49	0xbdccefe6	-0.100066945
50	0xbd91048b	-0.07080945
51	0x3d0b9ed1	0.034087006
52	0x3df80c54	0.121117264
53	0xbd049109	-0.03236488
54	0xbdb966ba	-0.09052797
55	0xbdb8764f	-0.090069406
56	0xbb0222f2	-0.0019857255
57	0xbdd17154	-0.10226694
58	0xbe0e4b81	-0.1389599
59	0xbd9274ef	-0.071512096
60	0xbdf74e4b	-0.1207548
61	0xbe09b8b0	-0.13449359
62	0xbda7ef64	-0.08199957
63	0xbcff6258	-0.031174824
64	0xb9a04cd2	-0.00030574814
65	0xbd905c43	-0.070488475
66	0x3c714974	0.014726985
67	0xbd892d46	-0.06698088
68	0x3dbcc9e6	0.092181966
69	0x3cd1712c	0.02556666
70	0xbdcf7343	-0.10129406
71	0xbc488037	-0.0122376
72	0xbdb5d03e	-0.0887761
73	0xbe2bc69d	-0.16774984
74	0x3cd4746b	0.025934419
75	0xbc3d1d06	-0.011542564
76	0xbe03eb29	-0.12882675
77	0xbd36867d	-0.04456185
78	0x3d5aaa17	0.053384867
79	0x3c9e675a	0.019336391
80	0x3d257575	0.04039522
81	0xbc88e916	-0.016712707
82	0xbda94eb3	-0.08266964
83	0xbd9d2522	-0.07673098
84	0x3bd2c337	0.006431963
85	0x3e06d3f5	0.13166793
86	0x3d972689	0.07380397
87	0xbcfa25d0	-0.030535609
88	0xbccb0a3f	-0.02478516
89	0xbcbeaa92	-0.023274694
90	0x3db52b07	0.088460974
91	0xbc802922	-0.015644614
92	0x3b98d194	0.0046636555
93	0xbc4a2683	-0.0123382835
94	0xbba0624b	-0.00489453
95	0x3dbc5489	0.09195811
96	0xbccfd9c9	-0.025372403
97	0xbd3bab21	-0.045817498
98	0xbd92b08f	-0.07162582
99	0x3c5a0169	0.013306
100	0x3bcc69e6	0.00623821
101	0xbd6d967a	-0.058004834
102	0xbb9a34a6	-0.004705983
103	0x3cf27f10	0.029601604
104	0xbd4899d0	-0.048974812
105	0x3dbf54b2	0.09342326
106	0x3c7fdfec	0.015617352
107	0x3c902307	0.017594827
108	0x3b084f32	0.0020799157
109	0x3d51e96e	0.051248007
110	0x3c6bdbc0	0.014395654
111	0x3b4fe69f	0.0031723154
112	0xbd033c7b	-0.0320401
113	0xbcc9ee68	-0.024649814
114	0x3d29a2a2	0.041414864
115	0xbcf903c7	-0.030397309
116	0xbc124b00	-0.008929014
117	0xbc84eb02	-0.016225342
118	0x3d601e72	0.054716535
119	0xbbc660fc	-0.006054042
120	0x3ca3378d	0.01992395
121	0x3de13485	0.109963454
122	0x3d09711d	0.03355514
123	0x3d90d614	0.07072082
124	0xbdb099c4	-0.086230785
125	0xbcf39ebe	-0.02973878
126	0xbdc61bc8	-0.096732676
127	0xbd94e3fc	-0.07270047
128	0xbe2a1f65	-0.16613539
129	0xbdaf1774	-0.08549395
130	0x3bc251cf	0.0059301625
131	0x3c7d41d1	0.015457586
132	0x3dbdd14b	0.09268435
133	0x3db43a25	0.08800153
134	0x3d0a73e8	0.033801943
135	0x3daa2721	0.083082445
136	0x3d350dfe	0.044202797
137	0xbd11434d	-0.035464574
138	0xbd9a1045	-0.075226344
139	0xbe36b59c	-0.17842716
140	0xbe20bb06	-0.15696344
141	0xbdee9b50	-0.11650717
142	0xbd79068d	-0.060797263
143	0xbc455e70	-0.012046441
144	0x3ca71de7	0.0204
145	0x3db7b553	0.08970132
146	0x3c4e7f9b	0.012603666
147	0x3df0dc2f	0.11760747
148	0x3dac41c0	0.08410978
149	0x3d6ea080	0.058258533
150	0xbbb5688d	-0.005536145
151	0xbd7aff6b	-0.06127874
152	0xbe3e4543	-0.18581109
153	0xbe3d2189	-0.18469824
154	0x3ccaa456	0.024736565
155	0xbc464934	-0.012102414
156	0xbce2d75a	-0.027690578
157	0xbcc3ed50	-0.02391687
158	0xbcb33f3a	-0.021880735
159	0x3d883918	0.06651515
160	0x3e509f25	0.20373209
161	0x3d76d3b3	0.060260486
162	0x3d6c5b2a	0.05770413
163	0xbd11e939	-0.03562281
164	0xbd95744f	-0.07297575
165	0x3c1cba00	0.00956583
166	0x3c814e49	0.0157844
167	0x3cc98591	0.024599822
168	0x3cc64037	0.024200542
169	0x3cb1b8fa	0.021694649
170	0x3d001123	0.031266343
171	0x3d5c8f4b	0.053847592
172	0x3e05bd6f	0.13060544
173	0x3d527581	0.05138159
174	0x3d493cd7	0.049130287
175	0x3c87c53b	0.016573539
176	0xbc182d84	-0.0092881955
177	0xbc7c1614	-0.015386123
178	0xbcd35411	-0.025796922
179	0x3c37f15e	0.01122698
180	0x3cc54c46	0.024084222
181	0x3c7f1274	0.015568364
182	0x3adf8e71	0.0017056001
183	0x3ca53cbc	0.020170562
184	0x3d796451	0.060886685
185	0x3c0f00c5	0.008728211
186	0x3d31e18f	0.043428
187	0x3cab1664	0.0208847
188	0x3cc3d9d0	0.023907572
189	0x3d115701	0.035483364
190	0x3d174f25	0.036940712
191	0x3c81ddcb	0.01585283
192	0x3af6bdc2	0.0018824863
193	0x3bb2186a	0.0054350393
194	0x3d17e7e9	0.0370864
195	0xbd0c8d3e	-0.034314387
196	0x3d40912d	0.04701345
197	0x3c52f809	0.012876519
198	0x3bbad589	0.005701725
199	0xbdb46f76	-0.08810322
200	0xbda5013b	-0.08056875
201	0x3cace582	0.021105532
202	0xbc4366af	-0.011926337
203	0x3cd59a9b	0.026074698
204	0x3ca9baf5	0.02071903
205	0x3d687ee8	0.056761652
206	0x3cadec07	0.02123071
207	0xbc448577	-0.011994711
208	0x3d161857	0.036644306
209	0xbe1690c9	-0.14703669
210	0xbd55f7e9	-0.05223838
211	0xbe396828	-0.18106139
212	0xbd8f6a62	-0.07002713
213	0xbc501cb9	-0.0127021605
214	0x3d8d3bcb	0.0689617
215	0x3d38bb95	0.045100767
216	0x3be8fc22	0.0071101347
217	0x3d2fa23b	0.042879324
218	0x3da931a9	0.08261425
219	0x3d355a2b	0.044275444
220	0x3d0979a3	0.033563267
221	0xbd668b43	-0.056285154
222	0xbe094a43	-0.13407235
223	0xbd39ad88	-0.045331508
224	0x3ca49013	0.020088231
225	0x3cbdec5f	0.023184
226	0xbd224e15	-0.039625246
227	0xbbb31f36	-0.005466367
228	0x3cfdaf13	0.030967271
229	0x3c508d37	0.012728981
230	0x3d218fa7	0.03944364
231	0x3d00e145	0.031464834
232	0xbc8fb5e9	-0.017542796
233	0xbd46887e	-0.048470013
234	0xbd18cd46	-0.03730514
235	0xbd5e74c9	-0.054310594
236	0xbc031804	-0.008001331
237	0xbca727ea	-0.020404775
238	0x3d131ab8	0.035914153
239	0x3cb86d64	0.022513099
240	0x3a840c3d	0.0010074448
241	0x3d5976b8	0.053091735
242	0x3b08f86c	0.0020900024
243	0xbb93a570	-0.0045058057
244	0xbe1d03b7	-0.15333448
245	0x3ce61c30	0.028089613
246	0x3cb41b91	0.021985801
247	0xbd0a6280	-0.033785343
248	0x3c4fe4e4	0.012688849
249	0x3c1f4d5d	0.009723035
250	0xbd62169d	-0.055197347
251	0xbd4f7226	-0.05064597
252	0xbc6e505f	-0.014545529
253	0xbe24dfb1	-0.16100956
254	0xbe10f5e9	-0.14156307
255	0xbde35b2c	-0.11101374

apply_C2.weight f4 [175, 1, 11, 11]
0	0x3cd4c6db	0.025973728
1	0xbc542d19	-0.012950205
2	0x3cfbf30d	0.030755544
3	0x3d1da09d	0.03848325
4	0x3d93d507	0.07218366
5	0x3dc10537	0.09424823
6	0x3db1b35e	0.0867679
7	0x3c9572e8	0.018243268
8	0xbca93021	-0.020652832
9	0xbd34e725	-0.04416575
10	0xbd0f072f	-0.03491896
11	0x3cab5f2e	0.020919409
12	0x3caa3c8d	0.020780826
13	0x3d94f0e1	0.072725065
14	0x3da10aec	0.07863411
15	0x3df9f58f	0.1220504
16	0x3e233a76	0.1594027
17	0x3e068fb2	0.13140753
18	0x3d4230cf	0.04740983
19	0xbc5f55ae	-0.0136312675
20	0xbca7a785	-0.020465622
21	0xbd0422dc	-0.032259807
22	0xbcfc72c2	-0.03081644
23	0xbb7b0509	-0.0038302562
24	0x3d5854fb	0.05281542
25	0x3de6dc2d	0.11272464
26	0x3e88b121	0.2669764
27	0x3ed385dc	0.41313064
28	0x3e93da8e	0.28877681
29	0x3e044727	0.12917767
30	0x3d945903	0.0724354
31	0x3d66bb11	0.056330744
32	0x3d6a3973	0.057183694
33	0xbd1d0785	-0.03833725
34	0xbd0b0cf4	-0.0339479
35	0xbd10787f	-0.035271164
36	0xbcb3ceb8	-0.021949157
37	0x3d9993ba	0.0749888
38	0x3e7b6d90	0.24553514
39	0x3e6f4842	0.23367408
40	0x3dde3e24	0.10851696
41	0x3da7bbcb	0.081901155
42	0x3d50692c	0.05088155
43	0x3d59ab8a	0.053142108
44	0xbd878b58	-0.066183746
45	0xbdf38437	-0.11890452
46	0xbe190885	-0.14944656
47	0xbe1b144b	-0.1514446
48	0xbe460616	-0.19338259
49	0xbe8739b9	-0.26411226
50	0xbe35ed10	-0.17766213
51	0x3ba8f528	0.005156178
52	0x3d4c3b9e	0.049861543
53	0x3cee2d00	0.029074192
54	0xbbe9f058	-0.007139247
55	0xbd1e8c8f	-0.038708266
56	0xbdd32b65	-0.10311011
57	0xbe1e27e7	-0.15444909
58	0xbe274a6d	-0.16336985
59	0xbe7ee052	-0.24890259
60	0xbed79717	-0.4210746
61	0xbeca77f7	-0.3954465
62	0xbdfe53db	-0.12418338
63	0xbdb7f81a	-0.089828685
64	0xbce7bcd1	-0.028288277
65	0xbc88b8ee	-0.016689744
66	0xbd0ffe3b	-0.035154562
67	0xbd7a589c	-0.06111966
68	0xbd762703	-0.0600958
69	0xbd932e9f	-0.07186627
70	0xbd774ab2	-0.06037397
71	0xbd99d248	-0.07510811
72	0xbe0e74a4	-0.13911682
73	0xbdc57f34	-0.09643403
74	0xbd757aca	-0.059931554
75	0xbd5a9731	-0.053366844
76	0xbd58837c	-0.05285977
77	0xbce32a0d	-0.027730012
78	0xbce3662e	-0.027758684
79	0xbc942198	-0.018082425
80	0xbc8a66bb	-0.016894689
81	0xbd3ee019	-0.046600435
82	0xbd0a78a8	-0.033806473
83	0xbd8e38c8	-0.06944424
84	0xbd5048de	-0.05085074
85	0xbd0fb110	-0.03508097
86	0xbc7d78a5	-0.015470658
87	0xbcb2b9c8	-0.021817103
88	0xbc9c7a4f	-0.01910129
89	0xbcff5467	-0.031168176
90	0xb94cded4	-0.00019537966
91	0xbaeceb3b	-0.0018075475
92	0xbc9f8222	-0.019471232
93	0xbca43ed3	-0.020049488
94	0xbcf3f8e1	-0.02978176
95	0xbcc6d35b	-0.024270704
96	0xbd276ae4	-0.040873423
97	0xbcae85c4	-0.021304019
98	0xbc85c377	-0.016328556
99	0xbbc293ee	-0.0059380447
100	0x3a80ff83	0.0009841773
101	0x3b7aeb25	0.003828713
102	0x3b9d6468	0.004803229
103	0xbcae1e47	-0.021254672
104	0xbc917860	-0.017757595
105	0x3b950e9d	0.004548861
106	0x3c0ea745	0.008706872
107	0xbbd64729	-0.0065392447
108	0x3b1aafb5	0.0023603265
109	0xbc07614c	-0.0082629435
110	0x3bc07711	0.005873569
111	0xbbe05357	-0.0068458724
112	0xbbe66792	-0.0070313895
113	0x3be0e10a	0.0068627642
114	0xbba54e52	-0.005044737
115	0xbbd70dac	-0.006562909
116	0x3a263cff	0.00063414866
117	0x3b3f1d54	0.0029161768
118	0x3bc76944	0.0060855467
119	0x3bdc8988	0.006730262
120	0xbc9c445b	-0.019075563
121	0x3ce34f00	0.027747631
122	0x3cde5e32	0.027144525
123	0x3d22b23a	0.03972075
124	0xbc0c6cb9	-0.008570843
125	0xbd54615e	-0.05185067
126	0xbda45e32	-0.08025779
127	0xbdbfd9c4	-0.09367707
128	0xbde4c0a5	-0.111695565
129	0xbda01bf9	-0.07817835
130	0x3ce4249a	0.027849484
131	0x3bfb5529	0.007670064
132	0x3d0f02d8	0.03491482
133	0x3da5af1b	0.08090039
134	0x3dc08d36	0.09401934
135	0x3dcf608f	0.10125839
136	0x3da3e834	0.080032736
137	0x3b087412	0.0020821136
138	0xbd6ee797	-0.05832633
139	0xbdf7ba6c	-0.12096104
140	0xbe378bc0	-0.17924404
141	0xbdc1da55	-0.09465472
142	0xbd2fe83a	-0.042946078
143	0x3d0b3553	0.0339864
144	0x3d8a347d	0.067482926
145	0x3dba4813	0.09095778
146	0x3e0cc9a4	0.13748795
147	0x3e79e1ef	0.24402593
148	0x3e778e7f	0.24175452
149	0x3e2897ea	0.164642
150	0x3c9341f3	0.017975783
151	0xbd0edf33	-0.034880828
152	0xbd9730bc	-0.07382342
153	0xbde47b18	-0.11156291
154	0x3cde067d	0.027102703
155	0x3d09eb92	0.033671923
156	0x3d0aae03	0.033857357
157	0x3ca095dd	0.01960271
158	0x3dc1a488	0.0945521
159	0x3e66aa4a	0.22525898
160	0x3ead8efc	0.3389815
161	0x3e1ecb8d	0.15507336
162	0x3d51f807	0.051261928
163	0x3c92af9b	0.017906
164	0xbcf69aac	-0.03010305
165	0x3c1b443a	0.009476716
166	0x3d06305e	0.03276097
167	0x3cf509d0	0.029911906
168	0x3ced05e3	0.028933471
169	0xbba43381	-0.0050110226
170	0x3d905942	0.070482746
171	0x3e728733	0.23684387
172	0x3e4e0484	0.2011891
173	0x3d84f680	0.06492329
174	0x3c9628e9	0.018330054
175	0x3c8e38df	0.017361103
176	0xbc1dec61	-0.009638877
177	0x3ca4314e	0.020043042
178	0x3c925b7f	0.017865894
179	0x3cae1f6d	0.02125522
180	0x3d372918	0.044716924
181	0xbc169860	-0.0091916025
182	0x3d95f556	0.07322185
183	0x3e11ccb3	0.14238243
184	0x3dcfc280	0.1014452
185	0x3c58c6dd	0.013231006
186	0xbbc3f5d8	-0.0059802346
187	0xbbc83557	-0.006109874
188	0x3c82e2f5	0.015977362
189	0x3c0dcc8c	0.008654725
190	0x3c176093	0.009239334
191	0x3d629bc8	0.055324346
192	0xbc203692	-0.009778636
193	0x3c1304fe	0.008973358
194	0x3d5971c2	0.053087004
195	0x3ccc1a41	0.024914863
196	0x3b90ebdd	0.0044226483
197	0xbc433d86	-0.011916524
198	0xbc46b29a	-0.012127543
199	0xbbb4baa8	-0.005515415
200	0xbc92aca6	-0.01790459
201	0xbcc554ad	-0.024088228
202	0x3c042d1b	0.008067395
203	0x3c86bb1d	0.016446644
204	0x3c524b2f	0.012835308
205	0x3ce90dc6	0.02844895
206	0x3d103168	0.035203367
207	0x3ce6b4b9	0.028162347
208	0x3c40e76f	0.011773928
209	0xbc9e9ec0	-0.019362807
210	0xbb188bed	-0.0023276762
211	0xbc38403b	-0.0112457825
212	0xbd1582b9	-0.03650162
213	0xbc787866	-0.015165424
214	0x3d29ea26	0.041483067
215	0x3d069e41	0.032865766
216	0x3d27f4cb	0.041004937
217	0x3d299fbb	0.041412096
218	0x3d5e2354	0.05423291
219	0x3d099ff9	0.033599827
220	0xbcb0fb75	-0.021604279
221	0xbc96c76d	-0.01840564
222	0xbd188f6b	-0.03724615
223	0xbd025c61	-0.03182638
224	0xba9a40e3	-0.0011768605
225	0x3b0e333e	0.0021698023
226	0xb8bc0335	-8.965136e-05
227	0x3c6d545c	0.014485445
228	0x3c144943	0.00905067
229	0x3cb82f95	0.022483626
230	0x3cf51239	0.029915916
231	0xbcdc1e05	-0.026869783
232	0xbcb7771c	-0.022395663
233	0xbd1e4275	-0.038637597
234	0xbd0454bb	-0.032307368
235	0xbcc7bdae	-0.024382439
236	0xbc917569	-0.01775618
237	0xbc0f3d67	-0.008742667
238	0x3c58aeb8	0.01322525
239	0xbc4067fa	-0.01174354
240	0x3b01390e	0.0019717845
241	0x3c9da09e	0.019241627
242	0xbd949989	-0.07255847
243	0xbd4c032f	-0.049807724
244	0xbd097dd8	-0.03356728
245	0x3b7791bb	0.003777607
246	0xbc989d52	-0.018629704
247	0xbb873a84	-0.0041268487
248	0x3c564bb6	0.013079574
249	0x3c943cb2	0.018095348
250	0x396f54cf	0.0002282441
251	0x3adc8a06	0.0016825802
252	0xbc78d7f1	-0.015188203
253	0xbda14815	-0.07875077
254	0xbdcd64b5	-0.10028974
255	0xbe15ceae	-0.14629623

soft_threshold2.threshold f4 [1, 175, 1, 1]
0	0x3eaa6974	0.3328358
1	0x3e96a409	0.29422024
2	0x3e9670d9	0.2938297
3	0x3e8bc72f	0.27300403
4	0x3c3ccc98	0.011523388
5	0xbcca2156	-0.024674099
6	0x3ca84ead	0.020545328
7	0x3eba7fa9	0.36425522
8	0xbac89fed	-0.0015306451
9	0x3d64d1a9	0.05586401
10	0x3ca20c1f	0.01978117
11	0x3e8c1435	0.27359167
12	0x3ecd25a4	0.4006778
13	0x3e92f376	0.2870137
14	0x3ea87b3c	0.3290652
15	0x3cd4b7b6	0.025966506
16	0x3eb2f7c4	0.34954655
17	0x3bc9baac	0.006156286
18	0x3e94ef80	0.29088974
19	0x3b1bff56	0.0023803315
20	0x3ecb784a	0.3974021
21	0x3e72b730	0.23702693
22	0x3bb2481e	0.005440726
23	0x3eaed45a	0.34146386
24	0x3eb02b11	0.34407857
25	0x3e854be0	0.2603445
26	0x3e8ce212	0.27516228
27	0x3e9845f3	0.29740867
28	0x3e9d9b5c	0.30782592
29	0x3e93f892	0.28900582
30	0x3b6cd3c3	0.0036136962
31	0x3e7ad3e5	0.24494894
32	0x3ec2069e	0.37895674
33	0x3ea079be	0.31342882
34	0x3e0843f4	0.13307172
35	0x3c9ce235	0.019150833
36	0x3ebc29c1	0.36750606
37	0x3e90c55b	0.2827557
38	0x3a7390c3	0.00092912855
39	0x3d160978	0.036630124
40	0x3d1ae36f	0.037814554
41	0x3e9d9f8b	0.30785784
42	0x3eb0bf8a	0.34521133
43	0x3e8ca222	0.27467448
44	0x3cd49339	0.025949107
45	0x3e994b29	0.29940155
46	0x3c17b48f	0.009259357
47	0x3e9399de	0.2882833
48	0x3ea8646a	0.3288911
49	0x3e97e211	0.29664662
50	0x3e9dd227	0.30824396
51	0x3e741bb4	0.23838693
52	0x3e995c47	0.29953215
53	0x3e904ff0	0.28185987
54	0xbcbac90c	-0.022800945
55	0x3e8c4425	0.2739574
56	0x3d196523	0.037449967
57	0x3cb7b7b4	0.022426464
58	0x3ec7627d	0.38942328
59	0x3e973234	0.2953049
60	0x3e6a8f26	0.2290617
61	0x3e971cf4	0.29514277
62	0x3eb4f61b	0.35344014
63	0x3ed223d2	0.41042954
64	0x3ea00740	0.3125553
65	0x3e9f55fb	0.31120285
66	0x3cfd3ece	0.030913737
67	0x3e92cd7c	0.28672397
68	0x3ed3fac2	0.4140225
69	0x3c42b230	0.0118833035
70	0x3e9eb168	0.30994725
71	0x3e950c70	0.29111052
72	0x3eb21208	0.34779382
73	0xbcce428a	-0.025178213
74	0x3d090104	0.033448234
75	0x3eaeca66	0.34138793
76	0x3ad398d8	0.0016143573
77	0x3d1dd957	0.03853735
78	0x3c52b7ec	0.012861233
79	0x3e986715	0.29766145
80	0x3ea9881e	0.33111662
81	0x3e8f2bb0	0.27963018
82	0x3e850ba7	0.25985453
83	0x3e957650	0.29191828
84	0x3e89c18a	0.2690547
85	0x3b911646	0.004427704
86	0x3b895016	0.004190455
87	0x3e8ebaec	0.27876985
88	0x3d06e008	0.032928497
89	0x3ed5e5e2	0.4177695
90	0x3ec1eb3e	0.37874788
91	0x3eacabe4	0.33724892
92	0x3e8fd03c	0.28088558
93	0xbd2dc566	-0.042424582
94	0x3d030242	0.031984575
95	0x3d07c6e3	0.033148658
96	0x3e94a8c6	0.29035014
97	0x3edd6b6d	0.43246022
98	0x3e6565b6	0.22402081
99	0x3c83644e	0.01603904
100	0xbe18a66b	-0.14907233
101	0x3ea2a7dd	0.31768695
102	0x3ea319bb	0.31855568
103	0x3e9d3d0b	0.30710635
104	0x3c9b052b	0.018923363
105	0x3e977a24	0.29585373
106	0x3c39c925	0.0113394605
107	0x3cd475d6	0.025935095
108	0x3eb9b9bf	0.36274526
109	0x3ea1a413	0.3157049
110	0x3eca85d0	0.39555216
111	0x3e8313c9	0.25601032
112	0x3ebae111	0.36499837
113	0x3eabb2db	0.33534893
114	0x3e745a1f	0.23862503
115	0x3c1389b0	0.009004995
116	0x3e9ee457	0.31033584
117	0x3eaa4c6f	0.3326144
118	0x3e918270	0.28419828
119	0x3cd3d30a	0.025857467
120	0x3c2a2a65	0.010386084
121	0x3e974e6b	0.29552016
122	0xbc426eca	-0.0118672345
123	0x3ebb4971	0.3657947
124	0x3dbee877	0.09321683
125	0x3ea49790	0.32146883
126	0x3c2e949c	0.010655548
127	0x3e9561b4	0.29176104
128	0x3eaa9f5d	0.3332471
129	0x3e749d2f	0.23888086
130	0x3c938625	0.018008301
131	0x3ebf6ff8	0.37390113
132	0x3cc0c585	0.023531685
133	0x3ea1ebde	0.31625265
134	0x3c40a27a	0.011757487
135	0x3c0e8575	0.008698811
136	0xbb2f8f09	-0.0026788136
137	0x3c5176fc	0.012784716
138	0x3ea767d7	0.3269641
139	0x3ed26450	0.41092157
140	0x3ebcb3a9	0.3685582
141	0x3ea69c3e	0.32541078
142	0x3d27b0b0	0.040939987
143	0x3ebed850	0.37274408
144	0x3e9cccf8	0.3062513
145	0x3cffdc6a	0.031233031
146	0x3ec85dc4	0.39134037
147	0x3e828fd4	0.25500357
148	0x3e9e4b0c	0.3091663
149	0x3eb64832	0.35601956
150	0x3e99922f	0.29994342
151	0x3cad1022	0.021125857
152	0x3e8ca8f6	0.27472657
153	0x3ec0c32e	0.3764891
154	0x3ca16a89	0.01970412
155	0x3d212273	0.039339494
156	0x3e7d9061	0.24762107
157	0x3e9163c7	0.28396437
158	0x3e9c89a0	0.3057375
159	0x3e90fb21	0.28316596
160	0x3e92c0f3	0.28662834
161	0x3e899915	0.26874605
162	0x3ecb31f4	0.3968655
163	0x3ebf5a80	0.37373734
164	0x3bd86e7b	0.006604967
165	0x3e997200	0.29969788
166	0x3e9a2819	0.30108717
167	0x3ec8e0b9	0.3923395
168	0x3e7d74ea	0.2475163
169	0x3d4a5494	0.049397066
170	0x3e9b6cff	0.30356595
171	0x3c23bef9	0.009994262
172	0x3e945690	0.28972292
173	0xbc5bfdf4	-0.013427246
174	0x3d08af0d	0.033370066
