trained_models/sigma_15.model (torch_old, 766796 bytes, 12 tensors)

apply_A1.weight f4 [175, 1, 11, 11]
000000 97 39 42 3d 40 9c f3 b9 b8 8a ac bd 92 ab a1 3c
       0.047418203 -0.00046464987 -0.08424896 0.019735131
000010 4f 2c 54 bb 44 c8 c6 bc 2c 02 34 3d 34 ef 16 bd
       -0.0032375043 -0.024265416 0.043947384 -0.036849216
000020 c3 54 0f 3e 1a 68 0e bd e2 05 cd bb fb ee 6d bd
       0.13997178 -0.034767248 -0.006256805 -0.058089238
000030 de 06 6a bb 90 ac 9c bc ce b0 a5 bd 2a 98 24 3d
       -0.003570966 -0.019125253 -0.080903634 0.040184177
000040 8a 8f e8 bc 8a 89 e5 bd 4e 41 01 bd cb 5e 31 bd
       -0.028388757 -0.11207874 -0.03155642 -0.043303292
000050 ca 6e 04 3d 8a c7 8b 3d 5c ef af bc 2f 9b 2f bd
       0.03233222 0.068251684 -0.02147644 -0.042872604
000060 bd df b5 3d 50 c3 53 bd 77 56 fb 3c ec e7 9f 3d
       0.08880565 -0.051699936 0.030680878 0.078079075
000070 b4 c7 c6 3d d8 15 35 3c 32 e6 40 3d 86 8e 0b be
       0.09706059 0.011052571 0.04709453 -0.13628587
000080 56 af 17 be b2 47 0c 3d 66 9c 9b bd 51 87 1a 3d
       -0.14812979 0.03424806 -0.0759819 0.037726704
000090 09 12 96 bd 35 18 2a 3b 58 7c 7b bd 89 bb 9f 3d
       -0.07327659 0.002595437 -0.06139788 0.07799441
0000a0 0f 52 d0 bc b7 8c b4 bd a4 ff 03 bd ec 59 e6 3d
       -0.025429754 -0.08815902 -0.03222622 0.1124762
0000b0 36 a2 4b 3a e2 65 11 3d bf c9 e5 3d 2f 15 80 bc
       0.0007768007 0.035497554 0.11220121 -0.015635101
0000c0 4b 27 c2 bc 6a e9 33 3d 08 d3 ea bc f0 a0 99 3c
       -0.023700377 0.043923773 -0.02866508 0.018753499
0000d0 86 34 8d 3d f0 cf a6 3d 2e 56 c9 3c bf d9 e6 3c
       0.06894784 0.0814513 0.024577226 0.028180001
0000e0 3f b4 29 bc 0d 7a 86 bc 3a 93 3d bd d6 c0 38 3c
       -0.010357915 -0.01641562 -0.046282984 0.011276444
0000f0 5c 01 13 3b 36 09 ad 3d a5 17 ae bc 0d b0 25 3d
       0.002243123 0.084490225 -0.021251509 0.0404511
000100 35 77 9a bd 6d bc 34 3c 10 dd db bc 44 4d bc bc
       -0.07542268 0.011031252 -0.02683881 -0.022986062
000110 fa 82 9d 3b c3 eb 50 3b 5b 33 73 3c c8 55 7a 3b
       0.0048068734 0.0031878806 0.014843787 0.0038198102
000120 71 05 93 bd 4e 21 7b bd 28 96 9f bd df 26 de bd
       -0.07178772 -0.06131106 -0.07792312 -0.10847258
000130 ad 46 30 3c c6 01 3d 3d 56 ea 15 bd 19 1c 44 3d
       0.010759038 0.04614427 -0.036600433 0.04787836
000140 00 d9 a5 bd 80 b9 d9 bc 9a 26 4a 3a 13 4f 04 3d
       -0.0809803 -0.026577711 0.00077114406 0.032301974
000150 d0 59 5b 3d 3b fa 8d 3d 3f 87 cb 3d 7b 3d 88 bd
       0.05355245 0.06932493 0.099379055 -0.066523515
000160 49 27 c0 3a 95 98 a5 bd 10 1a 26 3b 72 4a df bd
       0.0014660145 -0.08085743 0.0025345124 -0.10902871
000170 53 42 d9 3d 27 bd 32 bd ee 3f 56 bd f2 79 b0 bd
       0.106083535 -0.04363742 -0.05230706 -0.08617009
000180 cc 96 5e be 79 79 df 3d af 94 00 bc a4 69 71 3c
       -0.21737212 0.10911841 -0.007847949 0.014734659
000190 84 2b 70 bd d9 cb a3 3d 3e 36 83 3e c3 e7 cc bd
       -0.05863525 0.07997865 0.2562732 -0.100051425
0001a0 85 2c d7 3b c9 3e dd 3c 5f 24 f5 3d c5 40 9f 3d
       0.0065665864 0.027007477 0.11969828 0.07776026
0001b0 4e 6b 6d bd 3b b2 0b be 51 dc 8b bd 1f ef 09 3e
       -0.05796366 -0.13642208 -0.068291314 0.13470124
0001c0 79 36 6f bd 28 c7 86 bd ab fd 38 bc 68 27 a4 3d
       -0.05840156 -0.06580955 -0.011290948 0.08015329
0001d0 69 81 01 be 48 78 87 3e 78 6b 2f 3d 66 56 97 bb
       -0.12647022 0.26458955 0.0428271 -0.004618454
0001e0 b5 75 05 3d 9f 96 0c 3d 24 1e 01 3e 64 90 0c 3f
       0.032582957 0.03432333 0.12609154 0.5490782
0001f0 2f 08 1a 3e ec 34 23 3e 80 d2 14 3e 2f 04 b6 3c
       0.15042184 0.15938157 0.14533424 0.022218792
000200 69 77 50 3d 94 9f df 3c 87 66 91 3d a0 a7 21 bd
       0.05089513 0.027297772 0.07099634 -0.0394665
000210 02 8a d7 bd d7 95 ea bd 65 00 b8 3d 8f 0a df 3d
       -0.1052437 -0.11454361 0.0898445 0.10890686
000220 7d f9 57 3e 3c 96 65 bd b3 92 c2 3d b1 0f 82 3e
       0.21091266 -0.056051478 0.09500637 0.25402597
000230 e1 50 18 3e 41 ca 11 3e a8 32 ae 3d 3d a8 49 3e
       0.14874603 0.1423731 0.08505756 0.19693084
000240 51 a7 5b 3e 12 37 90 be 81 90 06 3d 83 1b e7 bd
       0.21450545 -0.28167015 0.032852653 -0.11284544
000250 e2 45 28 bd 98 83 df 3d 53 88 0a 3e 1b 89 d4 3d
       -0.04108227 0.109137714 0.13528566 0.10377713
000260 34 f1 93 bd 52 15 fd 3b b0 57 73 3d 8d a8 0b 3c
       -0.0722374 0.007723489 0.059409797 0.008524072
000270 a1 aa 00 bd d9 7b 24 3c fd e1 d5 bb ac b7 a8 bc
       -0.031412724 0.010039293 -0.006527184 -0.020595394
000280 2c a5 9e 3c 25 6c a5 bd d4 7d 15 bd 4e 05 2a 3c
       0.01936587 -0.080772676 -0.036496952 0.010377241
000290 dc b9 5e 3d df ae f8 bd 4b 4e 4a 3e cc 02 8a 3d
       0.054376468 -0.12142729 0.19756429 0.06738815
0002a0 6a 72 ff bb c2 41 19 bd 5c ba 31 3d 6d 29 ba bd
       -0.0077956216 -0.037416227 0.043390617 -0.090899326
0002b0 52 52 01 3d 79 4d cc bd e1 3f 88 3d bf 15 d3 bd
       0.031572647 -0.09975714 0.06652809 -0.10306882
0002c0 e3 de 8a 3d 9b e4 43 be a8 78 ab bc d8 cf 65 bc
       0.067807935 -0.19130175 -0.020931557 -0.014026605
0002d0 7f 66 d4 3b 8a b5 26 bd 97 1a 69 3d da 72 c2 bc
       0.006481945 -0.040700473 0.056910124 -0.023736406
0002e0 52 0b 80 3d 1c 1e 3d bc 0a c1 99 3d 79 13 0e bd
       0.06252159 -0.011542823 0.075075224 -0.03468654
0002f0 8d 21 23 3d 92 be 82 3c 83 b5 5e bd e9 7b 88 bd
       0.03982692 0.015960012 -0.05437232 -0.06664259
000300 e7 2b 70 bc ba 14 a0 bd 4a 23 95 bc 7c da fc bc
       -0.014658905 -0.07816453 -0.018205304 -0.0308659
000310 78 f4 fd bc d0 b5 78 bc a1 d5 83 3c db 61 d5 3d
       -0.03100036 -0.015180066 0.016093077 0.10419055
000320 b2 20 89 bd ee 67 26 bd 49 0a 8b bc 24 2e c1 bc
       -0.06695689 -0.04062646 -0.016972678 -0.023581572
000330 9e b4 29 bb a4 bd b4 bc 19 2c 35 3d 65 b6 24 3d
       -0.002589501 -0.022063084 0.044231508 0.040213007
000340 fe 35 15 bc 04 30 8a 3c 75 06 9b bd ed 9e 61 3d
       -0.009107111 0.016868599 -0.07569591 0.055083204
000350 3d df 58 3c a2 f1 a7 bc e1 bf 09 bd a5 fa c5 bd
       0.013236818 -0.020500962 -0.033630256 -0.09666947
000360 38 d7 19 bc b5 68 22 bc 1c b7 d1 3c 4e 83 66 3c
       -0.009389691 -0.009912659 0.025600009 0.014069391
000370 e7 82 ec bc 71 21 bd bc c9 01 86 3d a3 df d6 3c
       -0.028871013 -0.023087235 0.06543309 0.026229685
000380 c3 54 05 3d ef 74 14 bd f6 8d 82 3c a9 e3 42 bc
       0.03255154 -0.03624433 0.015936833 -0.011895099
000390 c0 01 f9 3d d7 f9 94 bd 98 86 c2 bd 30 5b 0b bb
       0.12158537 -0.07274216 -0.09498328 -0.0021264069
0003a0 19 36 62 3d d3 fb aa bd a7 a3 0a bd fa b6 29 bd
       0.055227373 -0.08348813 -0.033847477 -0.041434266
0003b0 f9 8f 4c 3b 22 e5 45 bd 76 b3 6b bd 03 8e d7 3c
       0.0031213744 -0.04831422 -0.057544194 0.026312834
0003c0 e6 00 b9 bd 04 0b fd 3b 65 e5 8b bd cf ac 7e bd
       -0.090333745 0.0077222604 -0.06830863 -0.062176522
0003d0 9e 83 7f bd 80 71 91 bd 58 17 3a 3d 56 d8 e5 3c
       -0.06238138 -0.071017265 0.04543242 0.028057259
0003e0 45 3e 8d 3d 07 6e cd 3d 6f 4b 2b 3e 19 34 6a bd
       0.068966426 0.10030752 0.16727994 -0.05717859
0003f0 bd 5c 07 bd 10 4e 65 bd bd a6 64 3e 35 a0 e2 3d
       -0.033047426 -0.05598265 0.2232923 0.11065713

apply_B1.weight f4 [175, 1, 11, 11]
000000 30 d1 1e bb f7 e2 dd 3c 71 e5 0b bd 1e 23 d9 3c
       -0.0024233572 0.027085764 -0.03415436 0.026506003
000010 5e 58 14 bc b2 d6 99 3c dd 39 20 bc 7c 68 17 b9
       -0.0090542715 0.018779133 -0.009779421 -0.00014439406
000020 39 0d e1 3d 53 0f 9b bd a6 bd 80 ba 84 39 85 bb
       0.1098885 -0.07571282 -0.0009822145 -0.0040656943
000030 80 e1 3e 3c 8f 17 a1 bd a2 84 a9 3a 31 2c 12 bc
       0.011650443 -0.078658216 0.0012933204 -0.008921669
000040 58 54 37 3c 44 4c c5 3b b8 12 a5 bc 8f 34 5e bd
       0.011189543 0.0060210545 -0.020150527 -0.054249343
000050 fe 6f 1c 3b 28 80 89 3d e7 16 93 ba dc 43 81 bd
       0.0023870463 0.06713897 -0.0011222035 -0.06311771
000060 d5 34 cc 3d c0 a6 d2 bb 16 41 1b 3d 75 23 0d 3d
       0.099710144 -0.0064285696 0.037903868 0.034457643
000070 91 32 26 3d fe 22 cf 3c 06 86 85 3d 4e 18 6c bd
       0.040575568 0.02528524 0.065197036 -0.057640366
000080 d3 dd fb bd e0 29 8b 3c d4 08 2d bc 7c 20 3d bc
       -0.12298169 0.016987741 -0.010561187 -0.011543389
000090 68 a1 02 bd ea c5 f5 bc 75 c3 b8 3c 9b 93 c4 3c
       -0.03189221 -0.0300016 0.022554139 0.023996165
0000a0 f0 bf c0 bb 9a 4f 34 bc 3e 76 c8 bc 5f 2a 19 3d
       -0.0058822557 -0.011005307 -0.024470445 0.037393924
0000b0 3e 8b cf bb 96 f7 fd bc ed c9 78 3b 7d a1 9c bd
       -0.0063337376 -0.031001847 0.0037962154 -0.07647989
0000c0 97 33 26 3d 36 b4 5c bc 68 e4 53 3d 0c 7f 78 3d
       0.040576544 -0.0134707 0.051731497 0.060668036
0000d0 67 4c b2 3d de 68 aa b8 49 d0 bf 3b 85 4c 81 bb
       0.08705979 -8.125765e-05 0.005853687 -0.0039458894
0000e0 1d 35 8e 3c 3c 9d a9 bc 74 84 28 bc 9f 44 5c bd
       0.01735931 -0.020704858 -0.010285486 -0.05377638
0000f0 8f c4 7d 3d 79 c5 12 3e 8c f2 41 bd ef 42 59 bd
       0.06195503 0.14333142 -0.04735045 -0.05304235
000100 bc a4 8b bd 1a f0 54 bc 80 eb 05 bc 82 04 52 3c
       -0.0681853 -0.012996698 -0.008173823 0.012818458
000110 e6 90 38 bd da be 29 bd f9 6b 13 be 5b ac 53 3e
       -0.04506006 -0.041441776 -0.14396657 0.20671217
000120 39 f0 8a bd 68 1d a2 bc bf 50 9d bd fd 92 4b bc
       -0.067841 -0.019789413 -0.07681417 -0.012425181
000130 24 17 55 3c 25 86 c9 3c 82 25 a6 bc 16 10 2c 3d
       0.013006005 0.024600098 -0.020281557 0.04200753
000140 3c 6d 60 bd a7 a0 f0 bc ae 28 fc 3d ff f9 23 bd
       -0.054791674 -0.02937348 0.123124465 -0.040033337
000150 c0 6c 81 3b 6c 9e 17 3c 8e 9f d6 3b 17 36 ee bc
       0.0039497316 0.009254079 0.006549782 -0.029078526
000160 c4 8b c5 3b 3e 93 db bd b7 e4 bb 3c 09 34 12 3c
       0.0060286243 -0.107214436 0.022936208 0.008923539
000170 9f b9 cb 3d cb 22 d6 bd 83 35 8d bd de 96 1b bd
       0.09947514 -0.10455855 -0.06894972 -0.037985675
000180 78 2b e6 bd cb 4e a9 3d ca f0 aa bc ff 4a 92 bd
       -0.1123876 0.08266982 -0.02086677 -0.071432106
000190 2b 64 06 bc 2b ab 84 3d 9f 41 cc 3d 4a 46 56 bd
       -0.008202593 0.0647796 0.09973454 -0.052313127
0001a0 cf 12 a5 bd b0 a1 83 3c ae 59 9a 3d 2a 1a d5 3d
       -0.08060228 0.01606831 0.07536636 0.10405381
0001b0 b3 b0 4d bd 53 b0 c8 bd 4c 1a 11 bd 56 dc c8 3c
       -0.05021734 -0.09799256 -0.03542547 0.024519127
0001c0 55 02 c7 bd 07 6f 1c bd 5e a1 b7 bc 78 14 2f bd
       -0.09717242 -0.03819182 -0.022415813 -0.04274413
0001d0 88 00 4f bd 90 bf b2 3d 7a 1c 20 bc dc bc 12 bd
       -0.050537616 0.08727944 -0.009772414 -0.03582464
0001e0 73 62 b8 3d cc 1d 49 3d 5e b3 df 3d 39 fd 53 3e
       0.09003153 0.049100682 0.109228835 0.20702066
0001f0 e8 32 fb 3d 81 0e 1c 3e bf 41 45 3e 67 9b 8b 3c
       0.12265569 0.15239908 0.19263361 0.017041875
000200 65 ae 99 3d eb a0 c2 3d 8f 06 37 bd 41 e2 f2 bb
       0.07503966 0.09503349 -0.04468399 -0.0074122255
000210 4b f1 69 39 b4 a9 c4 bd a6 0e 6b bc 4f f4 cf 3d
       0.000223105 -0.09602681 -0.014346754 0.1015402
000220 44 dd 71 3e c6 8d b4 3d 98 a3 68 3c 83 58 a3 3d
       0.23619562 0.08816104 0.01419916 0.07975867
000230 60 59 a3 bc bf 4c c5 bc 1a 08 c4 3d 7d 83 83 3d
       -0.019940078 -0.024084447 0.09571858 0.06421564
000240 62 7e e6 3d 26 05 e2 bd cb b6 1a 3d ea 10 a0 bc
       0.11254574 -0.11036138 0.03777198 -0.019539315
000250 ad 4d 6d bd 59 df 75 3b 75 50 49 bc 2a 52 55 3d
       -0.057935406 0.0037517159 -0.012287249 0.05208031
000260 90 f8 d9 bb fd e7 e6 bb 8a d2 f6 3c 74 09 b4 bb
       -0.0066519454 -0.007046698 0.03012969 -0.005494291
000270 de 57 5f 3d ac a2 8c 3d 78 3c 66 3d fc 98 f5 3c
       0.054527156 0.06866965 0.05621001 0.029980175
000280 a0 9a 74 bc 03 86 97 3d cc ce 6d bd 02 23 24 3d
       -0.014929444 0.073986076 -0.058058545 0.04007245
000290 3e 3e 98 3c 0e 36 3d bc ee bb 37 3d a7 c8 85 bc
       0.018584367 -0.011548532 0.044856958 -0.01633103
0002a0 71 7e 0f 3d e0 78 77 bb 8b eb 96 bc 84 ab 95 bd
       0.035032693 -0.0037761256 -0.018422863 -0.07308105
0002b0 69 49 ec bc d6 6c 2e bd 73 aa 82 3c df 7c 09 bd
       -0.028843598 -0.042584263 0.015950417 -0.033566352
0002c0 94 f9 60 3c 20 58 82 bb b3 5b 3a bd 38 f9 d5 3c
       0.013731379 -0.0039777905 -0.045497607 0.026119813
0002d0 7e 85 18 bb e9 bb 00 be f1 6a bc bd a8 66 4a bb
       -0.0023272927 -0.12571682 -0.09200085 -0.0030883942
0002e0 cc 93 0d bc 68 28 82 3c c5 ed a2 3c cc 2b 26 bc
       -0.008641195 0.015888408 0.019888768 -0.010142278
0002f0 83 ea 2c bd e2 5e 65 3c 7f e8 75 bc d8 07 22 bd
       -0.042215835 0.013999673 -0.015009045 -0.03955826
000300 d5 cb e4 bd a9 87 ac bd 40 b3 3a bd 53 1a ee 3b
       -0.111716904 -0.084243126 -0.045581102 0.0072663217
000310 5d f8 20 bd 2a 0a a7 bc c8 8a e3 3a 7c ce 9f bc
       -0.039299358 -0.020390589 0.0017360086 -0.01950764
000320 7c 39 73 bd 71 6c 43 3a b6 3d 85 bd 25 f5 ef bd
       -0.059380993 0.00074548187 -0.06505911 -0.117166795
000330 58 4a 64 bd e8 29 e5 3b 0e 0c c4 bb 5c a8 6f bc
       -0.055734962 0.006993521 -0.0059828823 -0.014627542
000340 b5 92 14 3c cb 29 30 bc 76 b4 04 3d 5a cd 1e 3d
       0.009068181 -0.010752152 0.032398663 0.038770057
000350 d0 be b6 bd 0b 4a c6 bc 38 2c fd bc 15 b9 b2 bc
       -0.08923113 -0.024205228 -0.030904874 -0.02181677
000360 09 1d 6e bd 33 5b bf bc 0b 21 13 bd 48 76 49 bb
       -0.05813316 -0.023358917 -0.035920184 -0.0030740667
000370 a2 ad fc 3c 0c 99 00 3d 7c 2d 53 bd e4 01 85 3c
       0.030844513 0.031395957 -0.05155705 0.016236253
000380 6c 4b 29 3b 54 45 00 3d 04 34 02 bd 26 6e e9 bc
       0.0025832308 0.031316116 -0.031787887 -0.028494906
000390 09 74 ed 3c 8f 70 ca 3a 57 d3 ad bc 61 7f cc bc
       0.028985994 0.0015444922 -0.021218939 -0.024963083
0003a0 d9 89 59 bd 03 ee 36 3d a9 0e be 3c b7 ff 10 bd
       -0.053109977 0.04466058 0.02320035 -0.03540012
0003b0 d6 c9 3c bb e2 5b aa bb 85 8b 4a bd 9c 29 2f 3c
       -0.0028806827 -0.0051989416 -0.049449462 0.010691073
0003c0 95 35 93 bc ff fb 28 3c fd 77 67 bd b4 9a fb bc
       -0.017969886 0.010313987 -0.056510914 -0.030713417
0003d0 d3 e3 d0 bc 94 77 ae bc 34 a4 2b 3d cd 10 73 3d
       -0.02549926 -0.021297254 0.041904643 0.059342194
0003e0 b8 86 2c 3d e2 7b 64 3d e1 ca 10 3e 16 7c d0 3d
       0.042120665 0.055782206 0.14139892 0.101799175
0003f0 6e 46 98 3d 42 66 bc bd 39 82 3b 3e 85 63 8e 3d
       0.074353084 -0.09199192 0.18311395 0.069525756

apply_C1.weight f4 [175, 1, 11, 11]
000000 eb ce ce 3b 22 69 4a bc ab fa c6 bb 48 ec a6 bb
       0.0063112876 -0.012354167 -0.0060723624 -0.005094085
000010 c8 cd 56 ba 4c b0 28 bc 3d 5c a8 3b 39 43 26 bc
       -0.0008194116 -0.010295939 0.005137949 -0.010147863
000020 14 ca 9d 3b b8 f3 56 bb 7d 29 5f 3b 55 bc fa 3b
       0.0048153494 -0.0032799076 0.0034051829 0.0076518455
000030 be 7f 39 3b 64 f0 09 bc 8a 85 0b bc 11 a4 12 3c
       0.00283049 -0.00841913 -0.008515725 0.008950249
000040 a7 3a 74 bc 43 3c 08 3b 44 a3 67 bc 8d 87 27 3b
       -0.014906562 0.0020787872 -0.014138047 0.0025562972
000050 b9 0e 3b bb 3b 2b 7c 3c 10 c2 46 3b de 43 98 3b
       -0.002854271 0.015391166 0.0030328073 0.0046467623
000060 8a 3e b0 3b b5 e1 8e bc 57 7a 04 bb a0 67 67 bc
       0.005378549 -0.01744161 -0.0020214522 -0.014123827
000070 7e 45 97 3c d6 25 5b bc fd 6b e9 bb 5b d5 37 bc
       0.018465754 -0.01337572 -0.007123469 -0.0112203015
000080 06 24 7f 3b a9 12 eb bb be ca e1 ba 95 e3 8c 3c
       0.0038931384 -0.0071738553 -0.001722656 0.017198363
000090 90 47 af bc 5b 08 1e bd 39 f1 eb bc 42 1e ed 3c
       -0.021396428 -0.038582187 -0.028801547 0.028945092
0000a0 08 6d 87 bc 17 e8 44 bc 22 b7 bc 3c 46 06 71 3c
       -0.016531482 -0.012018225 0.023036543 0.014710968
0000b0 41 5e 27 3c 94 40 ee 3b b9 55 d4 3c 89 b8 be bc
       0.010215343 0.007270882 0.025919782 -0.023281353
0000c0 31 cd 17 bd e1 1f 27 bd 9a 5b 45 3d b5 fc 32 bd
       -0.03706092 -0.040801886 0.04818306 -0.04369803
0000d0 83 ae c9 3c 25 ae dd 3c 44 46 72 3b b5 c3 be 3b
       0.024619346 0.027060578 0.003696815 0.00582167
0000e0 51 06 80 3c a8 ba 85 ba 10 00 d5 bc 82 4a 2e bd
       0.015628012 -0.0010202723 -0.026001006 -0.042551525
0000f0 18 db 2d 3d cb 7d 5e 3d ea 96 cb bd e1 da 02 3d
       0.042445272 0.054319184 -0.09940894 0.03194702
000100 d7 84 8e 3b 3c 78 e2 bc b2 e1 39 bb df e7 82 ba
       0.004349332 -0.027645223 -0.0028363285 -0.0009987316
000110 d4 aa 32 3a 0c 48 74 3b 9d df 2b be fa ad bd 3e
       0.00068156165 0.0037274389 -0.1678452 0.37046796
000120 2b 55 03 be 5e 35 3f bc 36 49 79 3c 8a 6c a6 bc
       -0.12825458 -0.011670439 0.015215209 -0.020315427
000130 80 f2 90 bc 1a 27 40 3c e3 86 14 bc e3 57 3c 3c
       -0.017693758 0.011728073 -0.009065363 0.011495563
000140 42 e3 68 bd fe 58 eb bd f3 25 7b 3e 25 f9 c7 bd
       -0.056857355 -0.11491583 0.24526195 -0.097643174
000150 1c 6c bb 3d 66 a9 93 3c 22 65 f4 bb 23 d6 59 3a
       0.091514796 0.018025111 -0.007458345 0.0008309802
000160 6e 31 ae 3b b1 df 89 3a 25 64 be bb 0a be b9 bd
       0.005315951 0.0010518936 -0.005810278 -0.0906945
000170 80 b9 e9 3c eb 12 d1 bc 92 ac a1 3c 0b 98 6e bc
       0.028530836 -0.025521716 0.019735608 -0.014562617
000180 78 4f 2f bb 75 a4 71 bc fc 90 56 bc 7a 33 de 3a
       -0.0026750248 -0.014748682 -0.01309609 0.0016952597
000190 ca 20 12 3c e9 7a 71 bc 52 03 ec bc e4 2b 96 3c
       0.00891895 -0.014738777 -0.028810177 0.018331476
0001a0 9c 08 81 bd d0 f2 39 3d 77 1e 8c 3b cc de 02 b7
       -0.0630047 0.04539758 0.0042760926 -7.800478e-06
0001b0 e4 22 39 bc 7b a9 87 bc 65 1e da 3b 65 c1 53 3b
       -0.0112998225 -0.016560307 0.0066564553 0.0032311317
0001c0 98 e4 4c bc 35 15 03 3a 97 ef 95 3c 5f 64 09 bd
       -0.012505673 0.00050004135 0.018302722 -0.033542987
0001d0 3a 20 b2 3c 43 76 fe 3c 6a 64 4f bb 78 01 8f bc
       0.021743882 0.031062251 -0.0031645545 -0.017456755
0001e0 43 55 9e bc 2f db ec 3c c0 b2 44 3d b3 44 8d 3d
       -0.019327765 0.028913109 0.04802203 0.06897869
0001f0 4a ee 6a 3d 61 cb 0f 3e 42 94 1d 3e 97 74 09 3d
       0.057356156 0.14042427 0.15388587 0.033558454
000200 44 9e d6 3c ab ea c0 3c ed 79 bd 3c bc b6 00 3c
       0.026198514 0.023549398 0.023129428 0.007856067
000210 85 68 78 3c 15 51 fb 3c 16 35 2b 3d 4c bd 6c 3d
       0.015161638 0.030678311 0.041798674 0.057797715
000220 6d f0 1e 3e 48 be f9 3d 50 1e d9 3c cc 77 14 3d
       0.15521403 0.121944964 0.026503712 0.03624706
000230 64 f7 15 3d db e1 b1 3c e1 d1 84 3c 09 4c bf 3c
       0.036612883 0.021714142 0.01621336 0.023351686
000240 5b 3b a6 3c 10 48 14 3c d2 4b e0 3c 8f 5d 32 3d
       0.020291975 0.009050384 0.027379904 0.043546256
000250 6c 34 aa 3c 13 7b aa 3c d9 46 98 3c de be 86 3c
       0.02077695 0.02081064 0.01858847 0.016448434
000260 d1 e2 33 3c 16 a4 ba 3b 09 60 5b 3b f8 20 34 3c
       0.01097937 0.00569583 0.003347399 0.0109941885
000270 d7 5b 4d 3c 3b 85 bf bc 79 69 91 bc 41 f5 c9 ba
       0.012534103 -0.023378959 -0.017750489 -0.0015408174
000280 78 0f 33 bc 6e e1 36 bc 1a df 0d bc e3 d6 06 3c
       -0.010928981 -0.011162145 -0.008659149 0.008229944
000290 f1 5a 62 3b 71 8c d5 3a 25 37 49 3c 03 7b ad 3c
       0.0034539069 0.0016292465 0.012281214 0.02117682
0002a0 4d 59 74 bb 42 8d 78 bc c6 dd fc b9 0b 35 ad bc
       -0.0037284673 -0.015170397 -0.0004823042 -0.021143457
0002b0 2f fc 9a bc 14 b0 a4 bc 83 92 4b bc 8f 95 22 bc
       -0.018919079 -0.020103492 -0.012425068 -0.009923353
0002c0 3a 47 fc bb bd 1b ed bb d2 48 81 3b bd 46 42 bc
       -0.0076989206 -0.0072359727 0.0039454484 -0.011857686
0002d0 f5 36 60 bd 9c 52 4a bd 2b 2b 20 bd 57 58 ba bc
       -0.05473991 -0.04939519 -0.03910367 -0.022747202
0002e0 95 34 41 bc c2 83 97 ba 9a 3b 1e ba 9c c8 89 38
       -0.011792322 -0.0011559653 -0.0006036103 6.5700355e-05
0002f0 e8 a3 5e ba c3 6b 31 bb da 53 06 bd 0f 44 04 be
       -0.0008493052 -0.0027072288 -0.03279481 -0.12916587
000300 4c 4d 07 be be dd fc bc 9b 26 94 bc 19 dc 00 3c
       -0.1321308 -0.030867454 -0.018084815 0.007864975
000310 86 9e 45 38 00 b6 e4 bb d3 63 f1 3b b4 e4 29 b7
       4.7116097e-05 -0.006979704 0.0073666363 -1.0126434e-05
000320 a4 3a 69 bc 0b 35 c6 bc f9 ef 24 bd 93 2c e3 bc
       -0.014235172 -0.024195215 -0.04026792 -0.027731216
000330 69 14 f3 bc 3c 6f 8f bc 66 a5 89 3b ff 7c 8f bb
       -0.029672818 -0.017509095 0.0042006252 -0.0043789144
000340 51 30 84 bc d5 cd b7 3b e4 9d 4e 3b 99 3f 7f b9
       -0.01613632 0.005609254 0.0031527216 -0.00024342387
000350 77 e3 9b bb b3 56 17 bc e4 b4 2f bd f3 c5 c6 bc
       -0.0047573405 -0.009236979 -0.04289712 -0.024264311
000360 a7 6c fb b9 7f 5f 13 3c 00 28 71 ba 8b ca 22 bc
       -0.00047955403 0.008994936 -0.0009199381 -0.009935985
000370 ac c9 aa 3a af 91 ae 3b f7 8e d4 b9 fa 2e 64 bb
       0.0013030074 0.0053274254 -0.00040542308 -0.003481804
000380 b9 f4 4e 3c e2 05 08 bd ab 7c 0f bd 09 95 13 bc
       0.012631589 -0.033208735 -0.035031002 -0.009007701
000390 53 09 f6 bb c7 9a c7 bb c3 84 24 38 d6 fc fa 3b
       -0.0075084358 -0.006091449 3.922429e-05 0.007659535
0003a0 77 62 f4 ba 83 af 55 ba 29 3e 39 bc f1 00 c3 bb
       -0.0018645067 -0.00081514585 -0.011306324 -0.00595104
0003b0 86 1b 00 bd bf f7 92 bc 68 a5 c2 ba 99 74 d6 bb
       -0.03127625 -0.0179404 -0.001485032 -0.0065446612
0003c0 a2 c0 2d bc 47 ea 13 bc 2c a0 13 bc 31 53 34 bc
       -0.010605009 -0.009028024 -0.009010356 -0.0110061625
0003d0 7f d1 02 bc 4e 54 3d ba 23 49 36 bc f4 c3 8a bc
       -0.007984518 -0.000722234 -0.011125836 -0.01693914
0003e0 aa db ae bc 9e 9e ac 3c 8e b7 ef 3c 1a 87 15 3c
       -0.021344978 0.021071728 0.02926233 0.009126449
0003f0 8e e3 da 3b d1 bd 03 3c 2f ad e2 3c 02 a4 cc 3c
       0.0066799587 0.008040861 0.027670471 0.024980549

soft_threshold1.threshold f4 [1, 175, 1, 1]
000000 f1 21 15 3e 24 17 b6 3d 6a b5 a8 3d 19 8f ca 3d
       0.14563729 0.088911325 0.08237727 0.09890575
000010 29 86 90 bd 16 d1 0b 3e b2 74 13 3e ee 0d 03 3e
       -0.07056839 0.13653979 0.14399984 0.12798283
000020 97 b5 1c 3e 9c e8 2a 3c 79 c4 1b 3e 47 10 ac 3e
       0.15303646 0.010431435 0.15211667 0.3360617
000030 bc 19 14 3e b3 a2 27 3e 3c 04 00 3e 36 8f 02 3e
       0.14462942 0.16370659 0.12501615 0.12749943
000040 af c6 14 3e ce 16 fd 3d a1 53 28 3b 59 28 cc 3d
       0.14528917 0.12357865 0.0025684612 0.09968633
000050 bd 3b be 3d be 8e 3f 3b 56 0c 01 3e f9 b0 0d 3e
       0.09288738 0.0029229368 0.12602362 0.13837041
000060 13 c7 00 3e 0d 6c f3 3d 82 f3 08 3b a1 9f 0b 3e
       0.12575941 0.118858434 0.0020897095 0.13635112
000070 3f ba 1a 3e d2 7a 89 3b 16 fc db 3d 8e 0f 2c 3e
       0.1511011 0.0041955495 0.10741441 0.16802809
000080 14 19 fb 3d 6e f1 e0 3d 6e 47 17 3e 93 7d 31 3c
       0.12260643 0.10983549 0.14773342 0.010833162
000090 91 c3 ea 3d 21 36 dd 3d f7 62 cb 3d 4e 44 ff 3d
       0.114630826 0.1080134 0.099309854 0.124642
0000a0 87 d6 d0 3c 29 ee 03 3e ea a4 eb 3b 90 bc 17 3e
       0.02549292 0.1288382 0.00719129 0.14818025
0000b0 a7 d0 06 3e f6 2f 48 3e 64 c3 02 3e 01 f7 d9 3d
       0.13165532 0.19549546 0.12769848 0.106428154
0000c0 c1 e4 fd 3d 69 93 12 3e 73 c5 cf 3b 91 9f 3c 3e
       0.12397147 0.14314045 0.0063406765 0.18420245
0000d0 34 60 49 ba 25 de 85 3d 80 42 9e 3d 1e 27 3b 3e
       -0.0007681877 0.06536511 0.077275276 0.18276641
0000e0 c1 97 c7 3d 9b 2e 1b 3e 8d d9 dc 3d 68 d2 3c 3e
       0.09745742 0.15154497 0.10783682 0.18439639
0000f0 79 04 1f 3e 6f ef f3 3d 91 5e 68 3e 9c ce 34 3e
       0.1552905 0.11910903 0.22692324 0.1765694
000100 06 fd 11 3d 81 c8 2c 3e d4 2d 35 3e 44 56 f8 3d
       0.035641693 0.16873361 0.17693263 0.12125829
000110 bf 86 fd 3d 4a 22 19 3e 9c 4b 10 3e 1e 97 23 3e
       0.123792164 0.14954486 0.14091343 0.15975615
000120 08 09 06 3e 14 87 11 3e 64 f1 85 3b 8a c9 22 3e
       0.13089383 0.14211684 0.004087614 0.15897194
000130 52 6d 20 3e 7f 81 f2 3d 9e 59 c6 3d a7 14 e1 3d
       0.15666702 0.11841106 0.09685062 0.10990267
000140 7b 85 c6 3c d3 9f 28 3e 8f 6f 14 3e f3 d3 92 3d
       0.02423357 0.16467218 0.14495681 0.07169332
000150 d8 49 ed 3d 3e 68 5a 3e b6 57 07 3e da 4c 09 3e
       0.1158635 0.21328828 0.13217053 0.13408223
000160 e3 d7 03 3e bf ff 11 3e 06 f9 f9 3d da 72 f0 3d
       0.12875323 0.14257716 0.122057006 0.11740656
000170 33 b2 06 3e bd 01 f9 3d 10 98 eb 3d 72 51 08 3e
       0.13153915 0.12158535 0.11503613 0.13312319
000180 dd 3a 6d 3d 1d b8 3c 3e 59 8a f8 3d cf 96 38 3e
       0.057917465 0.18429609 0.12135763 0.18026279
000190 0b ea 0e 3e dd 16 ee 3d 26 70 bd 3e ed ef ff 3d
       0.13956468 0.116254546 0.36999625 0.12496934
0001a0 49 c3 e5 3d 4f 48 ee 3d 38 01 ea 3d 3f b2 0e 3e
       0.11218888 0.116348855 0.11426014 0.13935183
0001b0 67 6b aa 3d 8d ea 10 3b dc 53 f6 3d b7 df f4 3d
       0.083212666 0.002211246 0.12027714 0.11956733
0001c0 e5 a9 1d 3d 4c f1 fe 3b 57 59 fa 3d 4f 09 2d 3e
       0.038492102 0.0077802297 0.122240715 0.16898082
0001d0 0e 4a 1e 3e 77 2d 34 3e d4 f7 0a 3e bc 65 f1 3d
       0.15457937 0.17595468 0.13571101 0.117869824
0001e0 23 cf 13 3e 6b 13 de 3d e8 c5 84 3d 55 68 f0 3d
       0.14434485 0.108435474 0.0648306 0.1173865
0001f0 b1 5c 08 3e 48 8f 3c 3b 6a 32 2f 3e d9 fd ca 3d
       0.13316609 0.0028771926 0.17109075 0.09911699
000200 8b bc 05 3e a3 3e 77 3e 60 41 18 3e bb be 1e 3e
       0.13060205 0.24144988 0.14868689 0.15502445
000210 17 56 0d 3e 9a e3 5a 3e 83 3b 10 3e 4e 62 f4 3d
       0.13802372 0.21375886 0.14085202 0.11932813
000220 85 fa 08 3e 66 d0 1a 3e ec 90 21 3e a7 74 f7 3b
       0.13376816 0.1511856 0.1577794 0.007551748
000230 fb 13 0d 3e 7e 8c 08 3e 0a c7 a7 3b 63 1e 9e 3d
       0.13777153 0.13334844 0.005120163 0.077206396
000240 21 fc f0 3d 74 66 ca 3d 78 d2 fa 3d 47 64 07 3e
       0.1176684 0.09882823 0.12247175 0.13221847
000250 97 75 fd 3d 43 17 8b 3b e9 40 ca ba d9 12 d2 3d
       0.12375944 0.0042447164 -0.0015430722 0.10257501
000260 89 db bc 3d 69 c1 02 3e d4 79 1f 3e b4 8c df 3d
       0.092215605 0.12769093 0.15573817 0.10915509
000270 18 3c 04 3e fd 7f 11 3e d2 ef 13 3e 15 39 1b 3e
       0.12913549 0.1420898 0.14446953 0.15158494
000280 e2 e5 1e 3e 88 ea 0b 3e 53 0f a1 3d 5d 52 38 3d
       0.15517381 0.13663685 0.07864251 0.045000423
000290 4f 0f d2 3d c8 d1 10 3e b5 3f b2 3d 12 bf 93 3d
       0.10256826 0.14142525 0.087035574 0.07214178
0002a0 28 54 10 3e 78 2b 1e 3e b7 5e 06 3e df cc 0c 3e
       0.14094603 0.1544627 0.13122068 0.13750027
0002b0 5c 8d b0 3d 64 72 a1 3c b9 3e 21 3e
       0.08620712 0.019707866 0.15746583

apply_A2.weight f4 [175, 1, 11, 11]
000000 8e 51 c4 3d 7d 11 9c 3d bd de 96 3d 0a 99 ba 3e
       0.09585868 0.07620523 0.07366703 0.36444885
000010 84 38 a5 3d 5c 49 e7 3d b9 ce 3f 3d 2e 43 4b 3e
       0.0806742 0.11293289 0.046828005 0.19849846
000020 a6 97 73 3e 27 d5 cc 3b 77 26 15 3e 3e c7 14 be
       0.23788318 0.0062509957 0.14565454 -0.1452913
000030 21 cf be 3d 7c 9a 71 3e 16 5c f2 3d c2 42 15 3e
       0.093168505 0.23594087 0.1183397 0.14576247
000040 c0 4e 87 3e 31 c9 18 3d 71 62 82 3d 86 4b e3 3c
       0.2642727 0.037301246 0.063664325 0.027745973
000050 d7 3d 8a 3d e5 5b 3b be 3f 75 a1 3e 9e ec a6 3e
       0.06750076 -0.18296774 0.31534764 0.326024
000060 32 7a 41 3e 7d 86 6b 3e e4 e6 6d 3e f8 05 5c 3d
       0.1889427 0.23000522 0.23232609 0.05371663
000070 61 0a 96 3d 28 b6 88 3e a6 54 16 3c 11 9e 13 3e
       0.07326198 0.26701474 0.009175455 0.14415766
000080 e6 97 5c 3e 22 c1 2d be a0 b5 1d 3e 2a 41 4a be
       0.2154232 -0.16968206 0.15401316 -0.1975142
000090 92 ee 20 3e c2 db 57 3d ec d9 9f 3d 6f c1 84 3d
       0.15716007 0.05269981 0.07805237 0.06482207
0000a0 d6 7c 7f bc 2f ef c8 3d 14 4b 17 bd d7 55 bc 3d
       -0.015593728 0.09811246 -0.036936834 0.0919606
0000b0 d1 29 88 3d 37 06 bf 3c c4 77 31 bc 78 db 67 3c
       0.06648601 0.023318393 -0.010831777 0.0141514465
0000c0 71 6a 66 3b 02 42 3b bc 51 62 a3 3c 67 55 50 bc
       0.003515866 -0.011429312 0.019944342 -0.012715674
0000d0 98 ed 61 bc 54 c1 ee bc b1 9c 17 bd ab a4 ab bc
       -0.013789557 -0.02914492 -0.037014667 -0.020952543
0000e0 28 7f 8c 3c cd 69 a3 3c 3f e7 51 ba 04 88 79 3b
       0.017150477 0.01994791 -0.00080071756 0.0038075456
0000f0 dd 25 65 3c 57 c3 c5 bb 4f 95 4d 3c 85 47 c9 3b
       0.013986078 -0.006035249 0.012547805 0.006142559
000100 b2 9a c2 bc 70 d1 d5 3c 5c 71 da 3c 67 6f 1d bc
       -0.023755405 0.026100844 0.026665382 -0.00960908
000110 e7 4e a3 3b 47 40 f1 bc 7d 13 cb 3c af 70 b5 3c
       0.004983771 -0.029449595 0.024789566 0.022148458
000120 4a d9 ff 3b 5c e4 9b bc 63 3a 47 ba 1a c8 3e bc
       0.0078078853 -0.019029789 -0.0007599948 -0.011644388
000130 47 43 02 3c 36 b4 5a 3b 89 1c 24 3d e2 f9 75 bd
       0.0079506105 0.0033371574 0.040066276 -0.06005276
000140 56 cd 08 3b 77 48 51 3c a6 65 31 bd ca 73 a1 3a
       0.0020874343 0.012773625 -0.04330983 0.0012317833
000150 78 52 ad bc a8 ad 21 bc 84 44 85 bc 34 4f 98 3b
       -0.021157488 -0.009868063 -0.016268022 0.0046481136
000160 93 7e b1 bc ae 05 04 3c 0e b5 12 3c 5c 7e 07 bd
       -0.0216668 0.008057995 0.0089543 -0.03307949
000170 cf 32 ae 3c 1b 7c 03 3d 0c 12 46 3b 13 5c 70 3d
       0.021264462 0.032100778 0.003022316 0.05868156
000180 bd 21 b7 3c 2f 65 13 bc c6 db ad bc b0 a2 05 bd
       0.022354955 -0.008996292 -0.02122296 -0.032625854
000190 56 9e e6 3c 7b de 1e bd 6d 56 02 bd 83 a1 c3 3b
       0.028151672 -0.038786393 -0.031820703 0.0059701814
0001a0 45 34 f4 3a fd 47 79 bb 0e 93 65 3b bb db 68 bd
       0.00186313 -0.0038037293 0.0035030278 -0.056850176
0001b0 05 6c f7 3c 23 80 fe 3c 75 f9 2d bb 81 49 ac 3b
       0.030202875 0.03106696 -0.0026546393 0.005257786
0001c0 93 02 3d bb cd 9a a2 bb 76 29 17 3c 69 a9 af ba
       -0.0028840646 -0.0049623013 0.009226194 -0.0013401929
0001d0 3e fc af 3b ed 81 12 3d 1a db b1 bb 6d cb 21 bb
       0.005370646 0.035768438 -0.0054277303 -0.0024687902
0001e0 d6 75 1f bc 80 66 75 3d 0c 87 d5 3c 69 7a d8 3d
       -0.009732684 0.059912205 0.026065372 0.10570223
0001f0 12 d1 26 3d 1b ff 91 3c 4b 42 e4 3d 99 c5 5e 3c
       0.04072673 0.01782184 0.11145457 0.013596916
000200 70 68 0b 3d d5 8f 1f bd 7d 44 0f bd 7d f5 80 3c
       0.034035146 -0.03895553 -0.034977425 0.015742058
000210 27 22 a2 bd 6f 28 05 3e 2a 54 66 3c 7d e8 c1 bd
       -0.0791667 0.13003705 0.014058152 -0.09468172
000220 8f f7 e8 3d 2f 95 4b bd 8b a4 23 3d db b0 45 3e
       0.11375343 -0.04970282 0.039951842 0.19305746
000230 bf f7 43 be 26 11 f4 3d b3 57 05 3e 7e 7b f0 bc
       -0.19137476 0.11917333 0.13021736 -0.02935576
000240 44 7c 88 bd 25 b1 95 3c de 98 82 3c ed 3a 8e 3d
       -0.06664327 0.018272946 0.015942033 0.06944833
000250 1c 43 1d 3d 7f c4 03 3e de c9 ff bc 5f c1 2d 3e
       0.03839408 0.12867926 -0.031224187 0.16968296
000260 00 53 a5 bc 97 c2 fb 3c 8e 2f 3e 3e 63 75 11 3d
       -0.020181179 0.030732436 0.18572828 0.03551234
000270 8e 7a 53 bc 91 e5 c5 bd 12 b0 ea 3d 94 25 b3 3d
       -0.012907637 -0.09662927 0.11459364 0.08747402
000280 2c 1e af 3d 0e c4 18 be 3a ce 35 3d c8 5e 56 3e
       0.08550677 -0.14918539 0.044386126 0.20934594
000290 8c a7 0b 3e ab bf 3e 3d d7 47 b8 3c b0 81 8f 3d
       0.13638133 0.046569508 0.022495193 0.07007158
0002a0 76 15 d8 3d 85 e4 93 3d d8 2c ea 3d 78 bf 8b 3d
       0.10550968 0.07221321 0.114343345 0.06823629
0002b0 26 71 95 3c cb 39 87 3d 21 2f 8e 3c 10 bf 7e 3d
       0.01824243 0.0660282 0.017356457 0.06219393
0002c0 7e 01 0c 3d 5d e1 37 3d 32 63 e8 3d a7 ce 6d 3c
       0.03418111 0.044892658 0.11347045 0.014514602
0002d0 a4 a0 d6 3d 02 7a bc 3d dd 5a 34 3e a4 77 01 bb
       0.104798585 0.09202959 0.17612787 -0.001975515
0002e0 98 15 98 3d 7d 1b 69 bb 4e 44 a9 3d ea b8 cc 3d
       0.07425994 -0.0035569363 0.08264981 0.09996207
0002f0 3b 67 90 3d 2f 06 8f bb 45 7d ab 3d 2c 19 b8 3d
       0.0705094 -0.004364751 0.08373503 0.08989176
000300 21 8e 96 3d f3 b0 e8 3d 20 b7 b3 3c 4d cf a8 3d
       0.07351328 0.113618754 0.021937907 0.082426645
000310 e3 5e ea 3d cf 63 17 3d 3f 19 1c bc d8 bf 1d bc
       0.114438795 0.03696042 -0.0095275035 -0.009628259
000320 e8 1b dd 3c a0 60 4e 3d c3 1c 5a bd 7c 03 23 3e
       0.026990846 0.050385118 -0.053250086 0.15919298
000330 26 34 b8 3d b1 9b c3 bc 37 81 96 3d 52 70 2a bd
       0.089943215 -0.02387795 0.073488645 -0.041611023
000340 64 73 12 3d e5 24 9c 3d 53 32 8b bd 91 84 ed 3d
       0.035754576 0.076242246 -0.06796708 0.11597551
000350 27 4c 42 3d 4e 15 25 bd 60 4e 00 3e dc f8 79 3d
       0.047435906 -0.04030352 0.12529898 0.061028346
000360 f4 37 94 bc 0b e5 37 3e 48 65 83 3c de cb 1d bc
       -0.018093087 0.17958467 0.016039506 -0.009631125
000370 86 1a 1e 3e d4 35 20 bd 29 2b c6 3d 2f a7 8c 3d
       0.15439805 -0.039113835 0.09676201 0.06867825
000380 93 de 83 3c 90 08 d2 bc d4 f3 e1 3d dc 03 f1 bc
       0.016097343 -0.025638849 0.11032835 -0.029420786
000390 5e cd d8 3c 7c 2f 81 bd 46 19 2c 3e 9c 7c 66 bd
       0.026465114 -0.06307885 0.16806516 -0.05627118
0003a0 60 40 09 3e d0 56 f7 bd b4 e3 19 3e 5e 79 52 bc
       0.13403463 -0.12077105 0.15028268 -0.012846319
0003b0 4d 56 07 3d 7f 8c 29 3d ac 3e a7 3c 92 91 48 bd
       0.033041287 0.041393753 0.020415626 -0.04896695
0003c0 da fc 8a bb 72 17 67 bc ee 0b bf 3d 4e 2e 09 bd
       -0.004241568 -0.014104711 0.09328447 -0.033491425
0003d0 f3 b8 5c bd 91 21 be 3d 79 f2 74 bd 10 55 77 bd
       -0.05388732 0.09283746 -0.059801552 -0.060383856
0003e0 5a 67 cd 3d 5f 84 e1 3d 53 d7 cd bb f1 ec ca 3c
       0.10029478 0.11011576 -0.006281772 0.024771186
0003f0 26 ef f1 ba 5e ce f1 3b 36 00 b6 3d 0e a9 a6 3c
       -0.0018458113 0.007379337 0.08886759 0.020344283

apply_B2.weight f4 [175, 1, 11, 11]
000000 9c 73 0e 3c 21 ff be bc 5a cc cc bd 32 db a4 3d
       0.008694556 -0.023315014 -0.099999145 0.08049621
000010 d0 1a 1b 3a 8e eb 4b bd 6b 8b af 3c b5 a5 92 3d
       0.0005916776 -0.04978519 0.021428784 0.07160512
000020 c8 e9 c4 3d a8 70 2b bc e8 bf 8a 3d af 13 62 bd
       0.09614903 -0.010463871 0.067748845 -0.055194553
000030 e8 bf 00 3d 03 2a 82 3d f6 9f 51 3b a0 ab 4d 3d
       0.031433016 0.06355669 0.0031986213 0.050212502
000040 3c 0d e6 3d 15 b5 9a bd 8a d7 66 bd 10 40 6b bd
       0.11232993 -0.0755407 -0.056357898 -0.05743414
000050 79 8e b1 bc 5b af bd bc ae b3 02 3e 7b d4 fd 3d
       -0.021674382 -0.023154905 0.12763855 0.12394043
000060 ac 3c 81 3d 3f 9d 08 3e 94 3b cb bc d9 81 51 bd
       0.063104 0.13341235 -0.024808683 -0.051149223
000070 c1 8b 6f 3d 8f d5 29 3e d8 84 00 3e 9c 66 66 3d
       0.05848289 0.16585372 0.12550676 0.0562502
000080 31 b2 0f 3d 40 84 6d bd a3 37 a9 3d 84 fe c2 bd
       0.035082046 -0.05798745 0.08262565 -0.09521201
000090 40 4c 72 3e f3 02 58 3d 12 21 0f 3d 00 ce 98 bc
       0.236619 0.052737188 0.034943648 -0.018652916
0000a0 9c f1 6d 3b ec f3 c5 3c b2 51 b2 bd fd 32 b7 3d
       0.003630734 0.024164163 -0.087069884 0.08945272
0000b0 81 db d8 bc 96 dd 13 bb 28 dc 17 bc e1 33 08 bd
       -0.026471855 -0.0022562495 -0.009268798 -0.0332526
0000c0 3b 41 3c 3d 6b 80 63 3d 1d 8c bf 3c 1e 63 23 3c
       0.045960646 0.05554239 0.02338224 0.009972362
0000d0 aa dd 80 39 c0 8c 0d bc 6e 70 aa bc 6d 16 ae bc
       0.00024579215 -0.008639514 -0.020805564 -0.021250928
0000e0 61 3b 2a bd 0e 62 4e b9 74 cb 24 bd 1b 5f b1 3c
       -0.041560534 -0.00019682219 -0.04023309 0.021651795
0000f0 1e cd 65 3c 64 e1 eb bc 58 ba fa 3a ca c5 d7 bc
       0.0140259545 -0.028793998 0.0019129021 -0.02633943
000100 19 26 35 3c 81 45 53 bc 15 5b 88 3b f6 7f a6 3c
       0.0110564465 -0.012894989 0.0041612484 0.020324688
000110 84 65 0f 3d 93 01 8b 3c 0f 79 92 3d a7 77 21 3d
       0.035008922 0.016968524 0.07151996 0.03942075
000120 4d 43 d4 bb 57 f4 29 3b 47 02 c3 bc fd d0 99 bc
       -0.0064777494 0.0025932991 -0.023804797 -0.018776411
000130 e4 37 e6 b9 f5 64 89 bc a1 2c 82 bb 67 9a 37 bc
       -0.0004391066 -0.016771773 -0.0039726053 -0.011206246
000140 3e ef e3 3c 5b bb e9 3c 36 a4 07 39 1b 22 68 bd
       0.02782404 0.02853172 0.00012935777 -0.05667315
000150 25 65 80 3c 01 d6 6a 39 7f a9 a6 bc e0 b1 16 bc
       0.01567323 0.00022395702 -0.020344494 -0.009197682
000160 8d c5 f2 bc 5a 03 9e 3c 7a 5f 83 3c e9 1e 52 bd
       -0.029635215 0.019288708 0.016036738 -0.05129901
000170 5f a5 95 39 3e c4 0b 3c ce 21 91 bc ea b9 de bc
       0.00028542706 0.0085306745 -0.017716315 -0.02718826
000180 9c 71 f0 bc 07 80 5a 3a 5f a8 c8 bc e4 30 9c 3d
       -0.029351048 0.00083351176 -0.024494348 0.07626513
000190 20 76 95 3b a3 0a d6 3c 31 58 1a 3d c2 40 2f 3c
       0.0045612007 0.026128119 0.037681762 0.010696592
0001a0 df f5 c3 3c f0 e3 8e 3c f6 fe 6b 3d 5f 9a 5a bc
       0.023920951 0.017442673 0.057616197 -0.013342469
0001b0 5c 60 37 3d 02 f9 63 bc e0 76 2d bd 65 b6 cb 3a
       0.04476963 -0.013914349 -0.042349696 0.0015542029
0001c0 2b ef 1a bd cb fb 36 bd 63 bc 13 b9 e0 6f d2 bb
       -0.037825745 -0.044673722 -0.00014089192 -0.006422028
0001d0 ad cc 3c 3c 70 2e 79 bd 56 26 df 3c cf 2d 41 bc
       0.011523408 -0.060835302 0.02723996 -0.011790707
0001e0 12 23 82 bb fd b6 6d 3c 05 8d da bc 87 c6 53 3c
       -0.003971466 0.01450896 -0.026678571 0.012925751
0001f0 42 ac de bb a9 b7 6e bc 8d 2f 39 3d d6 d7 6d bb
       -0.006795437 -0.014570155 0.045211364 -0.0036291978
000200 8d 1d 8b bd 59 1b 7f bb 08 1f 2e bd 53 0c 2f bd
       -0.06792746 -0.0038926213 -0.042510062 -0.042736363
000210 94 55 7c bd 14 32 89 3d eb 13 79 bc 84 01 91 bd
       -0.06160505 0.06699005 -0.015202503 -0.07080367
000220 8d 31 f8 3c f0 d6 0c bd 77 28 be 3c cf 74 08 3d
       0.030297065 -0.034384668 0.023212655 0.033314522
000230 06 85 4a bd 77 98 03 bd 25 e5 06 bd 20 bb c7 bc
       -0.049443267 -0.032127824 -0.032933373 -0.02438122
000240 79 16 8d bc 46 cd ca 3c 72 09 2b 3c 01 fa 0d 3c
       -0.01722263 0.024756085 0.010439264 0.008665563
000250 00 80 f7 bc 17 b0 17 3d 0f e4 fe 3a 09 55 21 3d
       -0.030212402 0.037033167 0.0019446629 0.039387736
000260 56 1e cf 3c 19 12 18 bd 33 f9 db 3a 6e b9 2e 3b
       0.02528302 -0.037126634 0.0016782641 0.0026660818
000270 87 89 70 bd bf 67 34 bd 49 e8 78 3d 2e e2 fd bc
       -0.058724906 -0.044044252 0.0607684 -0.03099164
000280 9c 40 e1 3c e3 b8 c2 bc 79 81 47 3d 29 bf 1f 3d
       0.027496628 -0.023769801 0.04870746 0.039000664
000290 0e 82 5b 3c 1f ce 8c bb d4 fa c8 bb ca fd eb 3c
       0.013397707 -0.0042970325 -0.0061334167 0.02880754
0002a0 ce 8a 63 3d b6 32 a8 3d 21 2d bd 3d 11 be 32 bc
       0.055552296 0.08212797 0.09237123 -0.010909573
0002b0 5a 5d b9 bd 9d 64 28 bd 3d ec 88 3c 4c 65 07 bb
       -0.090510085 -0.041111577 0.01671421 -0.0020659743
0002c0 db e2 da 3d 55 22 d1 3d 58 3c ae 3d 20 cc 97 3b
       0.106878005 0.102116264 0.085076034 0.004632488
0002d0 f9 a4 a8 bc 24 48 2e 3d 08 b0 2f 3d 39 9c 65 bd
       -0.020586478 0.042549267 0.042892486 -0.05605719
0002e0 1e e1 eb bc fc 8a ca bc eb 52 05 3c ba f3 9f 3d
       -0.028793868 -0.024724476 0.008137445 0.07810159
0002f0 be 03 90 3d fc 73 5d 3d 99 43 56 3d ed ac 71 bc
       0.07031964 0.05406569 0.05231056 -0.014750701
000300 05 3b 50 3c a0 31 24 3d 01 17 69 bd 3f 2f 47 bd
       0.012709384 0.04008639 -0.056906704 -0.04862904
000310 bd 8b 8e 3c 9f a9 68 3a 8f fe 63 bd da 7a 19 3d
       0.017400617 0.0008875373 -0.055662688 0.037470676
000320 ae 86 98 3c fa 0a ea 3c fb 5b 1b bd e7 ab 00 3d
       0.018618908 0.028569687 -0.037929516 0.03141394
000330 06 9f 79 3c 51 ec 83 bd 13 6d 83 3d 11 bc 6a bd
       0.015235668 -0.06441558 0.06417289 -0.05730826
000340 0d 92 fd bc 17 3d c9 3c c0 1e 37 bd 0d a1 c9 3c
       -0.030953432 0.024565263 -0.04470706 0.024612928
000350 42 f4 cf 3d 29 a0 bf bc 22 d2 79 3c bb fc 54 bc
       0.1015401 -0.0233918 0.0152478535 -0.012999709
000360 f2 38 17 bc 26 2a f0 bb 92 80 52 bc 63 e3 34 3c
       -0.009229885 -0.0073292432 -0.012848036 0.011040541
000370 d3 04 37 3c 09 3c 80 3c 8e 7d d7 3c bd 5f bf bb
       0.011170584 0.015653627 0.026304986 -0.0058402703
000380 fc c5 a6 3b 1b fd 29 bd 4c 04 3c 3d c3 46 5d bd
       0.0050895195 -0.041501146 0.045902535 -0.05402256
000390 e5 86 2b bd c8 2b 1a bd 57 15 68 bd 93 4a 90 bc
       -0.041876692 -0.03763941 -0.056660976 -0.017613685
0003a0 68 c9 03 3d e6 89 7d bd b7 f1 d8 3d f4 9a 33 3c
       0.032174498 -0.06189909 0.105929784 0.010962237
0003b0 fd 89 a6 3c 8b ae ff 3c 0b b5 5b bb bd 08 e8 bc
       0.02032947 0.031211158 -0.0033524658 -0.02832448
0003c0 1b 1d ff 3c a3 d7 c7 bc d3 e0 35 3c a9 9f a9 bd
       0.031141808 -0.024394816 0.011100966 -0.08282406
0003d0 43 88 e8 bc 88 7b 00 3b e7 1d 59 3d 02 b0 3a bd
       -0.028385287 0.001960488 0.053007033 -0.04557801
0003e0 46 e5 68 3d a4 b9 a2 bc 10 f7 96 bc 7f 49 76 bc
       0.056859277 -0.019863911 -0.018428355 -0.015032171
0003f0 1a 5c 80 bd 4d ba 12 3d 69 9a a8 bc e6 03 a7 bd
       -0.06267567 0.0358222 -0.020581441 -0.081550404

apply_C2.weight f4 [175, 1, 11, 11]
000000 cc 4e 97 3d f6 f5 ab 3d 69 db 96 3d 74 dd f0 3d
       0.07388076 0.08396523 0.07366068 0.11760989
000010 35 17 77 3d d3 a1 52 3d c3 b8 00 3e 60 5f 29 3c
       0.060324866 0.05142386 0.12570481 0.010337681
000020 8d f2 9c 3d bb b7 e1 3b 48 91 0e bc 7c e5 4e bd
       0.076634504 0.0068883575 -0.00870163 -0.050511822
000030 e6 7f d0 3d a5 6c 65 3d 9c 33 96 be e7 b2 27 3e
       0.10180645 0.056011815 -0.2933625 0.1637684
000040 b6 37 e4 3e 7e 84 83 be ac 6b 57 be 4d 87 5a be
       0.44573754 -0.2568702 -0.21037167 -0.21340676
000050 ed fe c5 3c 39 b3 9d 3d e7 db a4 3d 0c 50 56 3d
       0.02416941 0.077002 0.080497555 0.052322432
000060 5c af 3c 3e 5c 79 a1 3d 30 ea 13 3d 7f 88 65 bd
       0.1842627 0.078844756 0.03611201 -0.056038376
000070 3c e2 d0 3d 75 4f d4 3d f5 2a 15 3d f0 2c 39 3d
       0.10199401 0.10366718 0.03641792 0.04520887
000080 a1 5e 96 3b 3a a2 33 3d 91 17 1b 3d 90 e8 31 3d
       0.0045889174 0.043855883 0.03786427 0.04343468
000090 4e 7c b7 3d 12 31 fc 3b 1d 8b e8 3b 53 d9 d6 3d
       0.08959256 0.0076962793 0.0070966617 0.1049067
0000a0 b2 12 b5 3d 93 dc 86 3d 12 2f 99 3d 04 62 9b 3d
       0.088414565 0.0658504 0.07479681 0.07587054
0000b0 9c a2 ca bc f5 01 a4 bb ba d2 d4 3c ae 82 55 3c
       -0.024735741 -0.005005116 0.025979389 0.013031645
0000c0 31 76 4a 3d 60 42 8a 3d 5c 27 cf 3c cd aa 58 bc
       0.049429122 0.06750941 0.025287323 -0.013224316
0000d0 f9 c0 3d bd c2 42 3d 3a e5 aa 8a bc b3 57 6e 3c
       -0.04632661 0.00072197255 -0.016927192 0.014547276
0000e0 74 6b 9d bc ce f3 0e 3b b1 b7 c8 3c e8 3b 21 bc
       -0.019216277 0.00218128 0.024501653 -0.009840943
0000f0 36 91 07 3c c6 8f 7b 3d a8 f0 0a bd ab 6e 0b bd
       0.008274367 0.06141641 -0.033920914 -0.034041088
000100 61 2d ee bc e5 fc aa bc 61 4c f5 bc b5 27 e3 bb
       -0.029074373 -0.020872543 -0.029943647 -0.0069322237
000110 62 e2 22 3c 90 76 2a 3c e4 22 8f 3d 2d 99 5e 3d
       0.009941669 0.010404244 0.06989077 0.0543453
000120 ff bf 87 3c 99 48 a6 bc 76 fa e9 bc ef 26 6b bc
       0.016571043 -0.02029829 -0.028561812 -0.014352544
000130 6b 39 b4 bc 4c a9 fb 3c 7f cc 22 3c 75 81 8e bc
       -0.022000035 0.030720375 0.009936451 -0.017395714
000140 7f 9c b2 bc c3 7c ad 3a ef 54 48 bc c2 bf 42 bc
       -0.021803139 0.0013236034 -0.012227281 -0.011886539
000150 b2 35 62 3c bb 25 72 3c ac bd 51 3b 84 f6 aa 3c
       0.013806747 0.014779503 0.0032003922 0.020869501
000160 77 0a e3 bb 0c ae 1b ba e8 7b d8 bc b8 34 ae bc
       -0.0069287377 -0.0005938716 -0.02642627 -0.021265373
000170 8c f9 e5 bb 78 fc 6a 3c f3 76 1f bb 61 fb 99 bc
       -0.0070182737 0.01434242 -0.0024332374 -0.018796625
000180 e2 9b 83 bc 32 b2 7a bc 95 68 f3 3b fd 1f 12 3c
       -0.016065542 -0.015301274 0.0074282386 0.008918759
000190 57 2b ba bb 7d 0f fb bb 30 85 65 bc 82 80 b2 bb
       -0.005681436 -0.0076617585 -0.014008805 -0.005447448
0001a0 77 52 e5 3b c3 aa ff 3a fd d4 4e 3c 9c f9 d2 3b
       0.006998356 0.0019505847 0.012624023 0.006438447
0001b0 c5 27 9e bc 2a 55 65 3c e6 b0 88 ba 23 1f f9 3a
       -0.019306073 0.0139973555 -0.0010428696 0.0019006472
0001c0 0c fd 54 bb 85 06 a2 bb 29 65 ce 3b 63 a4 05 3b
       -0.003249946 -0.004944625 0.0062986803 0.0020392172
0001d0 4f cf 25 bc 02 22 10 bc 79 fd 43 bb c9 40 db 3a
       -0.010120227 -0.008797171 -0.002990572 0.0016727682
0001e0 88 2a ab bb 35 06 fe 3c da 29 18 3d fc 15 b9 3c
       -0.005223576 0.03100882 0.037149288 0.02259349
0001f0 27 7d d0 3c 7a 6d 39 3d fb 4d 23 3d 63 75 8b 3c
       0.025450302 0.04527042 0.03986929 0.017023748
000200 55 5f f1 3c 95 a1 28 3c fb ef 5e 3b 76 01 a0 3c
       0.029464403 0.01029243 0.0034017551 0.019531947
000210 66 b9 b6 3c c4 11 55 3d 31 e3 38 3d 3d a4 c4 3c
       0.022305202 0.052018896 0.04513854 0.024004096
000220 9f c7 4a 3d f7 78 df 3c 43 a8 a3 3c 31 1a 0b 3d
       0.04950678 0.02727936 0.019977694 0.033960525
000230 6b b9 ab 3b f2 8f 00 3d 56 13 dd 3c 7f 32 19 3d
       0.0052406094 0.031387277 0.02698676 0.037401672
000240 fb f8 f6 3c 52 55 12 3d ea 23 46 3d 2c 9d ad 3d
       0.03014802 0.0357259 0.048374094 0.08477244
000250 9f 31 82 3d 07 ca 23 3d 24 c6 4d 3d 79 52 14 3d
       0.06357121 0.03998759 0.05023779 0.036211465
000260 e0 4b fd 3c ec da a6 3c 08 b5 4a 3d 7f 37 82 3d
       0.03091997 0.020368062 0.04948905 0.06358241
000270 a9 76 90 3d 58 f4 3d 3c 27 d2 7e 3d 06 6f a6 3d
       0.07053883 0.011593901 0.062212136 0.08126645
000280 42 bf 60 3d 1c c1 37 3d b6 35 1a 3d e7 c7 f4 3c
       0.054869898 0.044861898 0.03764888 0.029880477
000290 1f 28 38 3d 41 18 8b 3d c5 1b 9a 3d ea 8c bb 3d
       0.044960137 0.067917354 0.07524828 0.091577366
0002a0 81 7a 77 3d 44 fb 93 3c e6 bc 39 3d 8a 06 93 3d
       0.060419563 0.018064149 0.045346163 0.071789816
0002b0 e8 51 68 3d 81 8b 74 3d e5 d6 aa 3c 50 97 85 3c
       0.056718737 0.059703354 0.020854423 0.016307503
0002c0 54 0a 19 3d bf 23 2f 3d 30 8f 96 3d 92 de a3 3d
       0.037363365 0.0427587 0.073515296 0.08001436
0002d0 b6 2b ac 3d 46 49 60 3d 43 ea 9e 3d f3 6d b1 3d
       0.08406775 0.05475738 0.077595256 0.08663549
0002e0 ae d8 a2 3d 4e d0 25 3d 37 23 0b 3d f0 a5 92 3d
       0.079514846 0.040481858 0.03396913 0.07160556
0002f0 fc b9 a0 3d 9c f1 69 3d f4 50 aa 3d a7 83 d3 3d
       0.07847974 0.057115182 0.08316222 0.10327845
000300 3c 67 93 3d de b3 77 3d f4 4f 91 3d d4 d7 c7 3d
       0.07197425 0.06047427 0.07095328 0.09757963
000310 9f 7b 77 3d c6 e9 3b 3d 76 11 47 3d 0b dc 73 3d
       0.06042063 0.04587724 0.048600636 0.05953602
000320 7d 93 4c 3d 3a 22 82 3d 47 43 81 3d 7e f8 9a 3d
       0.049945343 0.063541844 0.0631166 0.075669274
000330 7b db 5d 3d ef 31 49 3d 1d 23 53 3d c8 e5 cf 3c
       0.05416439 0.049119886 0.05154716 0.025378123
000340 87 84 24 3d 4b e3 f8 3c 0a 66 db 3c b8 1a bf 3c
       0.04016545 0.03038182 0.026782054 0.02332817
000350 6d b7 a0 3c e0 de a8 3c 65 30 04 3d 60 97 14 3d
       0.019618714 0.020614088 0.032272715 0.036277175
000360 c9 21 01 3d f3 59 ca 3c 35 6e 87 3c 2d 67 b4 3c
       0.03152636 0.024701094 0.016532043 0.022021854
000370 92 0b fc 3c 7f cd a0 3c 42 6f 40 3c 2e bd 9b 3c
       0.030767236 0.019629238 0.011745276 0.019011106
000380 d0 62 0e 3c 63 7b d3 3c 81 39 46 3d 00 65 0e 3d
       0.008690551 0.025815671 0.048394684 0.03476429
000390 38 86 37 3c e1 e4 c1 3c ab 14 12 3d 35 f2 95 3c
       0.011201434 0.023668708 0.03566424 0.01830397
0003a0 66 06 08 3d bb 9b cf 3c 88 1c 25 3d ce 6d 2a 3d
       0.033209227 0.025342813 0.040310413 0.041608624
0003b0 af 5c 98 3c fa 1d 2e 3d 5b 60 82 3c ba cf 32 3c
       0.018598882 0.042509057 0.015915086 0.010913784
0003c0 6f e3 7e 3c 99 7e bc 3c 22 56 d8 bc b5 cd 40 3b
       0.015557154 0.023009585 -0.026408259 0.0029419486
0003d0 53 3d 25 3c 77 0f 98 3c ce 9a 16 bc f5 22 a5 3c
       0.010085422 0.018562062 -0.009192182 0.02015827
0003e0 06 9a 4c 3c 6d 38 bc 3b 52 93 8c 39 60 b9 1f 3c
       0.012487894 0.005744031 0.00026812643 0.009748787
0003f0 27 6b 44 bc 7c 58 33 bc 9e 63 01 bd 19 ea 61 3a
       -0.011988438 -0.010946389 -0.031589143 0.0008617952
