trained_models/sigma_50.model (torch_old, 766796 bytes, 12 tensors)

apply_A1.weight f4 [175, 1, 11, 11]
0	0xbc2bf412	-0.010495203
1	0x3d885c45	0.06658224
2	0x3d18a917	0.03727063
3	0xbd146719	-0.036231134
4	0x3d8aeeb2	0.06783809
5	0x3cbc42bb	0.022981038
6	0xbe03ab2d	-0.12858267
7	0x3e407404	0.18794256
8	0xbe56afca	-0.20965496
9	0x3dcbb3f9	0.099464364
10	0x3dc0135d	0.09378693
11	0xbddb1383	-0.10697081
12	0x3d805e09	0.06267936
13	0x3d6b90f9	0.057511304
14	0x3d3edc64	0.0465969
15	0x3d9dd0b7	0.07705825
16	0x3cd494a6	0.025949787
17	0x3d6c3be3	0.0576743
18	0xbd551ecf	-0.052031334
19	0xbd428254	-0.04748757
20	0xbdd3938b	-0.10330876
21	0x3e02dce0	0.1277957
22	0x3e0ddb14	0.13853103
23	0xbd5f57c3	-0.054527055
24	0xbe3dffc2	-0.18554595
25	0xbd9844d5	-0.07435004
26	0xbe4c089f	-0.19925164
27	0xbc454dc7	-0.012042469
28	0x3b884134	0.0041581634
29	0x3dfb40bb	0.12268206
30	0xbb3dcb24	-0.0028960193
31	0x3d482580	0.048863888
32	0xbe9b0911	-0.30280355
33	0xbe1be842	-0.15225318
34	0x3e906aee	0.2820658
35	0xbe55e2c2	-0.20887282
36	0xbd1df6f7	-0.038565602
37	0x3de28b52	0.110617295
38	0x3d7deab3	0.061991405
39	0xbc0d2ba6	-0.008616364
40	0x3ce88b08	0.028386608
41	0xbe8407be	-0.25787157
42	0x3d82d4a9	0.06388218
43	0x3e2345a9	0.15944542
44	0x3c802a70	0.015645236
45	0x3e0f7743	0.14010338
46	0x3d9cb246	0.076511905
47	0x3d19c0f4	0.03753753
48	0xbddbe44d	-0.10736904
49	0x3d28a424	0.04117216
50	0xbd3759eb	-0.044763487
51	0x3d884d26	0.0665534
52	0x3e0f17ac	0.13973874
53	0x3d6a70fd	0.05723666
54	0xbdbfc55b	-0.093638144
55	0xbe633120	-0.22186708
56	0xbdf55986	-0.11979966
57	0x3d86a4f1	0.06574429
58	0xbc0fd032	-0.008777665
59	0xbc8b313b	-0.016991248
60	0x3d8fed8b	0.070277296
61	0x3cc1fb2f	0.023679344
62	0x3b0cf889	0.0021510443
63	0xbe08c374	-0.1335581
64	0xbcad17e0	-0.021129549
65	0x3cc21be1	0.023694934
66	0x3dd22dd4	0.10262647
67	0x3e029c77	0.12754999
68	0x3da6bf8a	0.08142002
69	0x3d7eac52	0.062176056
70	0xbb61b37c	-0.0034439256
71	0x3dc91b2f	0.09819638
72	0xbd217e7e	-0.039427273
73	0xbc9bd32e	-0.019021597
74	0x3d0b80b5	0.03405829
75	0x3cc12313	0.023576295
76	0xbda204b5	-0.07911054
77	0x3e3b6cd2	0.1830323
78	0x3dae83ff	0.0852127
79	0xbdb75862	-0.089524046
80	0xbd141889	-0.03615621
81	0xbe407765	-0.18795545
82	0x3d9d7a08	0.07689291
83	0xbc51b9fa	-0.012800688
84	0x3df5a7ea	0.11994918
85	0x3de73e5a	0.112911895
86	0xbd18b352	-0.03728039
87	0xbdbb3e9f	-0.091428034
88	0x3c177590	0.009244338
89	0x3e04a3a7	0.12953053
90	0x3e6514d2	0.22371224
91	0x3d65236c	0.055941984
92	0xbe1257ec	-0.14291352
93	0xbc78c43c	-0.015183505
94	0xbe66abb7	-0.22526442
95	0x3e08d1cc	0.13361281
96	0xbead1c3a	-0.33810598
97	0xbdc95a54	-0.09831682
98	0x3e94a728	0.2903378
99	0x3cb7213e	0.022354718
100	0xbd16a79c	-0.03678094
101	0x3d9824f7	0.074289255
102	0x3b9caafb	0.0047811246
103	0x3de09e4e	0.10967694
104	0xbd23312b	-0.039841812
105	0xbcf5340b	-0.029932043
106	0x3c8fa771	0.017535897
107	0xbb839b88	-0.0040163435
108	0xbd9320d2	-0.07183994
109	0x3e08cb20	0.13358736
110	0x3c84d9dc	0.016217165
111	0x3cbe08ce	0.023197558
112	0xbe4864b7	-0.1956967
113	0xbe668b8d	-0.22514172
114	0xbd179e8d	-0.03701644
115	0xbc376a6a	-0.011194805
116	0x3e53948b	0.20662133
117	0xbe0c1454	-0.1367963
118	0x3cff86ea	0.031192262
119	0x3d370b03	0.044688236
120	0xbd73ac71	-0.059490625
121	0xbe778560	-0.24171972
122	0x3c648ea8	0.0139500275
123	0xbd93e485	-0.07221321
124	0x3e704508	0.23463833
125	0x3c0ce4d2	0.008599477
126	0xbe082007	-0.13293467
127	0x38861ad5	6.394616e-05
128	0xbc2280ac	-0.009918373
129	0x3e85397b	0.26020417
130	0x3b8a7e3f	0.0042264755
131	0x3df7dd22	0.121027246
132	0x3d3b1631	0.04567546
133	0x3d22daa2	0.039759286
134	0xbda7bbb6	-0.081901
135	0xbe8b8da4	-0.272565
136	0xbe58640c	-0.21131915
137	0xbe083966	-0.13303146
138	0x3e77e6db	0.24209158
139	0x3e61834d	0.22022744
140	0x3e5975a8	0.21236289
141	0x3a7b7218	0.00095918914
142	0xbe79e14f	-0.24402355
143	0x3e1a8e0d	0.1509325
144	0xbc70c288	-0.014694817
145	0xbe994be0	-0.299407
146	0xbe4ba4b0	-0.19887042
147	0xbd9b85cb	-0.07593878
148	0x3e483433	0.19551162
149	0x3e1b82ff	0.1518669
150	0x3e3ba040	0.1832285
151	0xbebd74bd	-0.37003127
152	0xbca20327	-0.019776894
153	0x3de68979	0.112566896
154	0xbe068080	-0.13134956
155	0x3cd47356	0.025933903
156	0xbe039925	-0.12851389
157	0xbdba0546	-0.09083037
158	0xbe44bd73	-0.19212894
159	0xbde28ff4	-0.11062613
160	0xbc8ce242	-0.017197732
161	0x3da22ef9	0.079191156
162	0x3e52d23f	0.20588015
163	0xbd9c7133	-0.076387785
164	0x3e4b9e32	0.19884565
165	0xb96435bd	-0.00021763793
166	0xbe96e1a8	-0.29469037
167	0xbd8361af	-0.06415116
168	0xbd9db23a	-0.0770001
169	0xbd2068bf	-0.039162394
170	0x3e3899a8	0.18027365
171	0x3e7b9f99	0.245726
172	0x3d4e4a18	0.05036363
173	0x3ea9ef69	0.33190468
174	0xbd8a8067	-0.06762772
175	0xbe3bc0a3	-0.18335204
176	0xbc862932	-0.016377065
177	0x3d147e42	0.03625322
178	0x3d263225	0.040575165
179	0x3e72a3db	0.23695318
180	0x3d963513	0.07334342
181	0xbd46b51d	-0.048512567
182	0x3e3e60e2	0.18591645
183	0xbd964cd4	-0.073388726
184	0xbe155384	-0.1458264
185	0xbd88e9e3	-0.06685235
186	0xba9aa3ac	-0.0011798046
187	0xbc51dd67	-0.012809134
188	0x3d43a9b3	0.04776926
189	0xbe1c6cd5	-0.15275891
190	0xbbbb8d01	-0.005723596
191	0x3dc8fb2b	0.098135315
192	0xbe212e28	-0.15740263
193	0x3ca02c8c	0.019552492
194	0x3e377851	0.17916991
195	0xbdd4430d	-0.103643514
196	0xbd9284c6	-0.07154231
197	0xbe45a8cb	-0.1930267
198	0xbc63ce95	-0.013904233
199	0x3e94a827	0.2903454
200	0xbd10e8eb	-0.035378378
201	0xbdc0d6cb	-0.094159685
202	0xbd108452	-0.03528244
203	0x3d4592a2	0.048235543
204	0xbdce995d	-0.100878455
205	0x3c0b8c68	0.008517362
206	0x3e10c288	0.14136708
207	0xbe3b8728	-0.18313277
208	0x3e946beb	0.28988585
209	0x3e91ea14	0.284989
210	0x3d85bbb8	0.06529945
211	0x3db7074d	0.089369394
212	0xbd5274dd	-0.05138098
213	0xbd51dcb2	-0.051235862
214	0xbc2e294a	-0.010629961
215	0x3d80e85d	0.0629432
216	0x3e0c6791	0.13711382
217	0xbed26cfc	-0.41098773
218	0x3d6d7d49	0.05798081
219	0xbe342edc	-0.17596
220	0xbd9559ca	-0.072925165
221	0xbc888beb	-0.01666828
222	0x3d728b18	0.05921468
223	0xbe27c52c	-0.16383809
224	0x3dfb0cea	0.122583225
225	0xbe0453d6	-0.12922606
226	0xbcce0359	-0.02514808
227	0xbd513381	-0.05107451
228	0xbe298dc5	-0.16557987
229	0x3e2b46dc	0.1672625
230	0x3d88dbd4	0.06682554
231	0xbe98bc4e	-0.29831165
232	0x3cd945f2	0.02652261
233	0x3e6d4820	0.23172045
234	0xbe50de00	-0.20397186
235	0x3d275b15	0.040858347
236	0x3e745017	0.23858677
237	0xbe23ab6d	-0.15983362
238	0xbe0921f9	-0.13391866
239	0x3e5d8599	0.21632995
240	0x3e2723fe	0.16322324
241	0xbedcb341	-0.4310551
242	0x3ea1d51b	0.316079
243	0xbe7ec92e	-0.24881431
244	0xbcc349a5	-0.023838827
245	0xbe398ddd	-0.18120523
246	0x3eccd656	0.40007275
247	0x3c527391	0.012844936
248	0xbbc017fe	-0.005862235
249	0xbd9f0691	-0.07764924
250	0xbdc85615	-0.09782044
251	0x3d9b0221	0.075687654
252	0xbd5bc951	-0.053658787
253	0xbe19669f	-0.14980553
254	0x3e8c75f2	0.27433735
255	0x3dd4328c	0.103612036

apply_B1.weight f4 [175, 1, 11, 11]
0	0xbc2b4190	-0.010452643
1	0x3d169b76	0.036769353
2	0x3bd2c272	0.006431871
3	0xbc1bbe37	-0.0095058
4	0x3c1cc061	0.009567351
5	0x3cfd5a12	0.030926738
6	0xbcef1177	-0.029183133
7	0x3d1d312b	0.03837697
8	0x3c1006c6	0.008790677
9	0x3d1d0b18	0.038340658
10	0x3a5ff665	0.00085434905
11	0x3cbde1ca	0.023178954
12	0xbc1bc0ef	-0.009506448
13	0x3c1cf182	0.009579064
14	0xbac55f6c	-0.0015058345
15	0x3c937675	0.01800082
16	0xbd959620	-0.07304025
17	0xbb3d556d	-0.002889003
18	0x3c6462b6	0.01393955
19	0x3ca116fb	0.019664278
20	0xbc63927f	-0.013889908
21	0xbc56f606	-0.01312018
22	0x3da57493	0.080788754
23	0x3d00c9b2	0.03144235
24	0xbd170d2f	-0.036877807
25	0xbd9e9a53	-0.07744279
26	0xbd2c3151	-0.04203922
27	0xbd30af1e	-0.043135755
28	0xbd3d4035	-0.04620381
29	0xbd10154c	-0.03517656
30	0x3d23647d	0.039890755
31	0x3c85992a	0.016308386
32	0xbdb84eda	-0.08999415
33	0xbd89885b	-0.06715461
34	0x3db54b04	0.08852199
35	0xbdaf5fcd	-0.085631944
36	0xbda0a4df	-0.07843947
37	0x3d3f4e69	0.046705637
38	0xbcae8a2a	-0.021306116
39	0x3c28bd65	0.010299061
40	0xbc632e91	-0.013866083
41	0xbc739605	-0.01486731
42	0x3bd767e9	0.0065736664
43	0xbd94ca02	-0.072650924
44	0x3d6009bb	0.05469678
45	0x3d5f8e1d	0.05457889
46	0x3c15be71	0.009139643
47	0x3d4916a3	0.049093854
48	0xbdbfe029	-0.09368927
49	0x39dac8e7	0.00041729884
50	0xbd669588	-0.056294948
51	0xbd56f87c	-0.052483067
52	0x3da68452	0.08130707
53	0xbd9234a8	-0.0713895
54	0xbcdf727d	-0.027276272
55	0xbc9620bf	-0.018326161
56	0xbe0b278e	-0.13589308
57	0xbdaeafbe	-0.08529614
58	0xbce8a17a	-0.02839731
59	0xba25231c	-0.0006299482
60	0xbd636975	-0.055520494
61	0xbb994a6d	-0.0046780617
62	0x3cab9b51	0.020948084
63	0xbdb4a215	-0.08819977
64	0xbd15519c	-0.036454782
65	0x3c937966	0.018002223
66	0x3e534393	0.20631246
67	0x3e933632	0.28752285
68	0x3e357cb2	0.17723349
69	0x3c8b8262	0.017029945
70	0xbd0375a8	-0.032094628
71	0xbb82c414	-0.0039906595
72	0xbd263672	-0.040579267
73	0xbd89c0b1	-0.06726206
74	0xbc98a65e	-0.018634018
75	0x3c512daf	0.0127672395
76	0x3b2f77ed	0.0026774362
77	0x3e94107b	0.28918824
78	0x3e64ec18	0.22355688
79	0x3d718400	0.058963776
80	0x3bcff69e	0.0063465377
81	0x3cf2a182	0.029618029
82	0x3cb6eb3e	0.02232897
83	0x3899ea29	7.339224e-05
84	0x3d2c66fc	0.0420904
85	0x3a7b604e	0.00095892407
86	0x3ca48816	0.020084422
87	0x3c111430	0.008854911
88	0x3d06b2e0	0.032885432
89	0x3de245f6	0.110485
90	0x3db4c06f	0.08825766
91	0x3b7fcc28	0.0039031599
92	0xbdabcf28	-0.08389121
93	0xbdbdb0e5	-0.092622556
94	0x3a1203ff	0.00055700535
95	0xbcfe869c	-0.031070046
96	0xbdcb8862	-0.09938122
97	0xbd479d4a	-0.048733987
98	0x3bd9f7b3	0.0066518425
99	0xbc4dd4dd	-0.012562958
100	0x3d287d60	0.041135192
101	0x3cd29904	0.02570773
102	0xbd3d1826	-0.046165608
103	0xbcd9a72f	-0.026568977
104	0xbd6941f4	-0.056947663
105	0xbd23c974	-0.039987043
106	0xbdcaf551	-0.09910072
107	0x3c5ca479	0.013466948
108	0xbc15b978	-0.0091384575
109	0xbc4af275	-0.012386908
110	0x3d450c34	0.04810734
111	0x3d66d70f	0.05635744
112	0xbdcfe06b	-0.10150226
113	0xbcae98c8	-0.021313086
114	0x3cd4504b	0.025917193
115	0xbbf0d6bf	-0.0073498185
116	0x3d49f65b	0.04930721
117	0xbca2773f	-0.019832252
118	0x3c7b70a1	0.015346677
119	0x3d0080cc	0.03137283
120	0xbd73e14b	-0.059541028
121	0xbd777df9	-0.06042287
122	0xbb1e26b0	-0.0024131946
123	0xbd4c2703	-0.049841892
124	0x3d847d53	0.06469216
125	0xbd9ad47a	-0.07560058
126	0xbb463dd7	-0.0030249262
127	0x3cca13a3	0.024667567
128	0x3de8cc7d	0.11367128
129	0x3e27715f	0.16351841
130	0xba5356a9	-0.00080619246
131	0x3d8cc607	0.06873708
132	0xbd3bdce8	-0.04586497
133	0xbb3e9f2a	-0.0029086568
134	0xbdeacae5	-0.1146448
135	0xbd4cab9f	-0.049968358
136	0xbdaf927c	-0.085728616
137	0xbdac8910	-0.0842458
138	0x3dcdc9d7	0.100482635
139	0x3d80f130	0.06296003
140	0x3c4c1039	0.01245504
141	0xbceb9be7	-0.028760863
142	0xbc8219bd	-0.015881414
143	0x3d9b547a	0.07584472
144	0x3bc628de	0.006047352
145	0xbdd5a67d	-0.10432146
146	0xbdd520db	-0.10406657
147	0xbcebde7d	-0.028792614
148	0x3d4ea726	0.050452374
149	0xbd378b1d	-0.044810403
150	0x3cb9be84	0.022673853
151	0xbd9834d1	-0.07431949
152	0xbcd9015d	-0.026489908
153	0x3d56a3ca	0.052402295
154	0xbdd9472a	-0.106092766
155	0x3d1bc50c	0.038029715
156	0xbd112d14	-0.03544338
157	0xbda10915	-0.078630604
158	0xbc178d2d	-0.0092499675
159	0xb92d831d	-0.00016547409
160	0x3dffa12b	0.12481912
161	0xbd7de706	-0.0619879
162	0x3e1c2680	0.15249062
163	0xbcc2e412	-0.023790393
164	0x3d484376	0.04889246
165	0xbcce15df	-0.025156913
166	0xbdc778fb	-0.09739872
167	0xbdc1f5cd	-0.09470711
168	0x3d8eb14f	0.06967413
169	0x3a9c1352	0.0011907613
170	0x3ccb5a8f	0.024823455
171	0x3e04f70e	0.12984869
172	0x3d2349a6	0.03986516
173	0x3df17124	0.11789158
174	0xbba5a16f	-0.005054645
175	0xbd18c292	-0.03729493
176	0x3c0f6569	0.008752205
177	0x3aa26558	0.0012389822
178	0xbc580030	-0.013183638
179	0x3db69a4f	0.08916151
180	0xbc6e598b	-0.014547716
181	0x3da5e947	0.08101135
182	0x3dbbe30c	0.09174165
183	0xbd75d4ad	-0.060017277
184	0xbdc73948	-0.097277224
185	0xbcdb7bb0	-0.026792377
186	0xbc494807	-0.012285239
187	0xbc76be0c	-0.015059959
188	0x3ae3b76c	0.001737339
189	0xbabc1da9	-0.0014352101
190	0x3c8d5c84	0.017256029
191	0x3c6afcc2	0.014342489
192	0xbdc51c18	-0.09624499
193	0xbc529404	-0.0128526725
194	0x3e04ba1e	0.12961623
195	0x3d854c51	0.06508697
196	0xbda73a45	-0.08165411
197	0xbe020130	-0.12695765
198	0x3c40a12b	0.011757175
199	0x3d4b9adf	0.049708243
200	0xbcec974b	-0.028880736
201	0xbdbf6d36	-0.09347002
202	0xbd3c36cf	-0.045950707
203	0x3cfbff8c	0.030761503
204	0xbd8ea1da	-0.069644645
205	0x3dec1b5f	0.11528658
206	0x3d15a344	0.036532655
207	0xbd34d5d8	-0.04414925
208	0x3e11319c	0.1417908
209	0x3d5e66a1	0.054297093
210	0x3cf04da2	0.029333893
211	0x3d752beb	0.059856337
212	0xb9c50fdc	-0.00037586584
213	0x3d271e51	0.040800396
214	0x3d40e7be	0.047096007
215	0x3ca94e68	0.02066727
216	0xbc79075c	-0.0151995085
217	0xbe56da3e	-0.2098169
218	0x3c96f884	0.018429048
219	0xbd691fb2	-0.056914993
220	0x3d095b97	0.033534613
221	0x3d107cd7	0.035275307
222	0x3c0558d5	0.008138855
223	0xbd3b797f	-0.045770165
224	0xbd5c46d0	-0.05377847
225	0x3cb70dd6	0.022345465
226	0x3df70809	0.120620795
227	0x3d6e8910	0.05823618
228	0xbd9f3576	-0.07773869
229	0x3d67ec2d	0.05662172
230	0xbc78a164	-0.015175197
231	0xbdaedd3d	-0.085382916
232	0xbcc27bc6	-0.02374066
233	0x3ded3b13	0.11583533
234	0xbdaba0c9	-0.08380277
235	0x3bd44c59	0.006478828
236	0x3d2d788d	0.042351294
237	0xbd64d4a2	-0.055866845
238	0xbcb02163	-0.021500295
239	0x3dd09482	0.101845756
240	0xbce4b658	-0.02791898
241	0xbe097456	-0.13423285
242	0x3d25b850	0.040458977
243	0x3d4591e1	0.048234824
244	0x3c96154d	0.018320704
245	0x3d8e7eb3	0.0695776
246	0x3c4e1ae5	0.012579654
247	0xbd882281	-0.06647206
248	0xbdbd6588	-0.09247881
249	0xbdbfc35d	-0.093634345
250	0x3c80ffc5	0.01574696
251	0xbd61e81b	-0.055152994
252	0x3b68ea79	0.0035540147
253	0x3b6ed387	0.0036441998
254	0x3e3129db	0.17301123
255	0x3ea73ece	0.32665104

apply_C1.weight f4 [175, 1, 11, 11]
0	0x3c42d7dd	0.011892286
1	0x3c60b630	0.013715312
2	0x3af943b7	0.0019017373
3	0x3bdaaa0f	0.0066731046
4	0x3c51d9ef	0.012808307
5	0x3bd68d46	0.006547603
6	0x3c1f0fd6	0.009708365
7	0x3c7cc3cf	0.015427544
8	0x3ac26061	0.0014829749
9	0xba2a6713	-0.00065003446
10	0xbb3cd4eb	-0.0028813432
11	0xbbdb402c	-0.0066909995
12	0x3bcaac7f	0.006185114
13	0x3c5a5cc4	0.013327781
14	0xb987052c	-0.0002575306
15	0x3bb52929	0.0055285883
16	0x3c7dcb3e	0.015490351
17	0x3c8aa7fd	0.016925806
18	0x3c83f81f	0.016109524
19	0x3b04082c	0.0020146472
20	0xbbdfbcc4	-0.0068279225
21	0x3b12b860	0.0022387728
22	0x39653da8	0.0002186211
23	0xbc82c443	-0.015962726
24	0xbc190782	-0.009340169
25	0x3be7329a	0.0070555927
26	0x3c311314	0.010807771
27	0x3cb6d10b	0.022316476
28	0x3d04ac88	0.0323911
29	0x3c9a35ce	0.018824484
30	0x3b878aeb	0.0041364334
31	0x3bff0304	0.007782342
32	0x3bc23793	0.005927035
33	0xba1ae20d	-0.0005908318
34	0x3a8034aa	0.000978132
35	0xbc152e07	-0.009105212
36	0x3c8fa62e	0.017535295
37	0x3d05aae6	0.032633685
38	0x3d41526a	0.047197737
39	0x3d863611	0.06553281
40	0x3d27482f	0.040840324
41	0x3d256c5c	0.040386543
42	0x3cf279fe	0.029599186
43	0x3cf4ca16	0.029881518
44	0xbc99730e	-0.01873162
45	0xbccbbc87	-0.02487017
46	0x3aa6e9b0	0.0012734439
47	0xbc58d8c8	-0.013235278
48	0x3bf1fd78	0.007384952
49	0x3cb4762c	0.022029005
50	0x3d16a910	0.036782324
51	0x3c16d732	0.00920658
52	0x3c988846	0.018619668
53	0x3c8c9124	0.017159052
54	0xbb8467ba	-0.0040406855
55	0xbd927643	-0.07151463
56	0xbda7b97a	-0.08189674
57	0x3c0a28cd	0.008432579
58	0x3c181b77	0.009283892
59	0x3cfb0935	0.030644039
60	0x3d341a0a	0.043970145
61	0x3d19f708	0.037589103
62	0x3cb8ae39	0.022544013
63	0x3d0ea974	0.03482957
64	0x3cebe686	0.028796446
65	0x3c866f59	0.016410517
66	0xbe33866a	-0.17531744
67	0xbe598a0c	-0.21244067
68	0xbd9f0b59	-0.07765836
69	0xbca962e6	-0.020677041
70	0x3c123b48	0.008925267
71	0x3ceb0af6	0.02869175
72	0x3d63e38f	0.05563694
73	0x3d8361aa	0.06415112
74	0x3d878858	0.066178024
75	0x3d46b55e	0.04851281
76	0x3cffe132	0.031235311
77	0xbe03484d	-0.1282055
78	0xbe095fe1	-0.13415481
79	0xbd84f518	-0.064920604
80	0xbcc42eaa	-0.023948032
81	0xbbae30fe	-0.005315899
82	0x3c8e6d95	0.017386237
83	0x3cc492ac	0.02399572
84	0x3d272899	0.0408102
85	0x3d2b5498	0.04182872
86	0x3cf0476a	0.029330928
87	0x3c444c1e	0.011981038
88	0xbc9c4035	-0.019073585
89	0xbd29bac3	-0.041437875
90	0xbc9fa55f	-0.019488035
91	0xbb89b9f6	-0.0042030765
92	0x3c1caae4	0.009562228
93	0x3cd34c9e	0.02579337
94	0x3c683350	0.01417239
95	0x3c4e6470	0.012597188
96	0x3b8f5f3d	0.004375367
97	0x3c015aba	0.007895166
98	0x3c345917	0.011007569
99	0xbc9bbd15	-0.01901106
100	0xbce8aefd	-0.028403753
101	0xbc3894ab	-0.011265914
102	0xbc7eea8b	-0.015558849
103	0xbbc21ffe	-0.005924224
104	0x3c112c29	0.008860626
105	0x3c553533	0.013013172
106	0x3c7576d4	0.014981944
107	0x3be84bd0	0.0070891157
108	0x3b6a5153	0.003575404
109	0xbbd12a51	-0.0063832183
110	0xbc1b5984	-0.009481791
111	0xbc19dfea	-0.009391764
112	0xbc47133e	-0.012150584
113	0xbb713d80	-0.0036810338
114	0x3b0a86f5	0.002113757
115	0x3ba986fd	0.0051735626
116	0x3be84231	0.0070879688
117	0x3c0034c4	0.00782508
118	0x3b0bf709	0.0021356961
119	0x3b84f538	0.0040575527
120	0x3babb575	0.005240137
121	0x3c40320f	0.011730685
122	0x3caefa98	0.021359727
123	0x3c74615e	0.014915792
124	0x3ba15c17	0.004924308
125	0x3ba0bc9b	0.004905296
126	0xba6d3b3f	-0.0009049661
127	0xba466de0	-0.0007569473
128	0xb8a38a13	-7.798164e-05
129	0x3b9e585e	0.0048323115
130	0x3c3a2f1d	0.011363772
131	0xbacf07bf	-0.0015795155
132	0x3cd5aabc	0.026082389
133	0x3d11aab1	0.035563175
134	0x3be286ff	0.0069130654
135	0xbc0a6026	-0.008445775
136	0x39380aab	0.00017551582
137	0xbc82facd	-0.015988732
138	0xbd103148	-0.03520325
139	0xbd39bdbf	-0.04534697
140	0xbbfb5066	-0.0076694963
141	0xbbe506ee	-0.0069893515
142	0xbc89ee0f	-0.016837148
143	0x3c94c229	0.018158989
144	0x3c8beb8b	0.01708009
145	0x3a9933ee	0.001168845
146	0xbc99100b	-0.018684408
147	0xbca40b81	-0.020025017
148	0xbcb651ff	-0.022255896
149	0xbdd2e376	-0.10297291
150	0xbde88514	-0.11353508
151	0xbd1686d4	-0.036749676
152	0xbc03abd4	-0.0080365725
153	0xbca34f0c	-0.019935153
154	0x3d0aef7f	0.033919808
155	0x3d623d72	0.05523438
156	0x3ccd0fc1	0.025031926
157	0xbccbe951	-0.024891527
158	0xbd300679	-0.042974923
159	0xbd181522	-0.03712953
160	0xbdd048a8	-0.10170108
161	0xbde8eb06	-0.11372952
162	0xbb644409	-0.0034830591
163	0xbafbaec7	-0.0019201868
164	0x3c55c3b5	0.0130471485
165	0x3d1ad6b2	0.037802406
166	0x3cbb2239	0.022843467
167	0xbabdfa04	-0.0014494066
168	0xbd545269	-0.051836405
169	0xbda74be1	-0.0816877
170	0xbd7d47cd	-0.061836053
171	0xbdddde8a	-0.108334616
172	0xbe0ace5d	-0.13555284
173	0xbd3b14c5	-0.045674104
174	0xbc33f43a	-0.010983521
175	0xbd0c4f86	-0.034255527
176	0x3c307753	0.010770637
177	0x3c00418a	0.007828126
178	0xbba586f6	-0.005051489
179	0xbbc735f6	-0.0060794307
180	0x3b1323d5	0.0022451777
181	0xbcd90e57	-0.026496096
182	0xbda7dd8f	-0.08196556
183	0xbda667cf	-0.08125269
184	0x3b3f0bc0	0.002915129
185	0x3ce1a503	0.027544504
186	0xbb3e8d06	-0.0029075756
187	0x3cd3a2b5	0.02583442
188	0x3d02fa58	0.031977028
189	0x3d04569d	0.032309163
190	0x3d6c7bb5	0.057735164
191	0x3d6d5b67	0.057948496
192	0x3d05249b	0.032505613
193	0x3c8c1008	0.017097488
194	0x3c964409	0.018342989
195	0x3d114ec2	0.0354755
196	0x3d1d9720	0.038474202
197	0x3ae177a8	0.0017201798
198	0x3d2dd5b0	0.042440116
199	0x3d07e0ce	0.033173375
200	0x3ccd7e28	0.02508457
201	0xbb44be22	-0.0030020555
202	0x3c4d00c3	0.012512389
203	0xbbc68cf9	-0.0060592857
204	0xbd45868b	-0.048224013
205	0xbc89e0ec	-0.016830884
206	0x3cca9ddb	0.024733474
207	0x3ca4d5aa	0.020121414
208	0x3a32ef30	0.0006825803
209	0x3c91d783	0.01780296
210	0x3b666515	0.0035155464
211	0x3b8454c3	0.0040384247
212	0xba95c3ae	-0.0011426115
213	0x3ae10e10	0.0017170329
214	0x3b109620	0.0022062138
215	0xbc4b2c4a	-0.012400696
216	0xbc19c804	-0.009386066
217	0x3ca9a052	0.02070633
218	0x3c5a8f1c	0.013339784
219	0x3b150c2d	0.0022742853
220	0xbc15c0af	-0.009140178
221	0xbc35bd63	-0.011092517
222	0xbc5de0bd	-0.013542351
223	0xbc5e5f44	-0.013572518
224	0xbaf9d6fb	-0.0019061262
225	0xbbda288c	-0.0066576656
226	0x3b3822e7	0.0028096975
227	0xbb6e449f	-0.003635682
228	0x3c4757a9	0.012166896
229	0x3c301ceb	0.010749082
230	0xbc5e4c6f	-0.013568028
231	0xbbb8b3a7	-0.0056366506
232	0xbb047d74	-0.0020216377
233	0xbc0bf681	-0.008542658
234	0xbb11d24c	-0.002225059
235	0x3bda6bcc	0.0066656824
236	0xbc164e8a	-0.009173999
237	0xbbfd03f9	-0.007721421
238	0xbc10f30c	-0.008847009
239	0x3badebe7	0.0053076628
240	0xbc12e9b9	-0.008966857
241	0xbc1c9ec6	-0.009559339
242	0x3d01a5a8	0.031652123
243	0x3cf82d0a	0.030294914
244	0x3cb2487f	0.021763084
245	0xbc411b2e	-0.011786265
246	0xbb21f9a7	-0.0024715455
247	0xbbde1087	-0.0067768726
248	0xbccc4ede	-0.02493995
249	0xbd16ea5d	-0.0368446
250	0xbcde77d6	-0.027156752
251	0xbc22675a	-0.009912336
252	0xbb062c23	-0.0020473085
253	0x3cd2321b	0.025658658
254	0x3d6ae7ad	0.05734985
255	0x3d94227e	0.07233141

soft_threshold1.threshold f4 [1, 175, 1, 1]
0	0x3e8a7766	0.2704422
1	0x3ebda902	0.37043005
2	0x3e8bb557	0.2728679
3	0xbe071109	-0.13190092
4	0x3eafd5ad	0.3434271
5	0x3d09c68d	0.03363662
6	0x3c95744f	0.018243937
7	0x3b8c237b	0.0042766905
8	0x3d28d933	0.041222762
9	0x3ea77f46	0.3271429
10	0x3b80fe98	0.0039366
11	0x3e91f38c	0.28506124
12	0x3d3d908d	0.046280432
13	0x3d29d21a	0.041460134
14	0x3e70850a	0.2348825
15	0xbb7e50df	-0.0038805527
16	0x3eac8621	0.33696082
17	0x3e9afcc6	0.30270976
18	0x3e8e79bc	0.2782725
19	0x3a50ef68	0.00079702446
20	0x3cdc4ede	0.026893076
21	0x3c9a214e	0.018814709
22	0x3c55cf50	0.013049915
23	0x3e81e947	0.2537329
24	0xbb287d72	-0.0025709537
25	0x3eb26f2f	0.3485045
26	0x3e96d5d7	0.29460022
27	0x3d6f02c1	0.058352236
28	0x3e61b492	0.22041538
29	0x3ea398d9	0.3195255
30	0x3c31726e	0.010830505
31	0x3e894378	0.26809287
32	0xb891d077	-6.9529684e-05
33	0x3eab6926	0.3347866
34	0x3e892bfd	0.26791373
35	0x3c85906d	0.01630422
36	0x3c941d55	0.018080393
37	0x3e777939	0.24167337
38	0x3e864ed5	0.2623202
39	0x3ed609be	0.41804308
40	0x3cb31468	0.021860316
41	0x3ce3207b	0.027725449
42	0x3e96cd64	0.29453576
43	0xb9f95c20	-0.0004756162
44	0x3e8f46f6	0.27983826
45	0x3ea3794c	0.3192848
46	0x3e7f9617	0.24959598
47	0x3e9339f6	0.28755158
48	0x3c82da9c	0.015973382
49	0x3e889112	0.2667318
50	0x3e89e2ac	0.2693075
51	0x3e71c34b	0.23609655
52	0x3eaaaff7	0.33337376
53	0x3c3b2536	0.011422446
54	0x3e74df21	0.23913242
55	0x3e5a2ba2	0.21305707
56	0x3e64bc3c	0.2233743
57	0x3e8173c4	0.25283635
58	0x3e7e5ce1	0.24840118
59	0x3eaf8134	0.34278262
60	0x3e5ab8bc	0.21359533
61	0x3cbb9399	0.022897528
62	0x3e88647d	0.26639166
63	0x3bce2077	0.006290491
64	0x3ea55819	0.32293776
65	0x3e89eafd	0.26937094
66	0x3d118235	0.035524566
67	0x3ead884f	0.33893058
68	0x3e921097	0.28528282
69	0x3ea2b3d4	0.31777823
70	0x3e7e7c85	0.24852188
71	0x3e4adeb9	0.19811524
72	0x3e7b3ac7	0.2453414
73	0x3e77d26d	0.24201365
74	0x3e42d4e2	0.19026521
75	0x3e9e045d	0.30862704
76	0x3be8997b	0.0070983744
77	0x3ec8fd06	0.39255542
78	0x3e841f4b	0.25805125
79	0x3e444ebc	0.1917066
80	0x3c84611d	0.016159588
81	0x3ba4587a	0.00501543
82	0x3e72c232	0.23706892
83	0x3eb50043	0.35351762
84	0x3c62fd4c	0.013854336
85	0x3e9fb393	0.31191692
86	0x3e6afdf6	0.22948441
87	0x3e8bdd3c	0.27317226
88	0x3e7b0a04	0.2451554
89	0x3e4d8165	0.20068891
90	0x3c480517	0.012208245
91	0x3ce6afe7	0.028160049
92	0x3c185240	0.009296954
93	0x3ddc7c2e	0.10765873
94	0x3e97767c	0.29582584
95	0x3e9d6999	0.30744627
96	0x3ea48a8d	0.32136956
97	0x3ca0ccac	0.019628845
98	0x3e64fb60	0.22361517
99	0x3e987fe1	0.29785064
100	0x3e4c741b	0.19966166
101	0x3e4abbf9	0.19798268
102	0xbb409f2a	-0.0029391744
103	0x3e9ab472	0.30215794
104	0x3e56506a	0.20929113
105	0x3e6bce34	0.23027879
106	0x3e87ada0	0.26499653
107	0x3e3c25bd	0.18373771
108	0x3b6b7854	0.0035929875
109	0x3e989b26	0.2980587
110	0x3e91fb26	0.28511924
111	0x3ea1daf2	0.31612355
112	0x3e92c3d9	0.28665045
113	0x3e7786c7	0.24172507
114	0x3e5a3266	0.21308288
115	0xbd626649	-0.055273328
116	0x3ea1cbb5	0.3160073
117	0x3bfa00ec	0.0076295044
118	0x3e86a9a3	0.26301298
119	0x3e8f8d22	0.28037363
120	0x3ce5efd6	0.028068464
121	0x3e9b6de3	0.30357274
122	0x3b803f58	0.003913801
123	0x3ceeddcb	0.029158494
124	0x3ea8d5d8	0.3297565
125	0x3e5b1fee	0.21398899
126	0x3e9d28e4	0.3069526
127	0x3e84e3d6	0.25955075
128	0x3e96ca50	0.29451227
129	0x3e973343	0.29531297
130	0x3e78cd4b	0.24297063
131	0x3e9bccf6	0.3042981
132	0x3d247889	0.040154014
133	0x3e8c1745	0.27361503
134	0x3e409529	0.188069
135	0x3c375341	0.011189283
136	0x3e84ee76	0.2596318
137	0x3c077e03	0.00826979
138	0x3e6ed2dc	0.23322624
139	0x3e4bbb98	0.1989578
140	0x3e87e6a5	0.26543155
141	0x3e8f2e3c	0.27964962
142	0x3e810fbb	0.25207314
143	0x3ea7b73c	0.32756984
144	0xbbef00cf	-0.0072937976
145	0x3e99fbb9	0.30074862
146	0x3e86986d	0.26288167
147	0x3c434a9f	0.0119196465
148	0x3e95ccca	0.29257804
149	0x3ca50ed1	0.020148667
150	0x3e8e10a0	0.2774706
151	0x3e8b3846	0.2719137
152	0x3e966dcc	0.29380643
153	0x3e816264	0.2527038
154	0x3cd8128c	0.026376031
155	0x3e2ba731	0.16762997
156	0x3eb25b11	0.34835103
157	0x3e70e4b4	0.23524743
158	0x3e9f18c6	0.31073588
159	0x3e96a7fb	0.29425034
160	0x3e9c8dde	0.30576986
161	0xbb3fa40b	-0.0029242064
162	0x3eae6c64	0.3406707
163	0x3eb8686a	0.36017162
164	0x3e927052	0.2860132
165	0x3d02d16d	0.031938005
166	0x3ef30ebe	0.47472185
167	0x3eb43378	0.35195518
168	0x3bf072d2	0.0073379064
169	0x3e976c2c	0.29574716
170	0x3c2c2a3d	0.010508117
171	0x3e85f2e7	0.26161882
172	0x3c61ac40	0.013773978
173	0x3ea72799	0.32647398
174	0x3e58dff2	0.21179178

apply_A2.weight f4 [175, 1, 11, 11]
0	0x3cc37d92	0.023863588
1	0x3d948bf1	0.07253254
2	0xbd0a539c	-0.033771142
3	0xbe5cd2dc	-0.21564811
4	0x3ddd6b0d	0.10811434
5	0x3bbb8876	0.0057230545
6	0xbd8ea1d8	-0.06964463
7	0xbcf9f248	-0.030511037
8	0x3dd878c7	0.105699115
9	0x3d877b03	0.066152595
10	0xbe6961b0	-0.22791171
11	0xbe2f026c	-0.17090768
12	0xbd67b18d	-0.05656581
13	0x3b877b5c	0.0041345786
14	0xbde8291b	-0.11335965
15	0x3c5ae932	0.013361262
16	0xbd09c25f	-0.033632632
17	0x3d8061f7	0.06268685
18	0xbe8015a8	-0.25016522
19	0xba206213	-0.000611813
20	0x3dbc1937	0.09184497
21	0xbd28e27e	-0.041231625
22	0x3cb2df44	0.021834977
23	0xbe002ff4	-0.12518293
24	0xbdac084a	-0.084000185
25	0x3e338076	0.17529473
26	0xbd789963	-0.060693156
27	0x3b933e2c	0.0044934954
28	0xbe01ddb9	-0.12682237
29	0x3d99b710	0.075056195
30	0xbb00be37	-0.0019644627
31	0xbe094f7b	-0.13409226
32	0x3e0d3bd4	0.13792354
33	0xbd8cd728	-0.06876975
34	0x3beaaeb3	0.007161939
35	0xbc1cd546	-0.009572333
36	0xbe1ade0d	-0.15123768
37	0xbd33c26c	-0.043886587
38	0x3d844902	0.06459238
39	0x3d2e46e8	0.04254809
40	0xbdfbe981	-0.12300397
41	0x3c0e4132	0.008682536
42	0xbc23f267	-0.010006524
43	0xbe4da467	-0.20082246
44	0x3c8f51c4	0.017495044
45	0x3da9a6b3	0.082837485
46	0xbda4dfbb	-0.08050486
47	0xbe72c356	-0.23707327
48	0xbda80a69	-0.082051106
49	0x3c9ac05d	0.018890554
50	0x3d23e71d	0.04001533
51	0xbda13dcf	-0.07873117
52	0xbd23e8ca	-0.040016927
53	0xbd8faf5d	-0.0701587
54	0x3c5040ef	0.012710794
55	0xbc27f7b5	-0.010251929
56	0xbcd247f1	-0.02566907
57	0xbdc63072	-0.09677209
58	0xbe3905d2	-0.18068627
59	0x3d47473e	0.048651926
60	0xbdb28af6	-0.08717911
61	0xbdd7cdf3	-0.105373286
62	0x3dc96731	0.09834135
63	0xbdbd6028	-0.09246856
64	0xba92e5be	-0.0011207385
65	0xbdb17f30	-0.08666837
66	0xbd203a99	-0.039118383
67	0xba9c7204	-0.0011935835
68	0x3d492df0	0.049116075
69	0x3ee6d3e3	0.45083532
70	0x3f2443aa	0.6416575
71	0xbb9891d2	-0.004656055
72	0xbc7e2526	-0.015511787
73	0xbd95f04b	-0.07321223
74	0x3c45baed	0.012068492
75	0x3ccdfa77	0.025143845
76	0xba6ed642	-0.00091109064
77	0x3dcfa6e7	0.10139256
78	0x3da70f53	0.0815722
79	0x3e35077c	0.17678636
80	0xbddca8f3	-0.10774412
81	0x3e1e5b11	0.15464427
82	0xbdfa198c	-0.12211904
83	0x3d9d2fb0	0.07675111
84	0x3ad9bfeb	0.0016612982
85	0xbb751f0f	-0.0037402546
86	0xbd84fc09	-0.064933844
87	0xbe916ce6	-0.28403395
88	0xbe891559	-0.267741
89	0x3de18256	0.11011188
90	0x3d32705e	0.043564193
91	0xbdddd06c	-0.10830769
92	0xbdc6c297	-0.09705084
93	0xbe2e4621	-0.1701894
94	0x3e0f3467	0.13984834
95	0xbe8b1358	-0.27163196
96	0x3d469484	0.04848148
97	0x3ce13a21	0.027493538
98	0xbd814cb1	-0.06313456
99	0x3cd4d174	0.025978781
100	0xbcda911a	-0.026680518
101	0xbdaa40d8	-0.08313149
102	0x3dbd5868	0.09245378
103	0xbd600581	-0.05469275
104	0x3e20b9d8	0.15695894
105	0xbe6b93b7	-0.23005567
106	0x3e124a04	0.14286047
107	0xbd897791	-0.067122586
108	0x3c2a9c4f	0.010413243
109	0x3d22b693	0.039724898
110	0xbde76920	-0.11299348
111	0x3d84d807	0.064865164
112	0xbcecbc07	-0.028898252
113	0xbd9ac9c6	-0.075580165
114	0xbda64aaf	-0.081197135
115	0xbbc6b9e8	-0.006064642
116	0x3c535af7	0.012900106
117	0xbe1465e2	-0.1449199
118	0x3d93881a	0.07203694
119	0x3c992143	0.018692618
120	0xbe10e169	-0.14148487
121	0x3ddabbdc	0.106803626
122	0xbcdac34e	-0.026704457
123	0xba115a56	-0.0005544772
124	0xbe96c671	-0.29448274
125	0x3d2ec4e3	0.042668235
126	0x3b815b61	0.003947661
127	0xbd97aa4c	-0.074055284
128	0xbb72d000	-0.0037050247
129	0x3e31fc60	0.1738143
130	0x3da9df87	0.082945876
131	0xbdf08da2	-0.11745764
132	0xbe64123c	-0.22272581
133	0x3d202a6d	0.03910296
134	0x3e045602	0.12923434
135	0xbe0fba9c	-0.1403603
136	0xbd55af76	-0.052169286
137	0x3b9fcb44	0.004876526
138	0xbc09cecf	-0.008411123
139	0xbdbe2c8b	-0.0928584
140	0x3d5308fc	0.05152224
141	0x3c3e4040	0.011611998
142	0xbd3367fb	-0.043800335
143	0x3e11ebf4	0.14250165
144	0xba989f7c	-0.001164421
145	0x3b026b38	0.0019900333
146	0x3e3ecb7b	0.18632309
147	0xbdcd2e5a	-0.100186065
148	0xbd0418b9	-0.03225014
149	0xbd8ee315	-0.06976906
150	0xbd9b5e70	-0.07586372
151	0x3db809b4	0.08986226
152	0xbd28af4e	-0.04118281
153	0x3e0f2ee3	0.1398273
154	0x3d85359d	0.065043665
155	0x3dad1f67	0.08453255
156	0x3e56a95d	0.20963044
157	0xbd8ec3c9	-0.06970937
158	0xbdd556b9	-0.10416932
159	0xbb19e486	-0.0023482158
160	0x3e06baab	0.13157146
161	0x3cf6a126	0.030106138
162	0xbe1a3215	-0.15058167
163	0x3ca0bab5	0.019620279
164	0xbe4d9a0f	-0.200783
165	0x3cfc0c1a	0.03076749
166	0x3e24e1d8	0.16101778
167	0x3e51f74b	0.20504491
168	0x3caa6e5c	0.020804577
169	0xbdb86c97	-0.09005087
170	0xbcf0e8d7	-0.029407902
171	0xbd6f553d	-0.0584309
172	0xbdb35adb	-0.08757564
173	0xbd53a4bc	-0.051670775
174	0xbb925b70	-0.0044664666
175	0x3cea80a5	0.028625796
176	0xbb406999	-0.0029359816
177	0x3b96e0fe	0.004604458
178	0xbce653de	-0.028116163
179	0xbd5bb011	-0.053634707
180	0x3d23d61e	0.03999912
181	0x3ce4c894	0.027927674
182	0x3c6393e0	0.013890237
183	0x3bff8444	0.0077977497
184	0xbd6553ed	-0.05598824
185	0xbb970b9d	-0.0046095387
186	0xbbe930cc	-0.0071164127
187	0xbbba698d	-0.005688852
188	0x3cb88400	0.02252388
189	0xbb90e6cf	-0.004422046
190	0xbdd82cb0	-0.105553985
191	0x3d334fd2	0.043777294
192	0x3ea72a1d	0.32649317
193	0xbdc6c29a	-0.09705086
194	0x3d342234	0.04397793
195	0x3d3416aa	0.043966927
196	0xbc733092	-0.014843123
197	0x3d80093e	0.06251763
198	0x3d8fe211	0.070255406
199	0xbe58301b	-0.21112101
200	0xbdd08aa5	-0.10182694
201	0xbee65b2f	-0.44991443
202	0x3e1a7db2	0.15087011
203	0x3bba83dd	0.005691989
204	0xbe367afd	-0.17820354
205	0x3c2a7745	0.010404413
206	0x3d193015	0.03739937
207	0x3c36be57	0.011153779
208	0xbe3aacdf	-0.18230008
209	0xbe2f3370	-0.17109466
210	0xbe629883	-0.22128491
211	0x3d9c6ea0	0.076382875
212	0xbcba0264	-0.022706218
213	0x3d8bd6b8	0.06828064
214	0xbc927b94	-0.017881192
215	0xbd617a22	-0.055048116
216	0xbea8561f	-0.32878205
217	0xbdb5ee57	-0.0888335
218	0x3a9f9606	0.0012175448
219	0xbda6a80c	-0.08137521
220	0xbd3e1ac7	-0.046412256
221	0x3d1b93df	0.037982818
222	0xbcf65373	-0.030069089
223	0xbdb45de5	-0.088069715
224	0x3da67ac8	0.081288874
225	0x3d9c0d62	0.0761974
226	0xbe1840ac	-0.1486842
227	0xbcc2e051	-0.023788603
228	0x3d34ffd5	0.044189293
229	0x3c4805e5	0.012208437
230	0x3e238bfc	0.15971369
231	0x3cb2084a	0.021732468
232	0xbdeb9f00	-0.11504936
233	0x3d3cdf95	0.046111662
234	0xbe16123e	-0.14655396
235	0x3e0aa2d5	0.13538678
236	0x3dce6e3c	0.10079619
237	0xbc09fc66	-0.008421993
238	0xbcadee3d	-0.021231765
239	0xbe3b840c	-0.1831209
240	0x3daada2d	0.08342395
241	0xbd0eb420	-0.03483975
242	0xbc900030	-0.017578214
243	0xbd4a700d	-0.049423266
244	0x3d85a38a	0.06525333
245	0x3de9083f	0.11378526
246	0xbcb81ee5	-0.02247567
247	0xbcadda9f	-0.02122241
248	0xbca6024c	-0.020264767
249	0x3e0762e2	0.13221315
250	0x3dd26ae6	0.102742955
251	0xbd87e868	-0.06636125
252	0x3d836b7e	0.06416987
253	0xbe86b171	-0.26307252
254	0xbda25889	-0.07927043
255	0x3d993569	0.0748089

apply_B2.weight f4 [175, 1, 11, 11]
0	0xbcecd251	-0.02890888
1	0x3d623731	0.055228416
2	0x3dadf6c3	0.08494332
3	0xbe1f07cd	-0.1553032
4	0x3c0617a8	0.008184351
5	0xbc10aa6b	-0.008829693
6	0xbb67db57	-0.003537854
7	0x3c154ef3	0.009113061
8	0x3d889f86	0.06671052
9	0x3d53964c	0.051657006
10	0xbd77747a	-0.060413815
11	0xbd72d6a1	-0.059286717
12	0xb9ae3eef	-0.00033234755
13	0x3bbfaf87	0.005849782
14	0x3b0fc1a3	0.0021935485
15	0x3ca42f78	0.020042166
16	0xba384d46	-0.00070305576
17	0xbc478ba0	-0.012179285
18	0xbdab31d1	-0.08359111
19	0x3c842f6f	0.0161359
20	0x3c966603	0.01835919
21	0x3d01e7eb	0.031715315
22	0xbcb5da94	-0.022198953
23	0x3d36dcf2	0.044644304
24	0xbd69fad3	-0.05712397
25	0xbbffc04a	-0.007804905
26	0xbd209b2a	-0.039210476
27	0xbd369116	-0.04457196
28	0x3ae50b79	0.0017474733
29	0x3c817718	0.015803859
30	0xbc6e2215	-0.014534493
31	0xbcd1c62e	-0.025607195
32	0x3b6809a7	0.0035406144
33	0xbd420a23	-0.04737295
34	0x3dbaa9dc	0.09114429
35	0x3cc75167	0.024330808
36	0xbc502ec0	-0.012706459
37	0xbd08665a	-0.033300735
38	0x3baf2687	0.005345169
39	0x3c97b2e4	0.018517919
40	0xbcff0303	-0.031129366
41	0x3d83c6de	0.06434415
42	0xbba6cdb4	-0.0050904397
43	0xbcf0918d	-0.029366279
44	0xbbb28e06	-0.0054490594
45	0x3bf2041d	0.0073857442
46	0xbc428356	-0.011872133
47	0xbe2bf78c	-0.1679365
48	0xbced3048	-0.028953686
49	0xbd1e8bba	-0.038707472
50	0xbddec36d	-0.10877118
51	0x3ca6bb56	0.020353
52	0x3c1c0a69	0.009523966
53	0xbd340585	-0.043950576
54	0xbca13d75	-0.019682625
55	0xbd26a08a	-0.040680446
56	0xbbc72606	-0.006077531
57	0x3cacf758	0.021114036
58	0xbb27e2a1	-0.002561726
59	0x3cfd83bf	0.03094661
60	0xbc8580fb	-0.016296854
61	0xbd5310d1	-0.05152971
62	0x3c2c3324	0.01051024
63	0xbd92931b	-0.071569644
64	0xbd85cc1a	-0.0653307
65	0xbd020076	-0.03173872
66	0xbccc2543	-0.024920112
67	0xbd4263b7	-0.047458377
68	0x3dc1d45c	0.094643325
69	0x3eb6604e	0.3562035
70	0x3e8bbaff	0.27291104
71	0xbc87d51d	-0.016581113
72	0x3c44cd4d	0.012011838
73	0xbd92f6ac	-0.07175955
74	0x3dd8e5ce	0.10590707
75	0xbda88df9	-0.08230204
76	0xbd0640fc	-0.032776818
77	0x3d2975a7	0.041371968
78	0x3d971290	0.073765874
79	0x3e399bb1	0.18125798
80	0x3d6ae5c8	0.057348043
81	0x3dd07b81	0.101798065
82	0x3bcc38a7	0.0062323394
83	0xbd3da02a	-0.046295322
84	0xbbd048a3	-0.006356315
85	0xbc9cb8e8	-0.019131139
86	0x3d1c375a	0.038138725
87	0xbdb703fe	-0.08936308
88	0xbd1cbe39	-0.038267348
89	0x3d68063a	0.056646563
90	0x3d820a6d	0.06349645
91	0xbd1053b2	-0.035236068
92	0x3d22fc07	0.039791133
93	0x3d36f981	0.04467154
94	0xba1dabe0	-0.0006014686
95	0xbd8901ce	-0.06689797
96	0xbcbb155e	-0.022837337
97	0x3c261936	0.010137847
98	0xbcbe9f2b	-0.023269257
99	0xbac50361	-0.0015030914
100	0xbd06771c	-0.032828435
101	0xbc320dac	-0.010867517
102	0x3c31b005	0.010845189
103	0x3c87adda	0.016562391
104	0xbd9ab6a9	-0.07554371
105	0x3b407645	0.002936737
106	0x3d2927d6	0.041297756
107	0x3aafb15b	0.0013404296
108	0xbcadfa9b	-0.021237662
109	0xbd57567e	-0.05257272
110	0xbd720763	-0.059089076
111	0x3d1b8c12	0.03797538
112	0x3d84546b	0.06461414
113	0xbd58e8ee	-0.052956514
114	0xbcbf3704	-0.023341663
115	0x3ba6e94f	0.0050937305
116	0xbcacac3b	-0.02107822
117	0xbcac6e66	-0.021048736
118	0x3d9a1c44	0.075249225
119	0x3c048212	0.008087652
120	0xbb8757f3	-0.0041303574
121	0xbce50c45	-0.027959952
122	0x3c2add5f	0.010428756
123	0x3cf2f76c	0.029658996
124	0xbd78e1b7	-0.060762133
125	0xbc81004d	-0.015747214
126	0x3ba027a3	0.0048875376
127	0x3bec7cc2	0.0072170207
128	0xbae19344	-0.0017210026
129	0x3d27aaeb	0.040934484
130	0x3d43f19c	0.04783784
131	0xbd01e073	-0.031708192
132	0x3bd46239	0.0064814356
133	0x3ca45e09	0.02006437
134	0xbd1685de	-0.03674876
135	0xbc5c1634	-0.013433028
136	0x3cef4a64	0.029210277
137	0x3cf94ad0	0.030431181
138	0xbd82c463	-0.06385114
139	0xbbaf701e	-0.0053539416
140	0x3c566ae7	0.013087011
141	0x3c5ea0a1	0.013588102
142	0x3cc794d6	0.024362963
143	0x3df2aa8b	0.11848935
144	0x3cced3bd	0.025247449
145	0x3cbf5b33	0.023358917
146	0x3c538bfc	0.012911793
147	0xbda387f1	-0.07984913
148	0x3d381a97	0.044947233
149	0xbce4bccc	-0.027922057
150	0xbb76a7d9	-0.0037636666
151	0x3c215856	0.009847721
152	0xbdc8e0fb	-0.098085366
153	0xbc018250	-0.007904604
154	0xbd260d66	-0.04054012
155	0x3def60bf	0.11688375
156	0x3db66f6e	0.08907972
157	0x3d1f79a9	0.038934384
158	0xbdbf1b8f	-0.09331428
159	0x3cad5fbb	0.021163812
160	0x3cfb1ac1	0.030652406
161	0xbbfc3201	-0.0076963906
162	0x3cf0a91b	0.02937751
163	0xbd22c59e	-0.039739244
164	0xbd35b133	-0.044358443
165	0x3da14f22	0.078764215
166	0x3daf0528	0.08545905
167	0x3dd77596	0.105204746
168	0xbc5bf19a	-0.0134243015
169	0x3d783f59	0.060607288
170	0xbd87b5ee	-0.06626497
171	0xbc88f3fb	-0.016717901
172	0xbce451a1	-0.027870955
173	0xbcf23af2	-0.029569123
174	0xbc3324bc	-0.010934051
175	0xbd5f7d32	-0.054562755
176	0xbdc5086d	-0.09620748
177	0x3c55bf39	0.013046079
178	0x3d871fd5	0.06597868
179	0xbc064440	-0.008194983
180	0x3ccaf9da	0.024777342
181	0x3e549331	0.20759274
182	0xbd0ea20b	-0.034822505
183	0x3d3c0805	0.045906086
184	0xbd990017	-0.0747072
185	0xbcbbc63c	-0.022921674
186	0xbbf8a347	-0.0075878236
187	0x3cb0e39a	0.021592904
188	0xbdfb68df	-0.12275862
189	0xbbe9a542	-0.007130296
190	0x3d352374	0.044223264
191	0x3c2ef055	0.010677417
192	0x3e896653	0.2683588
193	0x3dc9366b	0.098248325
194	0xbd58de7e	-0.05294656
195	0x3dafe42b	0.085884415
196	0x3d2976f9	0.041373227
197	0x3d3b9c8f	0.045803603
198	0xbe024be8	-0.12724268
199	0xbe2e6c3b	-0.17033474
200	0xbdb9e53c	-0.09076926
201	0xbe1fe9d2	-0.15616539
202	0x3e03c9cc	0.12869948
203	0x3d5e1a43	0.054224264
204	0xbd669bef	-0.056301054
205	0xbd13b808	-0.036064178
206	0xbd1879df	-0.0372256
207	0x3bd7e15e	0.006588145
208	0xbd4ab40a	-0.049488105
209	0xbd992582	-0.07477857
210	0xbe03bf43	-0.1286593
211	0xbdac5675	-0.08414928
212	0x3d93931d	0.07205794
213	0x3cfe1db8	0.03102003
214	0x3cc0f4a7	0.02355416
215	0xbd8e0d20	-0.06936097
216	0xbdd58f83	-0.10427763
217	0xbcd33ef8	-0.025786862
218	0x3ca6edfb	0.02037715
219	0xbb3191b1	-0.0027094895
220	0xbdb0e88f	-0.08638107
221	0x3d974105	0.07385448
222	0x3d921983	0.07133772
223	0xbc3e8fff	-0.011631011
224	0xbd716d13	-0.058941912
225	0xbc004709	-0.007829436
226	0xbd40d520	-0.04707825
227	0x3d61d0fe	0.05513095
228	0x3d3f11d4	0.04664786
229	0x3c6d7414	0.014493007
230	0xbd0c7698	-0.034292787
231	0x3d9ba297	0.07599371
232	0x3d0bc6fe	0.03412532
233	0xbda09b51	-0.07842124
234	0x3b858b79	0.0040754643
235	0x3d2e228a	0.042513408
236	0x3d1f512e	0.03889578
237	0xbd80baaf	-0.06285607
238	0xbd6d6f4f	-0.05796748
239	0xbc69d5e2	-0.014272185
240	0xbbbdb63a	-0.0057895454
241	0x3d9ff91f	0.07811188
242	0xbd953cce	-0.07286988
243	0xbd8a7e9a	-0.067624286
244	0xbd43b7f9	-0.047782872
245	0xbcbe83e4	-0.02325625
246	0x3d3ea6e8	0.046545893
247	0x3afc2b78	0.0019239029
248	0x3b8a6cfd	0.004224418
249	0xbdbc692b	-0.09199747
250	0x3cc32e04	0.023825653
251	0x3b7c3518	0.0038483795
252	0xbcd16f1c	-0.025565676
253	0x3d6613ac	0.056171104
254	0xbd30ac44	-0.043133035
255	0x3db1d889	0.08683879

apply_C2.weight f4 [175, 1, 11, 11]
0	0xba5920f9	-0.00082828064
1	0x3c105f5c	0.008811798
2	0xbb9b209b	-0.0047341115
3	0xbb09b867	-0.0021014453
4	0x3c9cf1fe	0.01915836
5	0x3cf9c6dd	0.030490333
6	0x3b0eb8e8	0.0021777693
7	0x3c3c5279	0.011494272
8	0xbb5c84d1	-0.00336485
9	0xbafbc0e4	-0.0019207266
10	0x3b967d13	0.0045925467
11	0xbb24e72c	-0.0025162203
12	0xbc5c8ddb	-0.013461555
13	0x3b00cdfb	0.0019654024
14	0x38346327	4.3007687e-05
15	0x3b932f70	0.004491739
16	0x3b9e7f2e	0.0048369383
17	0x3b83918a	0.0040151523
18	0x3ba18dd5	0.004930238
19	0xbc2f816a	-0.010712007
20	0x3b9161ac	0.004436692
21	0x3b8f5d91	0.0043751677
22	0xbb354d2a	-0.0027664402
23	0xbb43a10d	-0.0029850632
24	0xbc286a2e	-0.010279221
25	0xbc4377ac	-0.0119303875
26	0x3c92da0c	0.017926238
27	0xb9460bdd	-0.00018887171
28	0x3c36792d	0.011137289
29	0xbbd36b06	-0.006451967
30	0xbc46c442	-0.012131752
31	0xbc288ca5	-0.0102874385
32	0xbbcbce20	-0.0062196404
33	0x3c917124	0.017754145
34	0xba9a3d06	-0.0011767454
35	0xbc855b3c	-0.016278856
36	0xbbc1e4c1	-0.005917162
37	0x3d66ebfd	0.0563774
38	0x3bedaed9	0.0072535095
39	0xb9f5cdf0	-0.00046883477
40	0x3a9f72ba	0.0012164928
41	0xbbc45202	-0.0059912214
42	0xbcb035d8	-0.02151005
43	0xbb6c452f	-0.0036051979
44	0x3c8c2cdf	0.01711124
45	0xbbc76d04	-0.0060859937
46	0xbc5ec482	-0.013596656
47	0x3d09dde1	0.033658866
48	0x3cde09c9	0.027104275
49	0x3cd7bea2	0.026336018
50	0x3d088aa3	0.03333534
51	0xbbc03fc6	-0.0058669774
52	0xbc35901b	-0.011081721
53	0xbc3f5d5e	-0.011679975
54	0xbb5fbe58	-0.0034140553
55	0x3cf3bfcc	0.029754542
56	0xbc1405af	-0.009034558
57	0x3b1b2720	0.0023674443
58	0x3d6e5b6d	0.05819266
59	0x3c8fecf9	0.017569052
60	0x3d2aee3c	0.041731104
61	0x3d1c8121	0.038209084
62	0x3d14181a	0.036155798
63	0x3a0e5e83	0.00054309535
64	0xbbb9681b	-0.0056581623
65	0x3b71f024	0.0036916817
66	0xbce4abdd	-0.027913982
67	0xbd352835	-0.044227798
68	0xbd595368	-0.053058058
69	0xbe2ef98f	-0.17087387
70	0xbe6307ff	-0.22171019
71	0xbc9faa58	-0.019490406
72	0x3cf1014e	0.029419567
73	0xbb8a299e	-0.004216387
74	0xbc303386	-0.010754472
75	0xbac0d04f	-0.0014710518
76	0xbbc64591	-0.0060507734
77	0xbb3fefb6	-0.0029287166
78	0xbc9a91d7	-0.01886837
79	0xbd23983e	-0.03994011
80	0xbcc987c8	-0.024600878
81	0xbd0ea7f1	-0.03482813
82	0xbb31ea9e	-0.00271479
83	0xbccd603b	-0.0250703
84	0xbb9de2d8	-0.0048183016
85	0xbc1ed49b	-0.009694244
86	0xbc898b14	-0.01678995
87	0xbc5316b2	-0.012883829
88	0xbc76a662	-0.015054317
89	0xbc644b5a	-0.013933981
90	0xbbce5b96	-0.006297539
91	0xbc8153fd	-0.015787119
92	0xbcccb58f	-0.024988918
93	0xbbc08880	-0.005875647
94	0x3942dabf	0.00018582771
95	0xbbb504cd	-0.005524254
96	0xbc5be414	-0.013421077
97	0xbc41106a	-0.011783699
98	0xbbb8ff56	-0.005645673
99	0xb933af2b	-0.00017136025
100	0x3c370a72	0.011171924
101	0x3b5d9a4e	0.0033813897
102	0xbc7ac8d4	-0.01530667
103	0x3c149fa1	0.009071262
104	0x3cbba1da	0.022904325
105	0xbbd0fc44	-0.0063777287
106	0xbb7d3ccb	-0.0038640972
107	0x3b8deb31	0.0043310155
108	0xbb736ee5	-0.0037144956
109	0x3a6741d7	0.00088217616
110	0x3c413e53	0.011794644
111	0x3ca9793e	0.020687696
112	0x3c2f6cd2	0.010707097
113	0xbc5a81ea	-0.013336638
114	0x3c2b1cda	0.0104438905
115	0x3cc60b19	0.024175214
116	0x3bef0ed1	0.0072954674
117	0x3c23ded0	0.010001853
118	0x3c458068	0.01205454
119	0xbb347137	-0.0027533302
120	0xbc18c99e	-0.009325413
121	0x3cb52819	0.022113847
122	0x3ce71ff7	0.028213484
123	0x39161b6a	0.00014315327
124	0x3b54ef9e	0.0032491456
125	0x3cd105ca	0.025515456
126	0x3c341417	0.010991118
127	0x3c10e61e	0.008843927
128	0xbc00444f	-0.007828786
129	0xbc533697	-0.012891433
130	0x3a4a9420	0.0007727761
131	0x3a10117f	0.0005495771
132	0x3cb9717c	0.022637121
133	0x3cf36474	0.029710986
134	0x3c9b9cfe	0.018995758
135	0xbb001a69	-0.0019546992
136	0x3d0c7573	0.034291696
137	0x3c47654a	0.012170145
138	0x3c8441d8	0.016144678
139	0x3bac88c0	0.0052653253
140	0xbbcfad24	-0.0063377786
141	0x3b727914	0.0036998438
142	0xbc419b91	-0.011816875
143	0x3d11aa3e	0.035562746
144	0x3b1df610	0.0024102964
145	0xbc1eacf9	-0.009684795
146	0x3ce4ffd7	0.027954025
147	0x3d652db5	0.055951793
148	0xbc6a7495	-0.014310022
149	0x3d18a9ab	0.037271183
150	0x3a5b6cae	0.00083703815
151	0xbba14d98	-0.00492258
152	0xbb46aed1	-0.00303166
153	0xbb7b4d5b	-0.0038345668
154	0x3c4429b3	0.0119728325
155	0x3c10945d	0.008824435
156	0xbad46398	-0.0016203998
157	0x3d334463	0.04376639
158	0x3d597d84	0.053098217
159	0x3c83a8d1	0.016071709
160	0x3d13d2c1	0.036089662
161	0xbcd9ca22	-0.026585642
162	0x3bdfc845	0.006829294
163	0x3cda84a3	0.026674574
164	0x3c98be33	0.018645382
165	0xbbb9ffe8	-0.0056762584
166	0x3c8ea994	0.017414846
167	0x3a035f4f	0.00050114555
168	0x3cdae85e	0.02672213
169	0x3c1159a0	0.008871466
170	0x3d91b3ec	0.071143955
171	0x3d39d249	0.04536656
172	0x3d1caf1f	0.038252946
173	0x3c37df96	0.011222741
174	0x3c842c13	0.016134297
175	0x3c6510c4	0.013981048
176	0x3c590dec	0.013247948
177	0x3d2c2860	0.042030692
178	0xbc643831	-0.013929413
179	0xbcafeda3	-0.021475619
180	0xbdfc9db3	-0.12334766
181	0xbee66a68	-0.45003057
182	0xbd9d603a	-0.076843694
183	0x3c833e36	0.016020875
184	0x3d1f0db2	0.03883142
185	0x3d1f7486	0.038929485
186	0x3ccd8def	0.025092093
187	0x3c971dd9	0.01844685
188	0x3d682c75	0.056683023
189	0x3dc9d2d4	0.098546654
190	0x3e123787	0.14278995
191	0xbd20b0e9	-0.039231215
192	0xbf285150	-0.65749073
193	0xbe115506	-0.1419259
194	0x3daff819	0.08592243
195	0x3d0bf0d2	0.03416521
196	0x3bb7f9d0	0.005614497
197	0xba76928e	-0.00094059936
198	0x3d060697	0.03272113
199	0x3d612e32	0.054975696
200	0x3d6bbd88	0.057553798
201	0x3d521a18	0.051294416
202	0x3d7cc9f8	0.06171605
203	0xbd81a9a4	-0.063311845
204	0x3d8d20c8	0.06891018
205	0x3cc32af8	0.0238242
206	0xbc875714	-0.016521014
207	0x3c8dab3f	0.01729357
208	0x3c80a39b	0.015703013
209	0x3c8b5100	0.017006397
210	0xb9cb030a	-0.00038721442
211	0xbc08a675	-0.008340468
212	0xbcb20dde	-0.021735128
213	0xbd4c02d7	-0.049807396
214	0xbd648917	-0.0557948
215	0x3cc7d7b4	0.024394847
216	0x3bbb2d8f	0.005712218
217	0x3bcae386	0.0061916737
218	0x3ca16a11	0.019703897
219	0x3be488b3	0.0069743036
220	0x3c642728	0.013925351
221	0xbc6084bc	-0.013703521
222	0xbc636c4c	-0.0138808
223	0xbc240e39	-0.010013157
224	0x3cc3a714	0.02388338
225	0xbd133c1f	-0.035946008
226	0x3b8bfbd2	0.0042719627
227	0xba060403	-0.0005112292
228	0xbb57d90a	-0.0032935762
229	0x3c36a44a	0.011147568
230	0x3c866e91	0.016410144
231	0x3b826e96	0.003980468
232	0xbccde612	-0.02513412
233	0xbcda0afa	-0.026616562
234	0x3c357ea2	0.011077555
235	0x3d26799a	0.040643312
236	0x3a2b2a3f	0.00065294275
237	0x3cce6692	0.025195394
238	0x3b477b1d	0.0030438371
239	0x3bda2f83	0.006658496
240	0xbb8da309	-0.004322414
241	0xbc5d17d7	-0.013494453
242	0xbbc8e722	-0.006131069
243	0xbc88cd50	-0.016699463
244	0xbc0d2300	-0.008614302
245	0x3c6aba54	0.014326651
246	0x3d154fc2	0.036453016
247	0xbc9e0bd9	-0.019292759
248	0xbcc549cf	-0.024083046
249	0xbca40a59	-0.020024465
250	0x3c0cdc77	0.008597485
251	0x3c446997	0.011988065
252	0xbc0a831a	-0.008454109
253	0xbc12dc39	-0.008963638
254	0x3c30d275	0.010792364
255	0x3c8ab88d	0.016933704
