trained_models/sigma_25.model (torch_old, 767051 bytes, 12 tensors)

apply_A1.weight f4 [175, 1, 11, 11]
-0.19272442 -0.004446919 0.032836962 -0.14702775 -0.021218723 -0.20671606 0.006841237 0.095268056
-0.108656764 0.065860875 0.07234363 -0.054113135 0.15868971 0.073028244 -0.023634413 0.07892416
0.07480446 0.1268107 0.049576327 0.04704345 -0.022682384 0.14560135 0.03751405 0.063643195
-0.12733555 -0.038527355 0.03243085 0.060714517 -0.18168871 -0.13963053 0.04942729 0.06537941
-0.077906884 0.255544 -0.18758267 -0.09038616 0.30871356 -0.22163661 -0.1306919 -0.111705534
0.0023365465 0.07112817 0.008126792 -0.057891663 -0.25459734 0.18560572 0.19606693 -0.25669742
0.038884725 -0.18435495 -0.14765514 0.09661855 0.20664868 -0.08345929 -0.0043291994 0.24581133
-0.14772987 0.026543533 0.12950441 0.052991297 -0.12259533 -0.079395 0.08871778 -0.31601793
-0.10937242 0.21162724 -0.06434291 -0.0982473 -0.23614909 0.050310507 -0.12454787 0.059311215
-0.0077758776 -0.17901902 -0.015174341 -0.19103156 -0.11932485 -0.26378545 0.16654678 -0.11627649
-0.049525563 0.038426533 0.1266829 -0.12730505 -0.08297709 0.32963344 -0.042557843 0.23054375
0.18154837 -0.029981779 -0.06354309 -0.0099681625 0.18849862 0.08671685 -0.108939216 -0.18271641
-0.10671606 -0.021054734 0.12739041 0.019117389 0.041179266 0.028807009 0.119666204 -0.05954924
-0.11433503 -0.10597881 0.1282599 -0.014909403 -0.20326757 -0.17927702 0.016680218 -0.10697536
0.15409179 0.01404468 -0.026904536 0.007879394 0.09763284 0.15143964 -0.017924273 0.0006698489
0.113195024 -0.045796312 -0.0016842458 0.014757941 0.088772036 0.018107545 0.04325827 0.011082093
0.046746407 -0.1190781 -0.047993384 0.030798117 0.11701815 -4.2584732e-05 0.045252655 -0.12313426
-0.070098296 0.037089266 0.0046845367 6.214321e-05 0.031851046 -0.20885362 -0.0077847093 -0.17719111
0.04328942 0.21569668 0.11534955 -0.10864208 -0.0798375 -0.011330285 0.026224729 0.07304577
-0.012519174 0.015257302 -0.052909315 -0.050550908 -0.032461755 0.068619 0.059364267 -0.0067908713
0.016159257 0.1552966 0.10864946 0.21484028 0.050096978 -0.04375003 0.014629638 -0.08068134
0.05153024 -0.036578204 -0.0029005164 0.035224557 -0.0034905241 -0.008212378 -0.15245354 -0.08723796
0.11641079 0.094358794 0.173682 -0.025828414 -0.014483931 -0.091007814 -0.04887416 -0.011247584
-0.026230026 0.10439832 0.016491367 0.016594984 -0.1310239 -0.109366864 0.079518095 0.0039296304
0.08591061 0.003962915 0.009158903 0.122141615 -0.054689884 0.021304335 0.014519998 0.0482552
-0.19919083 0.089382656 -0.06004811 0.06277959 -0.04812223 -0.042137396 -0.28261104 -0.006351141
0.026647842 -0.090063594 0.030833445 0.018540865 -0.010742659 0.18357253 -0.04255359 -0.018829819
0.17082886 0.083115995 0.06712969 -0.13811658 -0.010784846 -0.00070311496 0.03650645 -0.012478223
-0.06862305 -0.04911073 -0.003908954 -0.033294592 -0.005817363 0.07014393 0.010315164 0.100773185
-0.013833021 -0.010827719 0.066075616 0.010340066 0.013108519 0.0007353414 0.040671024 0.018255716
-0.03192835 -0.0055619883 -0.07665808 -0.041958336 -0.01776374 -0.30021623 0.048535787 -0.17890492
0.010121965 -0.04395997 -0.40767547 -0.21007042 -0.27625766 0.19732982 -0.09630422 -0.09272158
00000000: 8d59 45be 76b7 91bb 0d80 063d 718e 16be
00000010: e3d2 adbc 60ad 53be 752c e03b e61b c33d
00000020: 7087 debd 11e2 863d e628 943d bca5 5dbd
00000030: 8e7f 223e d58f 953d f59c c1bc fda2 a13d
00000040: 1533 993d aada 013e 8c10 4b3d a2b0 403d
00000050: 68d0 b9bc 8518 153e 55a8 193d 5d57 823d
00000060: 4064 02be dcce 1dbd 36d6 043d c9af 783d
00000070: 9b0c 3abe 4efb 0ebe 4574 4a3d a4e5 853d
00000080: a58d 9fbd aad6 823e ac15 40be 611c b9bd
00000090: b40f 9e3e b5f4 62be 19d4 05be dfc5 e4bd
000000a0: bf20 193b a5ab 913d 3c26 053c cf1f 6dbd
000000b0: 955a 82be 6d0f 3e3e c5c5 483e d86d 83be
000000c0: 9745 1f3d 8bc7 3cbe e932 17be f2df c53d
000000d0: b69b 533e b4ec aabd f5db 8dbb f7b5 7b3e
000000e0: 8046 17be d371 d93c ce9c 043e 670d 593d
000000f0: 4313 fbbd d999 a2bd abb1 b53d 1acd a1be
00000100: a6fe dfbd d0b4 583e 37c6 83bd e135 c9bd
00000110: 11d1 71be 6412 4e3d f412 ffbd 51f0 723d
00000120: cacc febb c350 37be cd9d 78bc c79d 43be
00000130: 9660 f4bd e30e 87be 3d8b 2a3e 5e22 eebd
00000140: 51db 4abd 2465 1d3d 2ab9 013e 415c 02be
00000150: e4ef a9bd b7c5 a83e 2251 2ebd a913 6c3e
00000160: d1e7 393e 599c f5bc e122 82bd 8151 23bc
00000170: c805 413e 9b98 b13d 861b dfbd 031a 3bbe
00000180: f38d dabd fa7a acbc a272 023e 129c 9c3c
00000190: 97ab 283d adfc eb3c 8e13 f53d e7e9 73bd
000001a0: 7c28 eabd 6b0b d9bd 9056 033e 9246 74bc
000001b0: 6025 50be 6594 37be f4a4 883c e615 dbbd
000001c0: 3dca 1d3e a81b 663c e766 dcbc 9318 013c
000001d0: baf3 c73d fe12 1b3e edd5 92bc cc98 2f3a
000001e0: cbd2 e73d ea94 3bbd e9c1 dcba 4acb 713c
000001f0: 1dce b53d 4656 943c 952f 313d ab91 353c
00000200: 2979 3f3d 38df f3bd b694 44bd 554c fc3c
00000210: 36a7 ef3d 029d 32b8 d95a 393d d12d fcbd
00000220: b28f 8fbd eaea 173d be80 993b e252 8238
00000230: 3e76 023d b9dd 55be e016 ffbb 9671 35be
00000240: 3f50 313d 97df 5c3e 633c ec3d bd7f debd
00000250: d881 a3bd a9a2 39bc 3ed5 d63c 0599 953d
00000260: 391d 4dbc c3f9 793c 70b7 58bd 780e 4fbd
00000270: 9ef6 04bd 1e88 8c3d f227 733d f585 debb
00000280: 6b60 843c 1206 1f3e 9c83 de3d 17ff 5b3e
00000290: 7d32 4d3d 3b33 33bd 26b1 6f3c 423c a5bd
000002a0: 5f11 533d 07d3 15bd 9716 3ebb a047 103d
000002b0: 47c1 64bb 368d 06bc c81c 1cbe d1a9 b2bd
000002c0: c868 ee3d 2f3f c13d b2d9 313e 1c96 d3bc
000002d0: 024e 6dbc 4e62 babd 4530 48bd c947 38bc
000002e0: 5ae0 d6bc c9ce d53d e718 873c 34f2 873c
000002f0: 212b 06be bcfb dfbd 62da a23d 21c4 803b
00000300: e7f1 af3d 57db 813b 390f 163c 6225 fa3d
00000310: 8002 60bd 6e86 ae3c 49e5 6d3c 3fa7 453d
00000320: aef8 4bbe 410e b73d 02f5 75bd 9692 803d
00000330: d11b 45bd 4398 2cbd 65b2 90be 3b1d d0bb
00000340: 934c da3c 4373 b8bd 6c96 fc3c 03e3 973c
00000350: fa01 30bc 70fa 3b3e ac4c 2ebd fe40 9abc
00000360: c3ed 2e3e b838 aa3d 4a7b 893d 6f6e 0dbe
00000370: ecb2 30bc 3f51 38ba ca87 153d 7671 4cbc
00000380: 3e8a 8cbd 5528 49bd af16 80bb e95f 08bd
00000390: 949f bebb 9fa7 8f3d ef00 293c 2c62 ce3d
000003a0: e5a3 62bc bf66 31bc a752 873d 6169 293c
000003b0: 1dc5 563c edc3 403a a996 263d 038d 953c
000003c0: 4dc7 02bd 5741 b6bb e9fe 9cbd 81dc 2bbd
000003d0: 4385 91bc f1b5 99be 76cd 463d da32 37be
000003e0: 99d6 253c 5f0f 34bd d7ba d0be b31c 57be
000003f0: a571 8dbe d410 4a3e 263b c5bd d0e4 bdbd

apply_B1.weight f4 [175, 1, 11, 11]
0.06078153 -0.090485536 0.008480068 0.0051737665 -0.01737295 -0.014654927 -0.0026955493 0.0047370503
0.06280687 -0.07733043 -0.0070668464 0.04229201 0.016872201 -0.007055232 -0.016583167 0.029605586
-0.032516688 0.047451016 -0.010532632 0.033103902 -0.0046864618 0.007493263 -0.029919192 0.020219062
0.03154636 0.0019967584 -0.017354002 0.021446109 -0.043151055 0.032552373 -0.09133936 -0.02647024
-0.007417822 -0.03328672 0.049096454 -0.05853206 0.012301864 0.06442777 -0.015492541 -0.043783486
0.08426214 0.002646863 0.059357483 -0.0071200957 0.03580451 -0.00019328007 -0.04800287 0.06597616
-0.014385441 0.0697364 -0.038722143 -0.034342013 0.020641243 0.027655853 0.048847347 -0.009342959
0.0017040116 -0.006512073 0.04267639 -0.002237112 -0.085646406 -0.2028258 -0.033081632 0.02745395
-0.05622065 -0.018194532 0.0064030467 0.016765816 0.01811014 -0.013350686 0.021367224 0.010164231
-0.031467684 0.06722668 0.023732685 0.01158218 0.03339478 0.055379592 -0.07664693 -0.0151215745
0.10426903 -0.010851939 0.03038174 0.0017876719 0.0077279177 -0.008745233 0.028974576 0.0220892
0.06958793 -0.09414019 0.014002328 -0.016277118 0.050049014 0.0025640996 -0.025249073 -0.044018675
0.01806676 -0.12269116 0.0021048228 0.023451954 0.0018564316 0.06997065 0.030603055 0.012352392
0.034464538 -0.022738095 0.015472505 0.0085931225 -0.0055770734 0.019765833 -0.063834645 0.07691162
-0.036466982 0.010195423 0.0058343713 -0.012294557 -0.005215977 0.0290656 -0.020427354 0.03347012
0.013214984 0.01800317 0.07056286 -0.0065963073 0.00027659474 0.019228274 0.022590233 0.0021696123
0.017968997 0.05929498 -0.0815289 0.0061404645 0.008672323 0.03526694 0.010720301 -0.013436438
0.018945962 -0.01716637 -0.008229696 0.032592803 0.016501842 -0.056983344 0.032199763 -0.0016297908
-0.025163056 0.056477666 0.040739994 0.016931586 0.0066926675 -0.027469572 0.003384865 0.028242692
-0.020935033 -0.05037526 -0.026058 -0.113217406 -0.09419966 -0.1087046 -0.10335171 0.0655393
0.050172508 0.04170817 0.039670274 -0.04393201 -0.014521537 0.08350858 0.12043832 0.12947239
0.02720788 -0.043718815 -0.12579902 -0.14496697 -0.08648649 -0.0010499279 0.10110654 0.07008459
-0.06805717 -0.063411295 -0.042554647 -0.010303369 0.085622415 0.12917931 0.13070531 0.0313419
-0.0916636 -0.15195675 -0.16655882 -0.013777499 0.051433887 0.02066325 -0.03169416 -0.06860527
-0.07815642 -0.066566214 0.027007781 0.09939066 0.11229322 0.119718514 -0.001573483 -0.017556207
0.003703128 0.0059097814 -0.03601136 0.052915514 -0.020400707 -0.028220966 -0.051632527 -0.041743167
0.018710664 -0.0024054025 -0.014667839 -0.012104757 -0.005817603 -0.035426248 -0.006139472 0.03272046
0.030292723 0.046653863 0.035497393 -0.046943452 -0.0051153065 0.0012620236 0.0006689328 0.024332477
-0.017110698 0.0087365545 0.00019791297 0.0059378874 0.013410664 0.036464 0.035951134 0.008067861
0.03187129 -0.0029946414 0.009971759 0.01298932 0.0037642526 0.036640428 0.014266133 0.0048047705
-0.011263458 -0.057222385 0.08702941 0.014283018 0.04219997 -0.08883362 -0.100748606 -0.086501114
-0.11257219 -0.23885651 -0.17977701 -0.2348155 -0.055756852 0.056673355 -0.07267304 0.006304589
00000000: 0ef6 783d 7b50 b9bd fcef 0a3c b388 a93b
00000010: b851 8ebc 381b 70bc d0a7 30bb 4239 9b3b
00000020: e3a0 803d 6b5f 9ebd 0191 e7bb 633a 2d3d
00000030: 9237 8a3c 932f e7bb 6cd9 87bc 6a87 f23c
00000040: 3830 05bd ff5b 423d 0f91 2cbc f597 073d
00000050: e490 99bb 0c8a f53b 1819 f5bc 72a2 a53c
00000060: c236 013d 0cdc 023b fb29 8ebc c0af af3c
00000070: 29bf 30bd a355 053d 2110 bbbd 1ed8 d8bc
00000080: 3311 f3bb a857 08bd 5d19 493d 50bf 6fbd
00000090: c28d 493c b5f2 833d 6dd4 7dbc 5056 33bd
000000a0: a191 ac3d fe76 2d3b d520 733d b14f e9bb
000000b0: c0a7 123d 39ab 4ab9 a89e 44bd 821e 873d
000000c0: eab0 6bbc f5d1 8e3d 1c9b 1ebd 36aa 0cbd
000000d0: d317 a93c 878e e23c 2814 483d 3613 19bc
000000e0: 2459 df3a 3a63 d5bb 70cd 2e3d 839c 12bb
000000f0: 6267 afbd 91b1 4fbe 9b80 07bd 1be7 e03c
00000100: a047 66bd b30c 95bc a6d0 d13b 7758 893c
00000110: b75b 943c d6bc 5abc 510a af3c e087 263c
00000120: 42e4 00bd 24ae 893d 0c6b c23c 2fc3 3d3c
00000130: f7c8 083d b6d5 623d 11f9 9cbd 7bc0 77bc
00000140: 008b d53d 55cc 31bc 20e3 f83c 5150 ea3a
00000150: 793a fd3b 2a48 0fbc 175c ed3c 69f4 b43c
00000160: 1e84 8e3d 92cc c0bd 056a 653c 9757 85bc
00000170: 3200 4d3d 740a 283b 25d7 cebc ed4c 34bd
00000180: be00 943c 8145 fbbd 11f1 093b 501e c03c
00000190: 8253 f33a c64c 8f3d 42b3 fa3c b061 4a3c
000001a0: b02a 0d3d 3e45 babc 6480 7d3c 2bca 0c3c
000001b0: e2bf b6bb f5eb a13c bdbb 82bd d783 9d3d
000001c0: 675e 15bd b40a 273c 412e bf3b 1c6f 49bc
000001d0: c9ea aabb fb1a ee3c 4457 a7bc f717 093d
000001e0: a983 583c 627b 933c 4383 903d d625 d8bb
000001f0: eb03 9139 9d84 9d3c 270f b93c 0e30 0e3b
00000200: b833 933c 4bdf 723d a0f8 a6bd f335 c93b
00000210: 5c16 0e3c 1174 103d 34a4 2f3c 8124 5cbc
00000220: 9034 9b3c 7da0 8cbc d9d5 06bc 0880 053d
00000230: df2e 873c 5e67 69bd e6e3 033d b49e d5ba
00000240: c122 cebc 2055 673d fbde 263d 1cb4 8a3c
00000250: 2a4e db3b de07 e1bc 9cd4 5d3b 385d e73c
00000260: f27f abbc 4a56 4ebd 9677 d5bc 87de e7bd
00000270: c0eb c0bd 84a0 debd 10aa d3bd 7839 863d
00000280: b081 4d3d 30d6 2a3d 4c7d 223d 0df2 33bd
00000290: beeb 6dbc 8c06 ab3d 5ea8 f63d 6994 043e
000002a0: 0fe3 de3c 8012 33bd 75d1 00be 3972 14be
000002b0: d41f b1bd bc9d 89ba f210 cf3d 8288 8f3d
000002c0: 8f61 8bbd c8dd 81bd c84d 2ebd 76cf 28bc
000002d0: ce5a af3d 9547 043e 9dd7 053e 5d60 003d
000002e0: 20ba bbbd 8d9a 1bbe 658e 2abe 05bb 61bc
000002f0: 57ac 523d fa45 a93c bcd1 01bd eb80 8cbd
00000300: 7910 a0bd de53 88bd 6c3f dd3c 558d cb3d
00000310: fdf9 e53d fb2e f53d 543d ceba 09d2 8fbc
00000320: 2eb0 723b d7a6 c13b a680 13bd f0bd 583d
00000330: 621f a7bc a82f e7bc a17c 53bd e2fa 2abd
00000340: 1b47 993c f5a3 1dbb 6051 70bc 0853 46bc
00000350: 97a1 bebb 1d1b 11bd a02d c9bb e405 063d
00000360: 7228 f83c 1f18 3f3d b765 113d c747 40bd
00000370: 4d9e a7bb 7c6a a53a 525b 2f3a e754 c73c
00000380: bc2b 8cbc c423 0f3c dc86 4f39 9c92 c23b
00000390: 67b8 5b3c 465b 153d 7f41 133d 102f 043c
000003a0: 788b 023d bf41 44bb 9760 233c 28d1 543c
000003b0: aeb1 763b 4614 163d 80bc 693c 5671 9d3b
000003c0: 5e8a 38bc 0562 6abd 7a3c b23d 5203 6a3c
000003d0: e0d9 2c3d 67ee b5bd 4955 cebd 7f27 b1bd
000003e0: 408c e6bd cd96 74be 7717 38be 7973 70be
000003f0: 4c61 64bd 5222 683d 9ad5 94bd ba96 ce3b

apply_C1.weight f4 [175, 1, 11, 11]
-0.03211663 -0.021884123 -0.01818168 -0.015136248 -0.004388449 -0.026604934 0.017333614 -0.01630287
-0.012273352 0.0023060287 0.005731784 -0.03108332 -0.011768159 -0.017766846 -0.038974237 0.0015517141
-0.019552745 -0.0020178542 -0.0022041516 -0.0043862364 0.013227612 0.016391352 -0.02172253 -0.020121418
-0.024485944 -0.026011335 -0.008419697 0.013109441 0.029117215 -0.019246459 0.007032732 -0.015564493
-0.0049938485 -0.02715131 -0.025211075 -0.03564309 -0.00081829185 -0.046734843 -0.0039712284 0.04522537
-0.04526325 -0.012249522 -0.024484329 -0.03042022 -0.034301076 0.006719402 -0.007530505 -0.025772996
0.02777599 0.002756271 0.17916815 0.031260785 -0.022487432 -0.02344997 -0.004141137 -0.0034218149
-0.019449422 0.00227788 0.08437732 0.059248377 0.18881476 0.8294264 0.31431133 -0.034402467
0.022113629 0.050296392 -0.0046232706 -0.04876336 -0.028467504 -0.017874809 0.0072219567 0.06386819
0.12931252 -0.03975942 0.023406766 -0.04078474 -0.0025705516 -0.051491745 -0.009779454 -0.03055838
-0.024773682 0.0119033605 -0.031310268 -0.05203964 -0.040092707 0.0012566423 -0.005519251 -0.010093356
-0.011292895 -0.016544977 -0.046384208 -0.029971743 -0.025872935 -0.048344802 0.0024088162 0.0031396553
-0.03484721 -0.024253404 -0.0036621045 -0.0055720876 -0.019944765 -0.01376469 -0.02792506 -0.025337432
-0.019011825 -0.014438328 -0.008600788 -0.007181877 -0.024266403 -0.0072356067 -0.010502404 -0.011281898
-0.008171209 -0.023429833 0.010747777 -0.031261954 0.008171704 -0.0012941235 -0.01739882 -0.015283577
-0.0029945944 0.006232607 0.002245436 0.0037631127 -0.006689107 0.0061355676 0.022534864 0.018971121
0.00036191515 -0.008614049 -0.018447665 -0.0071592676 0.0211496 0.0071618985 0.018504946 -0.005150102
-0.011422958 -0.0012302436 0.0037701034 0.030985378 0.016850494 -0.012013629 -0.0022124161 -0.024554424
0.008205165 0.04542049 0.046261065 0.007914438 0.0048130997 -0.021210982 -0.006581825 -0.005181678
0.0040620724 0.02145232 0.0023547146 -0.042753246 -0.05374637 -0.038894523 -0.03815918 0.062167257
0.070397615 0.029657586 0.020566555 -0.0041438625 0.00064152054 0.092151895 0.081776224 0.077103496
0.052975573 -0.04653159 -0.1258625 -0.1605851 -0.027916625 0.020677948 0.08191689 0.06632058
-0.0402808 -0.044501808 -0.044385664 -0.0047038854 0.08098881 0.110072464 0.17212148 0.038493853
-0.082345925 -0.103413805 -0.11990199 0.025952553 0.022889761 0.020026352 0.012268181 -0.055314306
-0.04834699 -0.08160252 -0.033551805 0.08964473 0.075586945 0.088117376 -0.0020007025 -0.004972381
-0.013127625 0.00669137 0.0028538094 -0.0014154474 -0.013210196 0.00610589 -0.059559267 -0.02676406
-0.012352707 0.0059283585 0.01145938 0.016512545 -0.015911996 -0.019185238 -0.013813079 0.018903496
0.026858754 0.027311103 0.041560184 -0.01450724 -0.0031296415 0.006864413 -0.0026173282 0.009942701
-0.0033867299 -0.013413042 -0.0064311605 -0.006261799 -0.0031814352 0.0043803435 0.021213213 0.004738026
0.0005602558 0.0044952603 -0.0008752319 0.0040706396 0.009635921 0.009711858 0.005568545 0.0045948066
0.0019103512 -0.0066750287 0.0011986617 -0.014023999 -0.01574295 -0.018937021 -0.02035415 -0.037877303
-0.1221197 -0.107288726 -0.08400758 -0.07157628 -0.032141913 -0.0053477767 -0.024296774 -0.034513183
00000000: ba8c 03bd 5546 b3bc bff1 94bc 07fe 77bc
00000010: facc 8fbb 97f2 d9bc 39ff 8d3c 998d 85bc
00000020: 2b16 49bc be20 173b b0d1 bb3b 72a2 febc
00000030: 3dcf 40bc c78b 91bc 73a3 1fbd e362 cb3a
00000040: 142d a0bc fa3d 04bb 8773 10bb 6bba 8fbb
00000050: a0b8 583c 2847 863c 72f3 b1bc acd5 a4bc
00000060: bf96 c8bc b915 d5bc c5f2 09bc fbc8 563c
00000070: 3a87 ee3c c0aa 9dbc d572 e63b 3702 7fbc
00000080: 70a3 a3bb 6d6c debc 7587 cebc 7dfe 11bd
00000090: a382 56ba 096d 3fbd 1421 82bb 3d3e 393d
000000a0: f565 39bd 38b2 48bc 5c93 c8bc d333 f9bc
000000b0: 497f 0cbd 6e2e dc3b 74c2 f6bb e421 d3bc
000000c0: 798a e33c 8ea2 343b db77 373e 4f0b 003d
000000d0: 9037 b8bc 271a c0bc 60b2 87bb 8740 60bb
000000e0: 6554 9fbc 7c48 153b 04ce ac3d 6dae 723d
000000f0: a858 413e 4a55 543f 6aed a03e 9ae9 0cbd
00000100: a427 b53c 9703 4e3d ce7e 97bb 17bc 47bd
00000110: af34 e9bc 316e 92bc 2aa6 ec3b 53cd 823d
00000120: 806a 043e c6da 22bd 8cbf bf3c e60d 27bd
00000130: b376 28bb 02e9 52bd 013a 20bc 9155 fabc
00000140: 2df2 cabc 5006 433c 323f 00bd 8427 55bd
00000150: 4038 24bd ebb5 a43a d5da b4bb 9a5e 25bc
00000160: d605 39bc 5589 87bc 5efd 3dbd 4d87 f5bc
00000170: 7af3 d3bc 3305 46bd 3bdd 1d3b adc2 4d3b
00000180: f3bb 0ebd 13af c6bc ebff 6fbb 0f96 b6bb
00000190: 3463 a3bc 4b85 61bc 18c3 e4bc 7290 cfbc
000001a0: b0be 9bbc bd8e 6cbc 52ea 0cbc f355 ebbb
000001b0: 56ca c6bc ab18 edbb 4612 2cbc b6d7 38bc
000001c0: 89e0 05bc ecef bfbc 7217 303c 890c 00bd
000001d0: 9ce2 053c 949f a9ba f887 8ebc f867 7abc
000001e0: f540 44bb e63a cc3b 2a28 133b 8e9e 763b
000001f0: 4c30 dbbb df0c c93b 099b b83c 5369 9b3c
00000200: 6ebf bd39 f121 0dbc 8f1f 97bc 4a98 eabb
00000210: ed41 ad3c 5cae ea3b af97 973c 30c2 a8bb
00000220: 5c27 3bbc 2040 a1ba d713 773b 0cd5 fd3c
00000230: 0c0a 8a3c d0d4 44bc 2ffe 10bb 5c26 c9bc
00000240: f56e 063c d60a 3a3d 3e7c 3d3d 8fab 013c
00000250: 35b7 9d3b a7c2 adbc 5aac d7bb 11cb a9bb
00000260: 221b 853b c7bc af3c 8e51 1a3b 071e 2fbd
00000270: 2725 5cbd dd4f 1fbd cd4c 1cbd 18a3 7e3d
00000280: a02c 903d 77f4 f23c 317b a83c 3dc9 87bb
00000290: b72b 283a 22ba bc3d 4b7a a73d 70e8 9d3d
000002a0: eafc 583d e997 3ebd 19e2 00be 6c70 24be
000002b0: 68b1 e4bc cd64 a93c 0bc4 a73d 16d3 873d
000002c0: 7bfd 24bd 8747 36bd becd 35bd 0d23 9abb
000002d0: 76dd a53d ac6d e13d 9d40 303e bbab 1d3d
000002e0: fba4 a8bd 9eca d3bd 2d8f f5bd 739a d43c
000002f0: 4f83 bb3c 4e0e a43c 7b00 493c 4191 62bd
00000300: 7e07 46bd 391f a7bd 9e6d 09bd a897 b73d
00000310: 54cd 9a3d e276 b43d 381e 03bb 5bef a2bb
00000320: 4015 57bc 4843 db3b fa06 3b3b 8986 b9ba
00000330: 946f 58bc eb13 c83b 6bf4 73bd 4d40 dbbc
00000340: 0263 4abc ad42 c23b 20c0 3b3c 5145 873c
00000350: e059 82bc 5c2a 9dbc 4150 62bc 81db 9a3c
00000360: e406 dc3c 89bb df3c 033b 2a3d c6af 6dbc
00000370: ac1a 4dbb dfee e03b 7b87 2bbb b6e6 223c
00000380: e6f3 5dbb 60c2 5bbc 7cbc d2bb c72f cdbb
00000390: a07f 50bb fc88 8f3b 55c7 ad3c 7141 9b3b
000003a0: 21de 123a fa4c 933b d26f 65ba 0063 853b
000003b0: fbdf 1d3c 7c1e 1f3c 5778 b63b 0890 963b
000003c0: c064 fa3a 33ba dabb 6a1c 9d3a eac4 65bc
000003d0: 5cf7 80bc d021 9bbc bfbd a6bc 3b25 1bbd
000003e0: e519 fabd 31ba dbbd 2b0c acbd 9696 92bd
000003f0: 3da7 03bd 673c afbb 070a c7bc b25d 0dbd

soft_threshold1.threshold f4 [1, 175, 1, 1]
0.34446928 0.16938002 0.14200261 0.16038299 0.1601179 -0.0013075006 0.15160856 0.2023257
0.20605865 0.19715957 0.11060278 0.20078659 0.14575243 0.158252 0.12375502 0.24155244
0.042790733 0.118069 0.12758577 0.13879061 0.00084971485 0.17470287 0.26204744 0.23181094
0.18736023 0.126181 0.15028152 0.20749937 0.13777468 0.21764472 0.26557416 0.1608791
0.22786161 0.23658697 0.1821993 0.13230823 0.20235926 0.16616516 0.1643601 0.15636678
0.16333784 0.14925975 0.0005594854 0.17698435 0.22723515 0.15505844 0.16414492 0.15309341
0.16873698 0.14822225 0.12892279 0.12899463 0.13036963 0.10061277 0.10065522 0.00029877812
0.24411826 0.18840535 0.16424009 0.017700657 0.1943903 -0.08917815 0.116865985 0.14453965
0.16865852 0.16924483 0.010189563 0.15456982 0.2054562 0.24641523 0.15426053 0.1895804
0.1854529 0.0015076792 0.16214672 0.15316235 0.14248289 0.10679268 0.24225113 0.09310013
0.18754606 0.05998183 0.17376408 0.19909377 0.0072315815 0.27510855 0.085625455 0.13982683
0.106186315 0.17046389 0.16310984 0.18729922 0.1579618 -0.0048371763 0.17540108 0.21195605
0.24591012 0.14750762 0.31069034 0.12865776 0.23672527 0.14772262 0.187895 0.18728836
0.18956114 0.10566373 0.20676285 0.16290107 0.2020765 0.17078234 0.114218496 0.15816608
0.21186638 0.0017620752 0.16559897 0.068856955 0.0151116885 0.21150361 0.002135846 0.263665
0.13057996 0.13026962 0.22975364 0.009167929 0.18446349 0.0022420478 0.1734155 0.17103343
0.003969744 0.00807991 0.15580691 0.18319784 0.17288591 0.13259955 0.2186554 0.017778212
0.18455726 0.15021732 0.17466174 0.16478428 0.00031826884 0.12982132 0.0068292 0.15355003
0.1575321 0.14432031 0.059437178 0.0077437507 0.13373068 0.23249668 0.14987956 0.16698512
0.19727662 0.13476391 0.18787006 0.15493211 0.19861934 0.10934963 0.17246436 0.15553601
0.13133354 0.19188663 0.16278353 0.23851246 0.14200854 0.21721287 0.0078058755 0.02624258
0.0036960877 0.16070719 0.23474644 0.111132346 0.14746682 0.11975921 0.19695722
00000000: 475e b03e f571 2d3e 2269 113e 703b 243e
00000010: f2f5 233e 7160 abba 463f 1b3e 782e 4f3e
00000020: 0a01 533e 33e4 493e b683 e23d 009b 4d3e
00000030: 2040 153e d00c 223e 4673 fd3d 8659 773e
00000040: 5645 2f3d 29ce f13d d8a5 023e 201f 0e3e
00000050: 66bf 5e3a 4fe5 323e 152b 863e d95f 6d3e
00000060: 5cdb 3f3e 9835 013e 66e3 193e b77a 543e
00000070: ce14 0d3e 42de 5e3e 56f9 873e 7ebd 243e
00000080: 8e54 693e db43 723e 7492 3a3e cf7b 073e
00000090: 4437 4f3e 3327 2a3e 044e 283e 9d1e 203e
000000a0: 0942 273e 8cd7 183e 6eaa 123a 633b 353e
000000b0: 55b0 683e a4c7 1e3e 9b15 283e 85c4 1c3e
000000c0: 63c9 2c3e 93c7 173e 5604 043e 2b17 043e
000000d0: 9e7f 053e 110e ce3d 5324 ce3d 52a5 9c39
000000e0: 23fa 793e 55ed 403e 8e2e 283e f800 913c
000000f0: 400e 473e 09a3 b6bd 6f57 ef3d 3402 143e
00000100: d2b4 2c3e 844e 2d3e 20f2 263c 8d47 1e3e
00000110: 1c63 523e 4654 7c3e 79f6 1d3e 5d21 423e
00000120: 5de7 3d3e 529d c53a ca09 263e 97d6 1c3e
00000130: 09e7 113e 1fb6 da3d ae10 783e 48ab be3d
00000140: 130c 403e 82af 753d 36ef 313e 3ddf 4b3e
00000150: e7f6 ec3b 07db 8c3e 665c af3d c42e 0f3e
00000160: 3678 d93d 168e 2e3e 4406 273e 5ecb 3f3e
00000170: bdc0 213e 2d81 9ebb 579c 333e 020b 593e
00000180: ddcf 7b3e 3d0c 173e ce12 9f3e dcbe 033e
00000190: 1c68 723e 9944 173e 8c67 403e 85c8 3f3e
000001a0: 511c 423e 3a66 d83d a4b9 533e 8acf 263e
000001b0: 24ed 4e3e 91e1 2e3e 63eb e93d 4af6 213e
000001c0: 80f3 583e 6ff5 e63a c792 293e e004 8d3d
000001d0: 0497 773c 6794 583e 8df9 0b3b 19ff 863e
000001e0: c1b6 053e 6665 053e 8a44 6b3e 1535 163c
000001f0: ffe3 3c3e 52ef 123b d593 313e 6323 2f3e
00000200: a014 823b 9961 043c d98b 1f3e 3798 3b3e
00000210: 0109 313e 2dc8 073e 34e7 5f3e 9da3 913c
00000220: 94fc 3c3e 92d2 193e 87da 323e 36bd 283e
00000230: 52dd a639 e1ef 043e 7bc7 df3b 383c 1d3e
00000240: 1850 213e b4c8 133e 6674 733d 4abf fd3b
00000250: b2f0 083e 9c13 6e3e 077a 193e 26fe 2a3e
00000260: e202 4a3e 8dff 093e 0261 403e 86a6 1e3e
00000270: de62 4b3e b3f2 df3d 7f9a 303e d544 1f3e
00000280: 4d7c 063e ee7d 443e bab0 263e 9c3c 743e
00000290: b06a 113e 0d6d 5e3e 6ec8 ff3b aefa d63c
000002a0: 103a 723b 6d90 243e 5f61 703e 5b99 e33d
000002b0: 8b01 173e 5144 f53d 27af 493e

apply_A2.weight f4 [175, 1, 11, 11]
0.08164164 -0.058083188 0.09470211 -0.0024042244 0.052243605 0.010122612 0.061757296 -0.007024968
0.008580964 0.061112773 -0.02352717 0.053861428 0.002584916 0.041391633 0.099532776 -0.001959768
0.09842511 0.008339601 -0.037810717 0.04342365 0.034655977 -0.020890817 0.033811204 0.13491206
0.028114494 -0.04945304 0.07081374 0.04037938 0.029568754 0.20244044 -0.12323332 0.06049371
0.037254296 0.007822179 0.078520395 0.012875829 0.04901198 0.09693919 0.004343086 0.038984623
-0.086749464 0.027574198 -0.04972602 0.055420708 0.06522716 0.03180788 0.03057568 0.09613586
0.096576266 0.07317945 0.1160401 0.06255179 0.092920296 -0.017549489 0.03050961 0.075117156
-0.005072175 0.09552479 0.032469455 0.058442045 0.16790667 0.07215751 0.040213976 0.06679469
-0.012355426 0.14552021 0.069799475 0.059281603 0.10388364 0.055220973 0.13506547 0.059939284
0.12173956 0.049027715 0.04412799 0.09654681 -0.016579106 0.009615358 0.11372303 0.02788315
-0.02287137 0.070174746 0.0631122 0.06316947 0.034286212 0.019140342 -0.04664648 0.100392304
0.12755547 -0.0031231572 0.080102995 0.08340839 0.05477975 0.033661317 0.07179859 -0.048302207
0.08927536 -0.0040459926 -0.0027306527 0.04233048 0.034969702 0.006220176 0.20626515 0.04096083
0.060419437 0.075748526 0.0650412 0.058147654 -0.040541686 0.024868788 0.09379012 0.059769027
0.055061437 0.00948076 0.04313916 -0.007871116 0.092713706 0.05853183 -0.1422769 0.065775655
0.022075279 -0.022945097 0.012066598 -0.05820075 0.07667751 0.015265117 -0.0017263349 -0.013462747
0.017763495 -0.012947451 -0.118724264 0.11230647 0.035944577 -0.019908758 0.110935904 -0.20333883
0.008106092 -0.0630518 0.08333302 -0.054649714 0.22453089 0.016413053 -0.016263837 -0.041132372
-0.036766935 -0.137037 0.06482251 0.033491727 0.032943957 -0.008342232 -0.09725357 0.121551275
-0.04458966 0.10636498 -0.05845753 -0.038280055 0.09152033 -0.1372716 0.0295063 -0.15280321
-0.047730703 0.123517364 0.09519261 0.07396657 -0.07714773 -0.043093868 -0.06647807 0.019906186
0.016429778 -0.13309656 -0.03508101 -0.017141264 -0.02187745 0.0023448227 -0.032138363 0.0024037173
-0.0444985 0.0048956918 -0.123450845 -0.000497158 0.008738773 -0.06369878 -0.04146767 0.009367744
-0.057097677 -0.00146907 -0.05082846 -0.022080414 0.019345999 -0.035213176 -0.010865689 -0.07110895
-0.06523149 -0.06490278 -0.030677741 -0.061240934 0.074395664 0.01421186 0.040070742 -0.10512662
0.080485255 -0.090043366 0.010425069 -0.020396857 -0.011173786 -0.057424787 0.012368314 -0.07807206
0.00941459 -0.01315038 -0.12244187 0.14468563 -0.00743219 -0.013514179 0.061466306 -0.077109225
0.032898143 -0.026817968 -0.0846672 0.010394617 0.0491795 -0.040914804 -0.056800295 -0.2061328
-0.07488827 0.047534797 -0.017018586 0.03517009 -0.033882212 0.13546279 -0.03462834 0.010418061
0.040601403 -0.036294255 0.032780886 -0.02943131 0.036762826 -0.060591303 0.012874208 0.0025203023
-0.016698001 -0.04726156 -0.0622413 -0.0133173745 -0.12190084 0.11518904 0.017946316 0.056927163
-0.0063379453 0.09045297 0.06288916 0.08836627 -0.14984766 0.009742724 0.07407307 -0.122117534
00000000: bb33 a73d a3e8 6dbd 2ef3 c13d 3190 1dbb
00000010: 64fd 553d 50d9 253c 38f5 7c3d b431 e6bb
00000020: 2c97 0c3c 6351 7a3d 0dbc c0bc cd9d 5c3d
00000030: b267 293b 468a 293d d7d7 cb3d 736f 00bb
00000040: 1b93 c93d d2a2 083c 69df 1abd ffdc 313d
00000050: 6df3 0d3d 3823 abbc 9e7d 0a3d 6326 0a3e
00000060: 5e50 e63c 458f 4abd cb06 913d d964 253d
00000070: 2c3a f23c 8c4c 4f3e c061 fcbd 41c8 773d
00000080: f697 183d 9928 003c 4dcf a03d 24f5 523c
00000090: c9c0 483d 0e88 c63d 7250 8e3b 57ae 1f3d
000000a0: b4a9 b1bd 49e3 e13c 83ad 4bbd d300 633d
000000b0: d195 853d fb48 023d d979 fa3c e1e2 c43d
000000c0: c7c9 c53d 1cdf 953d 6fa6 ed3d 271b 803d
000000d0: ff4c be3d f2c3 8fbc 4aef f93c 06d7 993d
000000e0: 7d34 a6bb 80a2 c33d b1fe 043d ed60 6f3d
000000f0: baef 2b3e 51c7 933d 69b7 243d a8cb 883d
00000100: 6a6e 4abc 4003 153e 07f3 8e3d 44d1 723d
00000110: f2c0 d43d 632f 623d 9a4e 0a3e e582 753d
00000120: 9752 f93d 49d1 483d 8dbf 343d 55ba c53d
00000130: e8d0 87bc bc89 1d3c 9fe7 e83d 346b e43c
00000140: bd5c bbbc c7b7 8f3d f840 813d ff5e 813d
00000150: b36f 0c3d 35cc 9c3c 6110 3fbd 7b9a cd3d
00000160: e79d 023e e2ad 4cbb 0a0d a43d 05d2 aa3d
00000170: bb60 603d 73e0 093d 240b 933d 89d8 45bd
00000180: 00d6 b63d 3f94 84bb c0f4 32bb ba62 2d3d
00000190: 643c 0f3d 9ed2 cb3b 2c37 533e 8bc6 273d
000001a0: 5f7a 773d 0b22 9b3d 5234 853d 3c2c 6e3d
000001b0: 0a0f 26bd a1b9 cb3c 0915 c03d 5ed0 743d
000001c0: 1a88 613d 3155 1b3c b0b2 303d daf5 00bc
000001d0: afe0 bd3d 12bf 6f3d 09b1 11be 63b5 863d
000001e0: 37d7 b43c 5bf7 bbbc fbb2 453c e963 6ebd
000001f0: 1909 9d3d 8b1a 7a3c 3046 e2ba db92 5cbc
00000200: c084 913c 8c21 54bc b525 f3bd ef00 e63d
00000210: 9f3a 133d b117 a3bc 5d32 e33d 0e38 50be
00000220: 6acf 043c 4d21 81bd 81aa aa3d 61d8 5fbd
00000230: 6deb 653e ab74 863c bd3b 85bc 6b7a 28bd
00000240: ed98 16bd 6d53 0cbe aac1 843d 9f2e 093d
00000250: 3ef0 063d dbad 08bc e12c c7bd e0ef f83d
00000260: a6a3 36bd e2d5 d93d 2a71 6fbd 8ccb 1cbd
00000270: 036f bb3d ed90 0cbe 32b7 f13c 7278 1cbe
00000280: 4581 43bd acf6 fc3d 58f4 c23d c97b 973d
00000290: a1ff 9dbd 3283 30bd a825 88bd 4c12 a33c
000002a0: be97 863c 774a 08be 1bb1 0fbd d66b 8cbc
000002b0: 5738 b3bc 99ab 193b 84a3 03bd af87 1d3b
000002c0: 0f44 36bd 0a6c a03b ccd3 fcbd b553 02ba
000002d0: 122d 0f3c 8274 82bd 01da 29bd 2b7b 193c
000002e0: 41df 69bd cf8d c0ba 8131 50bd fce1 b4bc
000002f0: 807b 9e3c b13b 10bd 0106 32bc 92a1 91bd
00000300: 1698 85bd c0eb 84bd e34f fbbc c6d7 7abd
00000310: c15c 983d dcd8 683c 3821 243d a04c d7bd
00000320: 74d5 a43d a868 b8bd e9cd 2a3c 4f17 a7bc
00000330: 4112 37bc 4136 6bbd 78a4 4a3c 3fe4 9fbd
00000340: a73f 1a3c b174 57bc cec2 fabd 7828 143e
00000350: ba89 f3bb 936a 5dbc 18c4 7b3d 71eb 9dbd
00000360: 34c0 063d 5bb1 dbbc ff65 adbd 2f4e 2a3c
00000370: 7270 493d 4896 27bd 6da7 68bd 7a14 53be
00000380: 055f 99bd d9b3 423d 906a 8bbc 830e 103d
00000390: 13c8 0abd c2b6 0a3e 72d6 0dbd 84b0 2a3c
000003a0: a84d 263d 49a9 14bd 4045 063d ee19 f1bc
000003b0: 9e94 163d 962e 78bd 58ee 523c a82b 253b
000003c0: 3fca 88bc 5695 41bd bcf0 7ebd 1e31 5abc
000003d0: 26a7 f9bd 3be8 eb3d 2704 933c 752c 693d
000003e0: 8aae cfbb 683f b93d 08cc 803d 60f9 b43d
000003f0: aa71 19be f29f 1f3c 9fb3 973d c218 fabd

apply_B2.weight f4 [175, 1, 11, 11]
0.02873427 -0.046053436 0.009292804 0.00938408 0.004062773 -0.014883346 -0.0035115755 -0.032304876
0.025456494 0.05122237 -0.048952643 -0.001625617 -0.0025298651 0.022541484 0.028354416 -0.04772809
0.009958947 0.0066412073 -0.03652954 0.006424444 0.013206182 -0.04226003 0.041320145 0.01210837
-0.017113464 0.0011396057 0.008422751 -0.0063048773 -0.016135711 0.10987066 -0.07125518 -0.03613939
0.08507549 -0.055207606 -0.022244789 -0.006980908 0.01694262 0.006060486 -0.01028421 -0.048321195
0.03358727 -0.054674108 -0.06550685 0.005692904 -0.0256152 -0.044986136 -0.009264953 -0.018975886
-0.019721603 -0.030391341 0.036203288 -0.0070812693 -0.058379263 -0.058677606 -0.015137199 -0.014787508
-0.04470812 -0.012101005 0.02792303 -0.073735975 0.042158764 0.041332766 0.016912905 0.0013514977
-0.060741086 0.0253394 0.036165714 0.095353805 0.045943696 0.030255474 0.05193388 -0.029437333
0.009616159 0.06288651 0.040211853 0.05827015 0.00516508 0.027560484 -0.00492087 0.026861003
-0.018165523 0.07395877 0.05693829 0.006139566 0.04837324 0.0019693847 0.033437062 0.016801598
0.0025373413 -0.011952014 0.054390654 0.06401108 0.030485604 0.015172482 -0.010699488 -0.013237132
0.032071594 0.044383664 -0.0030202977 0.0440111 -0.045407988 0.026794745 0.1442151 0.0035702544
0.0032759318 0.015350863 -0.005509035 0.02216975 -0.014857997 0.07185266 0.051618803 0.019159107
-0.050221995 -0.02581266 0.010190538 -0.021971816 0.022135943 0.0033444448 -0.08419171 -0.05455798
0.04572198 -0.015146515 -0.022353962 -0.011697337 0.049164917 0.02381502 0.0116370665 -0.0099543985
-0.00684688 -0.06965665 -0.040774856 0.047524285 0.025936058 -0.029238278 0.024910927 -0.08650288
0.018764809 0.032450713 0.030993178 -0.021132391 0.14508171 0.03801798 -0.09984421 -0.0044849077
-0.01573085 -0.00876059 -0.041738186 0.0525508 0.02475524 0.027933197 -0.08333941 0.06638221
-0.0772158 0.07773087 -0.037779108 0.045864917 0.054780524 -0.037743744 0.030021502 -0.06213239
-0.06580544 -0.0057846643 0.123247504 0.069398046 -0.049271207 0.0068922983 -0.008148442 -0.002852886
0.034843713 -0.028106626 -0.02037729 -0.0030844335 -0.031635713 -0.0056825266 -0.050492585 -0.02445843
0.0003384059 0.01914728 0.0023017859 -0.021050995 -0.0019538635 -0.002847593 0.0008278229 -0.0074343896
-0.007106865 -0.02563891 0.033740688 -0.005707901 0.014172675 -0.037615817 -0.004884221 -0.011250551
0.031984206 0.0299636 0.0046756617 -0.02893767 0.06531008 0.036895987 0.02678405 -0.022379475
0.007912412 -0.0627963 0.00061384274 0.045750286 0.0481564 0.012771015 -0.026588561 -0.07084449
0.048386246 -0.051652323 -0.08347797 0.08792407 0.046184614 0.013261102 0.0075178514 0.0033174648
-0.01320567 0.08979974 -0.04966343 -0.04154553 0.049567595 -0.056460056 -0.005616853 -0.16786835
-0.022269502 -0.0041583204 0.0010750035 0.023951553 -0.020765204 -0.022761662 -0.036522336 0.002082044
0.017496608 -0.042042464 -0.027156835 -0.036424536 0.0033027546 0.011261945 0.037932336 -0.013175257
0.11008468 -0.038773082 -0.098352514 -0.026080243 -0.069876865 0.0658605 0.015758919 -0.0029590204
-0.0032573217 0.032695204 0.0030645682 0.07987636 -0.05469798 0.06770064 -0.08059638 -0.11311052
00000000: 2264 eb3c 87a2 3cbd d840 183c afbf 193c
00000010: 0321 853b 47d9 73bc 7622 66bb 1e52 04bd
00000020: 238a d03c 8cce 513d 9182 48bd a812 d5ba
00000030: 18cc 25bb eba8 b83c 8547 e83c 887e 43bd
00000040: da2a 233c 7c9e d93b 00a0 15bd 2484 d23b
00000050: be5e 583c da18 2dbd 503f 293d 2f62 463c
00000060: 8931 8cbc d25e 953a 94ff 093c 2599 cebb
00000070: 0a2f 84bc de03 e13d 3cee 91bd e606 14bd
00000080: 0f3c ae3d 5f21 62bd b43a b6bc 1ac0 e4bb
00000090: 40cb 8a3c 0b97 c63b 1a7f 28bc 72ec 45bd
000000a0: ce92 093d f5f1 5fbd 7528 86bd 8a8b ba3b
000000b0: f8d6 d1bc 6243 38bd 08cc 17bc 5173 9bbc
000000c0: 338f a1bc 43f7 f8bc e649 143d fe09 e8bb
000000d0: 181f 6fbd ee57 70bd 0402 78bc 4e47 72bc
000000e0: dd1f 37bd 4b43 46bc d7be e43c e302 97bd
000000f0: abae 2c3d 8c4c 293d ef8c 8a3c bd24 b13a
00000100: a5cb 78bd 9394 cf3c 8022 143d db48 c33d
00000110: 752f 3c3d 54da f73c 9fb8 543d 9026 f1bc
00000120: 188d 1d3c a4ca 803d 2fb5 243d aeac 6e3d
00000130: d53f a93b 86c6 e13c 403f a1bb 9b0b dc3c
00000140: ddcf 94bc b277 973d 2038 693d 6a2e c93b
00000150: 0523 463d cb10 013b 4df5 083d 81a3 893c
00000160: 8649 263b 61d2 43bc bcc8 5e3d 3e18 833d
00000170: f2bc f93c 0096 783c e84c 2fbc 8ee0 58bc
00000180: 815d 033d a5cb 353d 30f0 45bb fc44 343d
00000190: bafd 39bd a780 db3c 20ad 133e eefa 693b
000001a0: 04b1 563b 3082 7b3c 2385 b4bb 569d b53c
000001b0: f56e 73bc 7d27 933d 3d6e 533d 8ff3 9c3c
000001c0: 94b5 4dbd 1275 d3bc 37f6 263c 3dfe b3bc
000001d0: 7056 b53c 792e 5b3b b46c acbd 3078 5fbd
000001e0: f946 3b3d 1729 78bc a81f b7bc 30a6 3fbc
000001f0: 2761 493d b817 c33c 65a9 3e3c c617 23bc
00000200: cb5b e0bb 25a8 8ebd 8903 27bd d3a8 423d
00000210: db77 d43c 1d85 efbc 0012 cc3c 6c28 b1bd
00000220: a8b8 993c 0aeb 043d 68e5 fd3c d61d adbc
00000230: 4d90 143e beb8 1b3d 1f7b ccbd 22f6 92bb
00000240: fcdd 80bc 9488 0fbc a9f5 2abd 823f 573d
00000250: 80cb ca3c 29d4 e43c daad aabd 65f3 873d
00000260: 5123 9ebd 5d31 9f3d 44be 1abd dadc 3b3d
00000270: 8b61 603d 2f99 1abd a7ef f53c 887e 7ebd
00000280: 01c5 86bd 488d bdbb 3069 fc3d 9020 8e3d
00000290: 9bd0 49bd cad8 e13b 0b81 05bc 7cf7 3abb
000002a0: 48b8 0e3d de3f e6bc 46ee a6bc 3524 4abb
000002b0: 7394 01bd 7d34 babb 50d1 4ebd 0c5d c8bc
000002c0: 126c b139 c2da 9c3c 8fd9 163b 2373 acbc
000002d0: 640c 00bb af9e 3abb 4102 593a 2e9c f3bb
000002e0: b4e0 e8bb b108 d2bc ad33 0a3d 5809 bbbb
000002f0: 8234 683c 0b13 1abd d10b a0bb 3b54 38bc
00000300: df01 033d 3976 f53c 4b36 993b b10e edbc
00000310: 4bc1 853d 3f20 173d 396a db3c 2955 b7bc
00000320: 10a3 013c 599b 80bd 4aea 203a a764 3b3d
00000330: a53f 453d 853d 513c 41d0 d9bc ea16 91bd
00000340: a830 463d 6391 53bd 7ff6 aabd 8911 b43d
00000350: 142c 3d3d 1845 593c 4f58 f63b d369 593b
00000360: 985c 58bc ede8 b73d e16b 4bbd a52b 2abd
00000370: 6407 4b3d a942 67bd 940d b8bb aee5 2bbe
00000380: 886e b6bc 8542 88bb 22e7 8c3a 0c36 c43c
00000390: ca1b aabc aa76 babc 7298 15bd e772 083b
000003a0: 0c55 8f3c b834 2cbd 0378 debc e531 15bd
000003b0: 0773 583b 0584 383c f05e 1b3d 08dd 57bc
000003c0: 1474 e13d 86d0 1ebd 0b6d c9bd 3ca6 d5bc
000003d0: 9a1b 8fbd dfe1 863d d918 813c 20ec 41bb
000003e0: ca78 55bb 68eb 053d ecd6 483b 3896 a33d
000003f0: fd0a 60bd a2a6 8a3d b70f a5bd 7da6 e7bd

apply_C2.weight f4 [175, 1, 11, 11]
0.014417043 0.015874146 0.020315865 0.0077517927 0.015598472 -0.00082042615 0.00069855823 -0.0065071145
-0.007419557 0.0060818363 0.011068353 0.019773114 0.02300484 0.029066775 0.022971872 0.016509607
0.008657817 -0.00739957 0.0014930981 0.017725244 0.0072851395 0.01871827 0.012724885 0.025567114
0.01711295 0.013717593 0.008625867 0.012901991 0.021087553 0.015432522 0.007085576 0.008122611
0.0054101422 0.020785594 0.025996728 0.01633403 0.017515972 0.0123515995 -0.010578579 -0.0022378669
-0.0073248995 0.006929603 0.007725253 -0.0021965883 0.044813488 0.025375284 0.025402358 0.02446061
0.03027362 0.023859639 0.007254805 0.021062272 0.022684416 0.03943576 0.0018284869 0.052714728
0.046833314 0.02306351 0.043294318 0.07026451 0.08048989 0.00016533247 0.0245769 0.041211985
0.03106514 0.014609737 0.005096715 -0.0202585 0.032600343 0.038742717 0.07101552 0.11439005
0.07756164 0.022124395 0.030983262 0.011014925 0.031726424 0.031033594 0.0419452 0.04205463
0.05880624 0.07137963 0.06113979 0.08455731 0.061288513 0.036333323 0.013282688 0.05066674
0.026616702 0.021010851 0.023956124 0.045755804 0.026341844 0.042581584 0.04679109 0.013972544
0.015282578 0.004588351 0.01330923 0.023063032 0.010307599 0.009293971 0.026544608 0.037018888
0.01742644 0.03161164 0.021103345 -0.008413361 -0.01821249 0.012226141 0.0146922 0.0010235568
0.048421998 0.031485803 0.03427081 0.034829717 0.034132123 0.036744516 0.0070802425 -0.003253791
0.0019342289 0.007957544 -0.011588581 -0.0035832857 -0.0002344955 -0.011565905 -0.007529257 0.002257806
0.0054308004 0.0074122925 -0.0037288861 -0.016125064 -0.0009724593 -0.0038144295 -0.007979428 -0.007824437
-0.004743639 -0.0035032125 0.035445776 0.011641549 0.007007824 0.003793952 -0.001382449 -0.0005483346
-0.020952176 -0.029996997 -0.014002832 -0.011586442 -0.004968421 0.007535039 0.0023640685 0.0015900799
0.014105419 -0.0040549096 -0.012628217 -0.015219458 -0.028038714 -0.0303189 -0.029163126 -0.0041345065
-0.0035819716 -0.011463424 -0.018791698 -0.012843503 -0.009312838 -0.023338571 -0.009540695 -0.029525215
-0.04838407 -0.042848043 -0.017646013 0.0018898658 -0.00095106603 -0.026547678 -0.003668356 0.004329899
-0.023882885 -0.024211196 -0.01217991 -0.011622795 -0.027687045 -0.016554303 -0.00090987707 0.006637154
0.0043627303 -0.002225986 0.007925304 -0.009790752 0.0017375855 -0.0055806846 -0.010053379 -0.03941301
-0.03199728 -0.015515476 0.024464939 0.039453544 -0.022084324 -0.005883131 -0.011052376 -0.0033208393
0.019479845 0.0075671473 0.002245854 -0.021430667 -0.0036164706 -0.0032775225 -0.013279645 -0.0026174253
0.0018099851 -0.0069733113 0.009464167 -0.002933971 -0.012344334 0.002578341 0.01584864 -0.012509476
-0.01258849 -0.023153521 0.011690148 0.0067340834 -0.0077044615 -0.0078100176 -0.0061733685 -0.0035858038
-0.0032962647 -0.0008302337 -0.018984362 -0.0070988643 0.01296357 0.01585953 0.022045495 0.0124143055
0.015707726 -0.004265514 -0.0011074777 0.0052216575 0.0016278942 -0.024614196 -0.01580988 -0.0046942155
0.006285029 0.008685743 -0.002399101 0.0025695723 0.012823464 0.021216966 0.0027782568 -0.017966796
-0.013599469 -0.006549136 -0.008730867 0.0050421227 0.0024653682 -0.0009804828 -0.013073846 0.005283021
00000000: 7635 6c3c 7f0a 823c 756d a63c c002 fe3b
00000010: bc90 7f3c de11 57ba 731f 373a a239 d5bb
00000020: c11f f3bb 244a c73b 0a58 353c 3afb a13c
00000030: a574 bc3c 721d ee3c 822f bc3c 283f 873c
00000040: 84d9 0d3c 1878 f2bb 0fb4 c33a 8834 913c
00000050: 2eb8 ee3b 0f57 993c 097c 503c 2072 d13c
00000060: 7530 8c3c c1bf 603c 8253 0d3c df62 533c
00000070: cebf ac3c b0d8 7c3c 1f2e e83b b314 053c
00000080: 9047 b13b 8d46 aa3c 17f7 d43c f2ce 853c
00000090: a87d 8f3c 5d5e 4a3c c751 2dbc 2da9 12bb
000000a0: b605 f0bb b911 e33b 1e24 fd3b a3f4 0fbb
000000b0: 598e 373d d4df cf3c 9b18 d03c 9e61 c83c
000000c0: 6200 f83c 4a75 c33c b7b9 ed3b c98a ac3c
000000d0: abd4 b93c 6487 213d d7a9 ef3a 66eb 573d
000000e0: 4ad4 3f3d b0ef bc3c 6255 313d d7e6 8f3d
000000f0: e2d7 a43d 195d 2d39 7f55 c93c e6cd 283d
00000100: 527c fe3c ae5d 6f3c 5802 a73b 27f5 a5bc
00000110: f087 053d afb0 1e3d 9670 913d 5545 ea3d
00000120: a3d8 9e3d 383e b53c 9cd0 fd3c f277 343c
00000130: 91f3 013d 2a3a fe3c bbce 2b3d 7a41 2c3d
00000140: d0de 703d 7c2f 923d b76d 7a3d 622c ad3d
00000150: aa09 7b3d 40d2 143d a29f 593c ed87 4f3d
00000160: 450b da3c f31e ac3c a23f c43c 706a 3b3d
00000170: daca d73c 076a 2e3d 04a8 3f3d 19ed 643c
00000180: c763 7a3c e159 963b f50e 5a3c afee bc3c
00000190: 34e1 283c bd45 183c 1474 d93c 1ea1 173d
000001a0: e5c1 8e3c 357b 013d ece0 ac3c 32d8 09bc
000001b0: 5c32 95bc 2750 483c 8eb7 703c de28 863a
000001c0: 2556 463d 42f7 003d 8d5f 0c3d 9ba9 0e3d
000001d0: 20ce 0b3d 6b81 163d 6101 e83b 8e3d 55bb
000001e0: f485 fd3a 5c60 023c 08de 3dbc 8fd5 6abb
000001f0: e8e2 75b9 ec7e 3dbc fcb7 f6bb b3f7 133b
00000200: dbf4 b13b d1e2 f23b 5460 74bb b618 84bc
00000210: a4ec 7eba 82fb 79bb 26bc 02bc 1132 00bc
00000220: 8770 9bbb 2796 65bb 972f 113d 32bc 3e3c
00000230: e3a1 e53b f4a3 783b 4a33 b5ba 1dbe 0fba
00000240: e6a3 abbc 43bc f5bc 226c 65bc 0fd5 3dbc
00000250: 23ce a2bb 7de8 f63b 7dee 1a3b 3a6a d03a
00000260: 6a1a 673c 0cdf 84bb 95e6 4ebc 095b 79bc
00000270: 72b1 e5bc 575f f8bc 82e7 eebc c17a 87bb
00000280: 83bf 6abb 16d1 3bbc 0cf1 99bc 8e6d 52bc
00000290: e094 18bc 8830 bfbc 9350 1cbc ddde f1bc
000002a0: 602e 46bd 6e81 2fbd 5f8e 90bc 60b5 f73a
000002b0: f650 79ba 847a d9bc cd68 70bb d3e1 8d3b
000002c0: 0aa6 c3bc 8f56 c6bc 3f8e 47bc 896d 3ebc
000002d0: f1cf e2bc e49c 87bc d184 6eba 7c7c d93b
000002e0: 3cf5 8e3b d9e1 11bb 22d9 013c 6469 20bc
000002f0: b2bf e33a 2dde b6bb eeb6 24bc 896f 21bd
00000300: 940f 03bd a034 7ebc b26a c83c 0a9a 213d
00000310: 2fea b4bc 48c7 c0bb 0615 35bc 70a2 59bb
00000320: 3294 9f3c d5f5 f73b 2d2f 133b 5e8f afbc
00000330: 4f02 6dbb b4cb 56bb de92 59bc 1c89 2bbb
00000340: 063d ed3a 6080 e4bb 980f 1b3c dd47 40bb
00000350: e43f 4abc 62f9 283b 02d5 813c 8cf4 4cbc
00000360: f43f 4ebc 74ac bdbc 0988 3f3c 96a9 dc3b
00000370: b575 fcbb 2deb ffbb f849 cabb ceff 6abb
00000380: 2506 58bb 0aa4 59ba 1885 9bbc 979d e8bb
00000390: 2765 543c d8eb 813c c198 b43c 5f65 4b3c
000003a0: 7dad 803c bac5 8bbb c928 91ba 701a ab3b
000003b0: 115f d53a b6a3 c9bc b983 81bc efd1 99bb
000003c0: a5f2 cd3b a64e 0e3c 3c3a 1dbb 4566 283b
000003d0: 8219 523c 34cf ad3c 6a13 363b 1a2f 93bc
000003e0: 4fd0 5ebc 229a d6bb e90b 0fbc 6438 a53b
000003f0: 0492 213b 8b83 80ba af33 56bc 311d ad3b

soft_threshold2.threshold f4 [1, 175, 1, 1]
0.0050038574 0.0017009029 0.25352913 0.13857333 0.10105879 0.14106663 0.0008178583 0.107803494
0.15244202 0.13609631 0.23862305 0.14061436 0.21080336 0.18179658 0.1252939 0.1855098
0.2149262 0.1553992 0.002250482 0.1301674 0.11546532 0.0012038371 0.19430806 0.15259355
-0.00924886 0.14640689 0.19193685 0.13164902 0.14759982 0.13666582 0.22024077 0.19424963
0.12655726 0.008514335 0.0018050005 0.0033089123 0.117880486 0.002133964 -0.0017361145 0.17643122
0.14688085 0.0009780594 0.15379085 0.21482392 0.15061383 -0.0006597038 0.16316038 0.14207639
0.1512562 0.16268903 0.16823278 0.073289454 0.1393948 0.15260358 0.20928866 0.15554847
0.14477812 0.1999794 0.15668152 0.00016001932 0.22746049 0.0127011305 0.15057932 0.0031827318
0.15191191 0.001686608 0.22264165 0.15469879 0.13553454 0.17876546 -2.0897949e-06 0.12720504
0.14730512 0.17583469 0.15368506 0.15623304 0.12848368 0.14745489 0.16434014 0.16375673
0.1287475 0.14152944 0.22766356 0.1602424 0.11117985 0.127402 0.0028607908 0.16124423
0.18849383 0.18407883 0.004756046 0.0020651312 -0.0020457106 0.15241379 0.14396869 0.1933397
-0.0007402205 0.12572362 0.1715129 0.17322609 0.15933481 0.1823964 0.1621652 0.21832076
0.15223907 0.008029828 0.0048829806 0.005299476 0.0022486544 0.17406198 0.09901525 0.12582089
0.0045433994 0.15502632 0.14380111 0.13577296 0.22689755 0.116198204 0.15322322 0.0024027263
0.20513684 -0.030469956 0.1941507 0.13702564 0.15171167 0.14818968 0.14072174 0.12946248
0.0012533233 0.14519142 0.12116435 0.06175648 0.124951966 0.17394002 0.20960768 0.119890496
0.14982702 0.101010986 0.13184415 0.16234726 0.19605753 0.18282878 0.19817548 0.13693376
0.18944453 0.17520459 0.18541536 0.20880425 0.1448651 0.12270993 -0.0019270445 0.07995346
0.0005237761 0.19581479 0.151843 0.10907199 0.14295903 0.10355759 0.0034550696 0.18437469
0.15898247 0.1488029 0.0044438182 0.1328182 0.1474425 0.16373444 0.15951021 0.19799457
0.00020971346 0.12814067 0.18795192 0.23109874 0.16622382 0.18335007 0.20825458
00000000: 66f7 a33b d5f0 de3a 92ce 813e 2be6 0d3e
00000010: e9f7 ce3d c573 103e 8b65 563a 14c8 dc3d
00000020: c319 1c3e d55c 0b3e 9a59 743e 36fd 0f3e
00000030: d6dc 573e e228 3a3e 0b4d 003e 48f6 3d3e
00000040: 9d15 5c3e f820 1f3e d37c 133b 9a4a 053e
00000050: 1579 ec3d 12ca 9d3a b1f8 463e 7c41 1c3e
00000060: 8888 17bc b0eb 153e 188b 443e 00cf 063e
00000070: 6824 173e 20f2 0b3e cc86 613e 60e9 463e
00000080: 3a98 013e b67f 0b3c c495 ec3a 56da 583b
00000090: 536b f13d fad9 0b3b 568e e3ba 63aa 343e
000000a0: ef67 163e 3a32 803a 597b 1d3e cdfa 5b3e
000000b0: 833a 1a3e f9ef 2cba 8413 273e 797c 113e
000000c0: e8e2 1a3e f497 263e 3745 2c3e c818 963d
000000d0: 83bd 0e3e 1d44 1c3e c44f 563e 1948 1f3e
000000e0: b740 143e 66c7 4c3e 1f71 203e dcca 2739
000000f0: 67eb 683e 6718 503c 7731 1a3e 6195 503b
00000100: cc8e 1b3e 2c11 dd3a 2cfc 633e 5c69 1e3e
00000110: 91c9 0a3e 4b0e 373e 673e 0cb6 0a42 023e
00000120: 27d7 163e 020e 343e 9e5f 1d3e 8efb 1f3e
00000130: 3a91 033e 6afe 163e c848 283e d8af 273e
00000140: 62d6 033e 18ed 103e a320 693e 9516 243e
00000150: 43b2 e33d ab75 023e 1b7c 3b3b 351d 253e
00000160: 8704 413e 297f 3c3e 9bd8 9b3b 2757 073b
00000170: 5411 06bb 5c12 1c3e 876c 133e d8fa 453e
00000180: 5b0b 42ba b1bd 003e 14a1 2f3e 2e62 313e
00000190: aa28 233e 1fc6 3a3e a20e 263e 7a8f 5f3e
000001a0: 8fe4 1b3e 8a8f 033c 6901 a03b 3aa7 ad3b
000001b0: 295e 133b 4e3d 323e 82c8 ca3d 31d7 003e
000001c0: cce0 943b 38bf 1e3e 9940 133e 1108 0b3e
000001d0: d557 683e 53f9 ed3d 8ce6 1c3e 0f77 1d3b
000001e0: 640f 523e 219c f9bc 71cf 463e 7350 0c3e
000001f0: 4e5a 1b3e 09bf 173e 5c19 103e d091 043e
00000200: 8d46 a43a 0fad 143e 0425 f83d 5df4 7c3d
00000210: d1e6 ff3d 551d 323e 65a3 563e 2689 f53d
00000220: 416c 193e d9de ce3d 2702 073e 5c3e 263e
00000230: 4ec3 483e 7837 3b3e 83ee 4a3e 5d38 0c3e
00000240: bffd 413e d568 333e 86dd 3d3e c8d0 553e
00000250: 8457 143e 584f fb3d e294 fcba a4be a33d
00000260: 054e 093a ac83 483e bb7c 1b3e 2361 df3d
00000270: da63 123e 0016 d43d 736e 623b b8cc 3c3e
00000280: 4dcc 223e ca5f 183e 739d 913b 7f01 083e
00000290: 2bfb 163e 00aa 273e a556 233e 17bf 4a3e
000002a0: 87e6 5b39 4f37 033e 7876 403e 26a5 6c3e
000002b0: 9436 2a3e 1fc0 3b3e b040 553e
